trading/models/AAPL_lstm.pth (torch, 70885 bytes, 9 tensors)

lstm.weight_ih_l0 f4 [128, 30]
0.025075197 -0.08242822 -0.00891979 0.042523503 0.10052861 0.03946024 -0.15207297 0.1334426
-0.022179872 0.058412686 0.096501306 -0.1726557 -0.19476292 0.193332 0.15630691 -0.058265418
-0.14326376 -0.087968305 0.177581 0.16887842 -0.1787506 0.1321987 0.18781088 -0.09751106
-0.174417 0.11574431 -0.064763516 -0.03606768 -0.01625207 0.123834714 -0.13915053 -0.008845612
-0.049896464 -0.109879196 -0.18522277 -0.19015081 -0.19119217 -0.041292965 -0.1626514 -0.018528104
-0.15165192 -0.13955528 0.1486593 0.06940235 0.13570835 0.15695773 -0.018052265 -0.13480067
0.040950924 0.19280393 0.16591282 -0.08316374 -0.152493 -0.15583041 0.118542746 0.055708453
-0.15670337 -0.07013154 -0.022522345 -0.009695098 -0.10360252 -0.06679019 0.031008884 -0.016064748
-0.19163229 -0.02951558 0.1781394 -0.054804772 -0.010390222 -0.041262165 0.19102113 0.12498723
0.048348516 -0.1061581 0.031609714 -0.026316121 -0.017933026 -0.15658516 -0.14205451 0.0028250813
-0.031390697 -0.04425241 -0.1793711 -0.058913037 0.017335221 -0.15172839 -0.043183833 0.054272547
-0.1281164 0.1854045 0.10176526 0.13432722 -0.09346358 0.15699936 0.047132418 -0.1804063
-0.10107835 0.040749416 -0.17276655 0.004679695 0.14683612 0.16027416 -0.16806644 -0.16838586
0.094075665 0.01242207 -0.171004 -0.16588923 0.0828823 0.1403646 0.029234707 0.1561759
0.09259541 -0.005569473 -0.07181542 -0.18626058 0.10624863 0.13846777 -0.087934196 0.03607279
-0.01994966 -0.08088704 -0.023760617 -0.059445083 -0.06982179 0.06395586 -0.18875732 -0.1731115
0.035139903 0.06820308 -0.03965427 -0.1901528 0.15297891 0.03164038 -0.005028382 -0.0117152035
-0.13084778 -0.14472112 -0.16831702 0.123713896 -0.104311995 -0.028570503 -0.13321288 0.12132855
-0.1213202 -0.10057248 0.06589301 0.18667404 0.11686824 -0.12967706 -0.04699938 -0.16101894
-0.0122196525 -0.098727286 -0.17166126 0.051716045 0.0940588 -0.053026557 0.094514206 -0.15270641
-0.09722549 -0.03143163 0.12915345 -0.06451078 -0.10414241 -0.014895067 -0.10326858 0.09311502
0.09818871 -0.020675585 0.048353225 -0.05851321 0.11857857 0.14584152 -0.16064548 0.0026010573
-0.13583337 -0.05625768 -0.081290945 -0.17030501 -0.1257019 0.085096106 0.07197909 0.1740684
-0.06580478 0.0700611 0.06799476 -0.19398323 0.01838182 0.15066378 0.074407 0.16482495
-0.18768612 0.14880888 0.15504606 0.06695379 -0.095971905 -0.0927386 0.17223589 -0.12025107
0.0701897 0.1443154 -0.13809937 0.16844697 -0.12154847 0.19265635 -0.08683168 -0.06520076
0.15060104 -0.045615315 0.10348697 0.037187144 0.10076465 -0.06067638 0.14607866 -0.13500193
-0.13296673 0.11432184 -0.09950309 -0.113860354 -0.0969983 -0.030667111 0.024328992 -0.06634097
0.14052318 -0.06696537 0.018576995 0.14627795 0.08268736 0.09122403 -0.016514927 0.19250934
0.072793946 -0.0154144615 -0.06374067 0.10452072 0.058823213 0.1532741 -0.19362111 0.18667097
0.11350934 -0.13742465 0.016865939 0.03677699 -0.04372403 0.05495134 -0.08668935 -0.1772075
-0.11898905 0.014422417 -0.15862826 0.05721365 0.016383588 -0.15946122 0.14085679 0.15752937
00000000: 806a cd3c 20d0 a8bd 5024 12bc 202d 2e3d
00000010: f2e1 cd3d 10a1 213d 04b9 1bbe 2da5 083e
00000020: 90b2 b5bc 2442 6f3d 7aa2 c53d a8cc 30be
00000030: ee6f 47be d3f8 453e eb0e 203e b8a7 6ebd
00000040: bcb3 12be ba28 b4bd cbd7 353e 77ee 2c3e
00000050: 660a 37be 195f 073e 7f51 403e e1b3 c7bd
00000060: 5f9a 32be 5a0b ed3d bca2 84bd b4bb 13bd
00000070: 1023 85bc 0e9d fd3d 7a7d 0ebe 30ed 10bc
00000080: 3c60 4cbd 5808 e1bd 0aab 3dbe e5b6 42be
00000090: e1c7 43be d022 29bd 178e 26be 40c8 97bc
000000a0: a44a 1bbe 94e7 0ebe 253a 183e d222 8e3d
000000b0: 21f7 0a3e 87b9 203e 58e2 93bc 3009 0abe
000000c0: 28bc 273d 656e 453e 0de5 293e c051 aabd
000000d0: 2027 1cbe 0292 1fbe 8ac6 f23d 8c2e 643d
000000e0: d976 20be 20a1 8fbd c880 b8bc 30d8 1ebc
000000f0: 8f2d d4bd 4cc9 88bd 5806 fe3c 389a 83bc
00000100: 413b 44be a8ca f1bc 2d6a 363e f87a 60bd
00000110: c03b 2abc 8402 29bd 0b9b 433e 4ef9 ff3d
00000120: 1809 463d 6b69 d9bd 3079 013d e894 d7bc
00000130: 48e8 92bc dc57 20be bd76 11be 0025 393b
00000140: 8893 00bd 0442 35bd 0fad 37be cc4e 71bd
00000150: 9802 8e3c b05e 1bbe 88e1 30bd e44c 5e3d
00000160: f230 03be adda 3d3e 4e6a d03d 138d 093e
00000170: d569 bfbd 71c4 203e ec0d 413d 6ebc 38be
00000180: 2a02 cfbd dce8 263d b7e9 30be 2058 993b
00000190: 355c 163e e91e 243e 9c19 2cbe 586d 2cbe
000001a0: beaa c03d f085 4b3c ac1b 2fbe dede 29be
000001b0: 32be a93d bdbb 0f3e a07d ef3c 93ec 1f3e
000001c0: aaa2 bd3d 2080 b6bb f713 93bd 18bb 3ebe
000001d0: e298 d93d 7fca 0d3e d816 b4bd 10c1 133d
000001e0: 786d a3bc 1ba8 a5bd a0a5 c2bc b07c 73bd
000001f0: bafe 8ebd 4afb 823d 9949 41be 2444 31be
00000200: dcee 0f3d 0eae 8b3d 846c 22bd 6ab7 42be
00000210: 81a6 1c3e 5899 013d 20c5 a4bb 20f1 3fbc
00000220: f6fc 05be c631 14be 4c5b 2cbe b65d fd3d
00000230: 87a1 d5bd b00c eabc f568 08be 1a7b f83d
00000240: ba76 f8bd f2f8 cdbd eaf2 863d 7b27 3f3e
00000250: 9e58 ef3d 10ca 04be 6c82 40bd 26e2 24be
00000260: f034 48bc 8831 cabd f8c7 2fbe 34d4 533d
00000270: e6a1 c03d 6032 59bd aa90 c13d 125f 1cbe
00000280: 281e c7bd 74be 00bd cd40 043e 3a1e 84bd
00000290: 9e48 d5bd 700a 74bc 7a7e d3bd 16b3 be3d
000002a0: 2a17 c93d d85f a9bc 080e 463d 8cab 6fbd
000002b0: 52d9 f23d 7b57 153e 4080 24be 8076 2a3b
000002c0: e717 0bbe 746e 66bd de7b a6bd 7064 2ebe
000002d0: 00b8 00be de46 ae3d c669 933d fd3e 323e
000002e0: a8c4 86bd 327c 8f3d d640 8b3d 8aa3 46be
000002f0: 7895 963c 9b47 1a3e b262 983d dfc7 283e
00000300: ca30 40be 5b61 183e 65c4 1e3e 121f 893d
00000310: eb8c c4bd bced bdbd 9b5e 303e 3146 f6bd
00000320: 9ebf 8f3d 6bc7 133e ec69 0dbe 5d7d 2c3e
00000330: 67ee f8bd b547 453e cfd4 b1bd fa87 85bd
00000340: 2937 1a3e 20d7 3abd faf0 d33d 8c51 183d
00000350: b25d ce3d cc87 78bd a595 153e f23d 0abe
00000360: 6e28 08be 9221 ea3d 47c8 cbbd 9e2f e9bd
00000370: 0ba7 c6bd 9839 fbbc 984d c73c c6dd 87bd
00000380: 4fe5 0f3e 2425 89bd c82e 983c e3c9 153e
00000390: fe57 a93d aad3 ba3d 504a 87bc 2b21 453e
000003a0: fe14 953d f08c 7cbc 788a 82bd f60e d63d
000003b0: 9cf0 703d e3f3 1c3e 9d44 46be ad26 3f3e
000003c0: 9677 e83d 0cb9 0cbe 702a 8a3c 78a3 163d
000003d0: f817 33bd a814 613d 308a b1bd e275 35be
000003e0: 88b0 f3bd 004c 6c3c 726f 22be dc58 6a3d
000003f0: e036 863c cd49 23be c33c 103e 614f 213e

lstm.weight_hh_l0 f4 [128, 32]
-0.11451946 -0.17042556 0.135521 0.09651843 0.017250061 0.058059663 0.088148385 0.16464415
0.122968435 -0.16765347 -0.17917326 -0.112502985 -0.10927425 0.100052744 -0.09378797 -0.06450617
-0.030411929 0.15162471 -0.062083676 0.16033411 -0.025306255 -0.13434933 -0.17180571 0.1779618
0.04966499 0.18314323 0.11487484 0.089378774 -0.14026919 0.0877572 -0.010638133 -0.05462697
0.09946665 0.08016953 0.1880177 0.14695293 0.16275582 0.06293136 -0.108143814 -0.057011187
-0.029198363 -0.038803786 0.1735867 -0.038622066 -0.051719904 -0.058741555 -0.18257722 0.11712238
0.09060538 0.14657429 0.0705868 -0.18894081 -0.13037425 0.102154166 0.121594876 0.008624613
0.06299347 0.056797296 -0.05157283 0.1877237 0.14395171 -0.1300598 0.12196052 -0.051821217
-0.1029804 -0.04181476 0.13149053 0.19271001 0.13525626 0.070275545 -0.17576905 0.15327644
-0.11948807 0.08128226 0.13458705 0.17304829 -0.092511795 0.0960792 0.0931932 0.12441298
0.15699732 -0.07470438 -0.073031105 -0.016328886 0.14437932 -0.13585557 0.13641724 -0.044825405
-0.06601103 -0.09191872 -0.012932807 -0.1098375 0.06781137 -0.06433475 -0.06147833 0.1332233
0.034767896 -0.073428415 -0.08202337 0.08634484 -0.08709006 0.015677482 0.15537024 0.11692396
0.061235636 0.19019154 -0.12094763 -0.050591037 0.050746977 -0.098577596 -0.019441977 0.18806121
0.17427611 -0.090465285 -0.12597445 -0.15047535 -0.115441725 0.0025082827 -0.11481603 0.17524716
-0.04712756 0.022823349 -0.08034399 -0.042158365 -0.14027604 0.00285542 -0.039913937 -0.020713508
-0.029476374 0.18525821 -0.15866782 0.03366047 -0.11822108 -0.008559808 -0.1529643 -0.0371453
0.091407925 0.12985879 0.06916967 0.07912806 -0.1020092 -0.18957894 -0.020914882 0.06717685
-0.0795294 0.15622294 0.034042507 0.120027244 -0.1267994 0.017741486 -0.13889968 0.0005262941
-0.1664618 -0.19240926 0.031682298 0.13569 0.04004775 -0.14048839 0.10331187 0.054593652
-0.186178 0.1468122 -0.018605947 -0.18893178 -0.0070483834 -0.15364048 0.19266126 -0.166373
0.119666755 0.040800437 0.0018903464 -0.049747676 -0.03975843 -0.1742032 0.15630728 -0.16650198
0.045440078 -0.18238625 0.13335386 0.16805914 -0.068494454 -0.11646071 0.046935856 -0.04577118
0.048315704 -0.17400712 0.071572065 -0.15459028 -2.4974346e-05 -0.028624073 0.07391304 0.03254509
-0.10723344 0.1727157 0.16883299 0.06724787 -0.09472505 0.13327593 -0.022495702 0.05898419
0.13463393 -0.06070873 0.040246055 -0.17989208 -0.10666644 0.104840696 0.17805448 -0.11764302
0.007928699 -0.05548325 0.07647386 0.123114675 0.006138757 0.1437085 0.1108363 0.13572127
0.055507243 -0.14394164 -0.06826995 0.062496364 0.11103931 0.13381547 0.04592985 0.00849691
-0.1387393 0.15305763 0.027931824 -0.15936823 0.17063066 0.1055567 0.19143286 0.099231035
-0.09159921 0.07259259 0.18668395 0.016441852 0.18161634 0.10468009 -0.08529794 -0.15190102
0.06734589 -0.096831515 -0.026534483 0.05267121 0.069846004 0.12990102 -0.088085175 0.010882333
0.13957566 0.15960348 0.066930294 -0.14991908 -0.016213685 0.05279702 -0.19219673 0.17062101
00000000: 2e89 eabd 0a84 2ebe 04c6 0a3e 74ab c53d
00000010: 0050 8d3c f8cf 6d3d 2487 b43d 7a98 283e
00000020: e0d6 fb3d 5aad 2bbe 3279 37be f767 e6bd
00000030: 2ecb dfbd 74e8 cc3d e813 c0bd d01b 84bd
00000040: 7022 f9bc 8243 1b3e 744b 7ebd a02e 243e
00000050: 104f cfbc df92 09be d6ed 2fbe 9e3b 363e
00000060: 846d 4b3d e689 3b3e 8043 eb3d 380c b73d
00000070: baa2 0fbe 0cba b33d 904b 2ebc 88c0 5fbd
00000080: 2cb5 cb3d ec2f a43d b687 403e d47a 163e
00000090: 76a9 263e 28e2 803d 817a ddbd 9084 69bd
000000a0: 6831 efbc b8f0 1ebd b6c0 313e 2c32 1ebd
000000b0: 40d8 53bd fc9a 70bd 86f5 3abe dcdd ef3d
000000c0: 508f b93d 9217 163e d08f 903d b379 41be
000000d0: d480 05be 3436 d13d bc06 f93d 404e 0d3c
000000e0: b802 813d 48a4 683d 083e 53bd a43a 403e
000000f0: 1468 133e 652e 05be 70c6 f93d 7c42 54bd
00000100: 63e7 d2bd f445 2bbd 74a5 063e c655 453e
00000110: 9e80 0a3e a0ec 8f3d cdfc 33be 80f4 1c3e
00000120: 29b6 f4bd 5077 a63d 30d1 093e 9233 313e
00000130: d376 bdbd 2cc5 c43d 14dc be3d 3ccc fe3d
00000140: e8c3 203e 9cfe 98bd 5591 95bd 28c4 85bc
00000150: 2cd8 133e b91d 0bbe f6b0 0b3e d89a 37bd
00000160: ca30 87bd e23f bcbd 20e4 53bc 7cf2 e0bd
00000170: b0e0 8a3d f0c1 83bd b4d0 7bbd b06b 083e
00000180: c868 0e3d a361 96bd defb a7bd 90d5 b03d
00000190: 465c b2bd 106e 803c 6019 1f3e d475 ef3d
000001a0: 38d2 7a3d 92c1 423e 64b3 f7bd 8c38 4fbd
000001b0: 10dc 4f3d 0de3 c9bd c844 9fbc 1e93 403e
000001c0: 7075 323e dd45 b9bd 72ff 00be 3616 1abe
000001d0: b66c ecbd 0062 243b ab24 ebbd fe73 333e
000001e0: d408 41bd 08f8 ba3c 648b a4bd 40ae 2cbd
000001f0: 86a4 0fbe 0022 3b3b cc7c 23bd 60af a9bc
00000200: 7078 f1bc 54b4 3d3e d179 22be 90df 093d
00000210: e51d f2bd 703e 0cbc aca2 1cbe ac25 18bd
00000220: 1434 bb3d b4f9 043e d4a8 8d3d e40d a23d
00000230: 33ea d0bd fb20 42be b055 abbc 0494 893d
00000240: 4fe0 a2bd e8f8 1f3e 2870 0b3d d8d0 f53d
00000250: b4d7 01be 9856 913c b83b 0ebe 00f7 093a
00000260: f674 2abe ef06 45be 4cc5 013d 52f2 0a3e
00000270: 1c09 243d 30dc 0fbe 2c95 d33d 989d 5f3d
00000280: 72a5 3ebe f055 163e 806b 98bc 5577 41be
00000290: 20f6 e6bb ee53 1dbe fe48 453e af5d 2abe
000002a0: d813 f53d 5c1e 273d 80c5 f73a 38c4 4bbd
000002b0: bcd9 22bd 5362 32be 040f 203e 7f7f 2abe
000002c0: 601f 3a3d 76c3 3abe ea8d 083e b217 2c3e
000002d0: d246 8cbd f482 eebd d03f 403d 907a 3bbd
000002e0: b0e6 453d ec2e 32be 6094 923d ea4c 1ebe
000002f0: 0080 d1b7 087d eabc b85f 973d 004e 053d
00000300: 359d dbbd 62dc 303e 8ee2 2c3e 40b9 893d
00000310: 35ff c1bd 7c79 083e e848 b8bc 6899 713d
00000320: 7add 093e b8a9 78bd 0cd9 243d a135 38be
00000330: ef73 dabd b8b6 d63d ea53 363e d3ee f0bd
00000340: 60e7 013c 6842 63bd 549e 9c3d 8c23 fc3d
00000350: a027 c93b 5228 133e 24fe e23d 84fa 0a3e
00000360: 905b 633d 7065 13be 1ed1 8bbd 30fc 7f3d
00000370: 9468 e33d ec06 093e f020 3c3d a036 0b3c
00000380: ad11 0ebe 24bb 1c3e 48d1 e43c 6d31 23be
00000390: ceb9 2e3e 1c2e d83d fa06 443e a439 cb3d
000003a0: 5e98 bbbd 6cab 943d 142a 3f3e 10b1 863c
000003b0: a2f9 393e 8462 d63d b0b0 aebd f18b 1bbe
000003c0: a4ec 893d 9a4f c6bd d85e d9bc c4bd 573d
000003d0: 6c0b 8f3d c604 053e 0066 b4bd d04b 323c
000003e0: ecec 0e3e 186f 233e c012 893d 6384 19be
000003f0: 90d2 84bc b041 583d 38cf 44be 46b7 2e3e

lstm.bias_ih_l0 f4 [128]
0.0 0.0 0.0 0.0 0.0 0.0 0.0 0.0
0.0 0.0 0.0 0.0 0.0 0.0 0.0 0.0
0.0 0.0 0.0 0.0 0.0 0.0 0.0 0.0
0.0 0.0 0.0 0.0 0.0 0.0 0.0 0.0
0.0 0.0 0.0 0.0 0.0 0.0 0.0 0.0
0.0 0.0 0.0 0.0 0.0 0.0 0.0 0.0
0.0 0.0 0.0 0.0 0.0 0.0 0.0 0.0
0.0 0.0 0.0 0.0 0.0 0.0 0.0 0.0
0.0 0.0 0.0 0.0 0.0 0.0 0.0 0.0
0.0 0.0 0.0 0.0 0.0 0.0 0.0 0.0
0.0 0.0 0.0 0.0 0.0 0.0 0.0 0.0
0.0 0.0 0.0 0.0 0.0 0.0 0.0 0.0
0.0 0.0 0.0 0.0 0.0 0.0 0.0 0.0
0.0 0.0 0.0 0.0 0.0 0.0 0.0 0.0
0.0 0.0 0.0 0.0 0.0 0.0 0.0 0.0
0.0 0.0 0.0 0.0 0.0 0.0 0.0 0.0
00000000: 0000 0000 0000 0000 0000 0000 0000 0000
00000010: 0000 0000 0000 0000 0000 0000 0000 0000
00000020: 0000 0000 0000 0000 0000 0000 0000 0000
00000030: 0000 0000 0000 0000 0000 0000 0000 0000
00000040: 0000 0000 0000 0000 0000 0000 0000 0000
00000050: 0000 0000 0000 0000 0000 0000 0000 0000
00000060: 0000 0000 0000 0000 0000 0000 0000 0000
00000070: 0000 0000 0000 0000 0000 0000 0000 0000
00000080: 0000 0000 0000 0000 0000 0000 0000 0000
00000090: 0000 0000 0000 0000 0000 0000 0000 0000
000000a0: 0000 0000 0000 0000 0000 0000 0000 0000
000000b0: 0000 0000 0000 0000 0000 0000 0000 0000
000000c0: 0000 0000 0000 0000 0000 0000 0000 0000
000000d0: 0000 0000 0000 0000 0000 0000 0000 0000
000000e0: 0000 0000 0000 0000 0000 0000 0000 0000
000000f0: 0000 0000 0000 0000 0000 0000 0000 0000
00000100: 0000 0000 0000 0000 0000 0000 0000 0000
00000110: 0000 0000 0000 0000 0000 0000 0000 0000
00000120: 0000 0000 0000 0000 0000 0000 0000 0000
00000130: 0000 0000 0000 0000 0000 0000 0000 0000
00000140: 0000 0000 0000 0000 0000 0000 0000 0000
00000150: 0000 0000 0000 0000 0000 0000 0000 0000
00000160: 0000 0000 0000 0000 0000 0000 0000 0000
00000170: 0000 0000 0000 0000 0000 0000 0000 0000
00000180: 0000 0000 0000 0000 0000 0000 0000 0000
00000190: 0000 0000 0000 0000 0000 0000 0000 0000
000001a0: 0000 0000 0000 0000 0000 0000 0000 0000
000001b0: 0000 0000 0000 0000 0000 0000 0000 0000
000001c0: 0000 0000 0000 0000 0000 0000 0000 0000
000001d0: 0000 0000 0000 0000 0000 0000 0000 0000
000001e0: 0000 0000 0000 0000 0000 0000 0000 0000
000001f0: 0000 0000 0000 0000 0000 0000 0000 0000

lstm.bias_hh_l0 f4 [128]
0.0 0.0 0.0 0.0 0.0 0.0 0.0 0.0
0.0 0.0 0.0 0.0 0.0 0.0 0.0 0.0
0.0 0.0 0.0 0.0 0.0 0.0 0.0 0.0
0.0 0.0 0.0 0.0 0.0 0.0 0.0 0.0
0.0 0.0 0.0 0.0 0.0 0.0 0.0 0.0
0.0 0.0 0.0 0.0 0.0 0.0 0.0 0.0
0.0 0.0 0.0 0.0 0.0 0.0 0.0 0.0
0.0 0.0 0.0 0.0 0.0 0.0 0.0 0.0
0.0 0.0 0.0 0.0 0.0 0.0 0.0 0.0
0.0 0.0 0.0 0.0 0.0 0.0 0.0 0.0
0.0 0.0 0.0 0.0 0.0 0.0 0.0 0.0
0.0 0.0 0.0 0.0 0.0 0.0 0.0 0.0
0.0 0.0 0.0 0.0 0.0 0.0 0.0 0.0
0.0 0.0 0.0 0.0 0.0 0.0 0.0 0.0
0.0 0.0 0.0 0.0 0.0 0.0 0.0 0.0
0.0 0.0 0.0 0.0 0.0 0.0 0.0 0.0
00000000: 0000 0000 0000 0000 0000 0000 0000 0000
00000010: 0000 0000 0000 0000 0000 0000 0000 0000
00000020: 0000 0000 0000 0000 0000 0000 0000 0000
00000030: 0000 0000 0000 0000 0000 0000 0000 0000
00000040: 0000 0000 0000 0000 0000 0000 0000 0000
00000050: 0000 0000 0000 0000 0000 0000 0000 0000
00000060: 0000 0000 0000 0000 0000 0000 0000 0000
00000070: 0000 0000 0000 0000 0000 0000 0000 0000
00000080: 0000 0000 0000 0000 0000 0000 0000 0000
00000090: 0000 0000 0000 0000 0000 0000 0000 0000
000000a0: 0000 0000 0000 0000 0000 0000 0000 0000
000000b0: 0000 0000 0000 0000 0000 0000 0000 0000
000000c0: 0000 0000 0000 0000 0000 0000 0000 0000
000000d0: 0000 0000 0000 0000 0000 0000 0000 0000
000000e0: 0000 0000 0000 0000 0000 0000 0000 0000
000000f0: 0000 0000 0000 0000 0000 0000 0000 0000
00000100: 0000 0000 0000 0000 0000 0000 0000 0000
00000110: 0000 0000 0000 0000 0000 0000 0000 0000
00000120: 0000 0000 0000 0000 0000 0000 0000 0000
00000130: 0000 0000 0000 0000 0000 0000 0000 0000
00000140: 0000 0000 0000 0000 0000 0000 0000 0000
00000150: 0000 0000 0000 0000 0000 0000 0000 0000
00000160: 0000 0000 0000 0000 0000 0000 0000 0000
00000170: 0000 0000 0000 0000 0000 0000 0000 0000
00000180: 0000 0000 0000 0000 0000 0000 0000 0000
00000190: 0000 0000 0000 0000 0000 0000 0000 0000
000001a0: 0000 0000 0000 0000 0000 0000 0000 0000
000001b0: 0000 0000 0000 0000 0000 0000 0000 0000
000001c0: 0000 0000 0000 0000 0000 0000 0000 0000
000001d0: 0000 0000 0000 0000 0000 0000 0000 0000
000001e0: 0000 0000 0000 0000 0000 0000 0000 0000
000001f0: 0000 0000 0000 0000 0000 0000 0000 0000

lstm.weight_ih_l1 f4 [128, 32]
-0.07848909 -0.0047665983 -0.057893693 0.14191723 0.11762735 0.17064095 -0.11068485 0.09386659
-0.17436671 -0.14453816 -0.053730145 0.010509029 -0.05082348 0.11665648 -0.022632971 -0.08459058
0.13349333 -0.09079715 0.009698048 -0.15859884 0.0968467 -0.0069720596 -0.055509105 -0.19033727
-0.030819193 -0.025953025 0.17486566 0.0075124353 -0.18607962 -0.015025765 0.06923121 0.10924119
-0.17614701 -0.020277113 -0.044329688 -0.08272616 -0.1522941 0.0062473863 -0.037939936 0.03126353
0.10826656 -0.08169833 -0.17516835 0.16359392 -0.17377476 0.17309496 0.060999602 -0.02669184
-0.019469917 0.15159032 0.08140233 -0.08344402 -0.09427605 -0.1298384 0.16630962 -0.02042146
-0.10200802 -0.11476199 -0.041495383 -0.148593 -0.14426257 -0.10087723 0.12819752 0.16236311
-0.021550328 0.15535384 0.04426031 -0.1065445 -0.16654116 -0.16340227 -0.05257681 -0.11021438
-0.002870068 0.14736372 0.13123947 -0.111464955 0.11381453 -0.15784863 -0.07337087 -0.12528168
0.023054212 -0.07314034 -0.16850668 0.08666739 0.11004278 0.049672768 0.0449349 0.1599775
-0.11579522 0.067965806 -0.080574356 -0.16490336 -0.06839526 -0.08731717 -0.018989176 -0.14969283
-0.089066945 0.10179904 -0.06203638 0.051036 -0.13437586 -0.11961365 -0.14144242 0.028190553
0.18483147 0.19276386 0.013306409 0.17632413 -0.08289571 0.02621752 0.13532537 -0.19265994
-0.0060516 0.07390407 -0.18043181 0.11334333 0.18945137 -0.011680901 0.1517902 0.04340349
-0.18714643 0.18308136 0.11926004 0.037127882 -0.16035593 -0.012706876 0.12760574 -0.11465633
-0.18944855 0.07687077 -0.17752258 -0.10802606 0.020814389 -0.008668914 0.052036837 -0.17267132
0.17250735 -0.1565879 0.07152292 0.02232261 -0.058154345 -0.07393462 -0.17963001 0.030147135
0.12350282 0.11084807 -0.17156638 0.0658097 -0.1544629 -0.09332738 0.14770287 -0.049021944
0.023826495 -0.138638 0.19211704 -0.19136256 0.0427237 -0.11239033 -0.18142746 -0.061837032
-0.0631336 -0.058985934 -0.17537367 -0.1607185 -0.033567533 0.09393507 0.17007166 0.164157
-0.05953251 0.142526 0.12908357 0.07624766 -0.09992524 -0.046740234 0.18730387 -0.12574863
-0.016916752 -0.10785431 0.05002424 -0.13498871 0.18284705 0.09765342 0.1108495 -0.155725
0.013700545 -0.16550347 0.07822505 0.030509233 -0.08993152 0.013343275 -0.10190351 -0.18398324
-0.10307336 0.1895543 -0.079101846 0.05855024 0.048700735 -0.15799814 0.18452138 -0.15800494
0.113483906 -0.0852951 -0.08475817 -0.14486238 0.17352971 0.06338909 -0.03957948 0.014740422
-0.16565117 0.15297064 0.003618747 -0.11828821 -0.0797262 0.16287503 -0.122394145 0.12278542
-0.029362068 0.10327098 0.020609036 0.12592983 0.0486874 -0.08410647 0.17970717 0.18248862
0.07699707 0.06287569 -0.036025763 0.080368936 -0.17419069 -0.18481623 -0.12441974 -0.022151068
0.0029474944 -0.14583032 0.095576555 -0.06911161 0.17203927 0.011164978 -0.11224958 0.1779297
0.16584009 0.10676983 -0.10513275 0.07343006 0.06853312 0.16544268 -0.08977258 0.160335
-0.055072904 -0.14570576 0.1126937 0.10015026 -0.1745563 0.12792492 -0.1120529 -0.08079359
00000000: e3be a0bd 2031 9cbb f021 6dbd c052 113e
00000010: 9ce6 f03d 80bc 2e3e bdae e2bd 203d c03d
00000020: 308d 32be d001 14be 2414 5cbd 102e 2c3c
00000030: 482c 50bd 98e9 ee3d c868 b9bc d33d adbd
00000040: 7ab2 083e dbf3 b9bd 90e4 1e3c bc67 22be
00000050: 9057 c63d e075 e4bb 845d 63bd c6e7 42be
00000060: 8878 fcbc 709b d4bc fc0f 333e e02a f63b
00000070: a88b 3ebe a02e 76bc 18c9 8d3d d8b9 df3d
00000080: e25f 34be 301c a6bc 0c93 35bd 556c a9bd
00000090: fcf2 1bbe e0b6 cc3b e866 1bbd 300e 003d
000000a0: dcba dd3d 7451 a7bd 555f 33be 2a85 273e
000000b0: 03f2 31be ce3f 313e b8da 793d d8a8 dabc
000000c0: 607f 9fbc 7e3a 1b3e 44b6 a63d b3e4 aabd
000000d0: cd13 c1bd 5cf4 04be 124d 2a3e e84a a7bc
000000e0: 95e9 d0bd 5608 ebbd 10f7 29bd c328 18be
000000f0: 91b9 13be b998 cebd 3646 033e 8442 263e
00000100: 508a b0bc 1415 1f3e 4c4a 353d 0134 dabd
00000110: c489 2abe ed52 27be c85a 57bd 14b8 e1bd
00000120: c017 3cbb 84e6 163e a463 063e bd47 e4bd
00000130: 9817 e93d 12a3 21be 7743 96bd d749 00be
00000140: 30dc bc3c 9aca 95bd 048d 2cbe ac7e b13d
00000150: 1c5e e13d ac75 4b3d a80d 383d 24d1 233e
00000160: 0b26 edbd a831 8b3d 2b04 a5bd 6ddc 28be
00000170: d012 8cbd 58d3 b2bd 308f 9bbc 1449 19be
00000180: bb68 b6bd 047c d03d dc19 7ebd 200b 513d
00000190: d399 09be 00f8 f4bd 48d6 10be e0ef e63c
000001a0: 7644 3d3e e463 453e 2003 5a3c 508e 343e
000001b0: 3ac5 a9bd 20c6 d63c bc92 0a3e a648 45be
000001c0: 804c c6bb 045b 973d 1ec3 38be 8c20 e83d
000001d0: 8aff 413e 4061 3fbc e46e 1b3e dcc7 313d
000001e0: 50a3 3fbe ae79 3b3e 9c3e f43d 6813 183d
000001f0: 5834 24be 8030 50bc 14ab 023e f0d0 eabd
00000200: cdfe 41be 6c6e 9d3d 7bc8 35be c43c ddbd
00000210: f082 aa3c 1008 0ebc 9424 553d c0d0 30be
00000220: c4a5 303e 9458 20be 9c7a 923d e8dd b63c
00000230: 4033 6ebd 096b 97bd eef0 37be 20f7 f63c
00000240: 0cef fc3d 5004 e33d 19af 2fbe 3cc7 863d
00000250: 862b 1ebe 6d22 bfbd 6c3f 173e 3ccb 48bd
00000260: c82f c33c 1ff7 0dbe 54ba 443e 8cf4 43be
00000270: 0cff 2e3d e72c e6bd 1fc8 39be d448 7dbd
00000280: 304c 81bd 3c9b 71bd 2895 33be 6493 24be
00000290: 1c7e 09bd 0861 c03d 4427 2e3e c618 283e
000002a0: 5cd8 73bd 56f2 113e 7c2e 043e bc27 9c3d
000002b0: 9ba5 ccbd b072 3fbd 96cc 3f3e 40c4 00be
000002c0: 0095 8abc b8e2 dcbd 38e6 4c3d 7b3a 0abe
000002d0: 423c 3b3e 84fe c73d 1005 e33d 6076 1fbe
000002e0: 4078 603c be79 29be 7434 a03d 80ee f93c
000002f0: 042e b8bd c09d 5a3c cab2 d0bd 1a66 3cbe
00000300: 2018 d3bd 861a 423e 2600 a2bd 60d2 6f3d
00000310: 6c7a 473d 44ca 21be 2cf3 3c3e 0ccc 21be
00000320: 406a e83d 33af aebd b195 adbd ce56 14be
00000330: c6b1 313e 24d2 813d 181e 22bd d081 713c
00000340: 76a0 29be 56a4 1c3e 8028 6d3b 1741 f2bd
00000350: 7d47 a3bd b6c8 263e c8a9 fabd ec76 fb3d
00000360: b888 f0bc bc7f d33d 48d4 a83c c0f3 003e
00000370: 706c 473d 0340 acbd 2805 383e 4cde 3a3e
00000380: a4b0 9d3d f8c4 803d c08f 13bd 7898 a43d
00000390: 0b5f 32be 7740 3dbe c7cf febd 2876 b5bc
000003a0: c02a 413b 8b54 15be a4bd c33d 638a 8dbd
000003b0: 102b 303e 50ed 363c 1ce3 e5bd 3433 363e
000003c0: fcd1 293e 24aa da3d d74f d7bd 8062 963d
000003d0: 185b 8c3d ce69 293e b0da b7bd dc2e 243e
000003e0: 2094 61bd e433 15be f4cb e63d 941b cd3d
000003f0: e3be 32be c0fe 023e fe7b e5bd 1c77 a5bd

lstm.weight_hh_l1 f4 [128, 32]
0.021377683 -0.13749662 -0.06835747 -0.0014284849 -0.0330303 0.03835033 0.026441649 -0.042517483
-0.062296674 0.11214042 -0.10742329 -0.112989105 0.08504298 -0.07408049 0.06982705 -0.042948917
0.023126349 -0.0017301291 0.03103599 0.1665071 -0.16760495 0.072859466 -0.109374486 -0.13489732
0.18712395 -0.14854383 0.14369148 0.10056716 -0.029004961 0.00618425 -0.016838506 -0.020598948
-0.19182213 0.078683674 -0.1879845 -0.05362998 -0.11867604 0.17852622 0.007562667 -0.1177933
0.040759623 -0.09013536 -0.12065987 0.050157577 0.17191252 -0.08327361 -0.04111138 -0.055438057
-0.0475218 0.17846385 0.020660967 0.069901705 0.13417432 0.17052004 -0.1569132 -0.071199976
-0.04911779 -0.075224385 0.17123002 -0.018436491 0.0048511326 0.015195698 -0.033524573 0.1443837
-0.03165251 -0.09567674 -0.18483344 0.110967815 0.12453601 0.13105598 0.004349053 0.17592469
0.17806974 0.042742133 0.0700728 -0.14141679 -0.030978829 0.048889577 0.026832804 0.12780663
0.16450882 0.01876977 0.07195306 -0.1103314 -0.0077701956 0.14812961 -0.15124382 -0.06393066
0.09338102 0.025781214 0.13323966 -0.18007848 -0.18610963 0.099018365 -0.08566457 0.020520493
-0.133087 0.02982612 -0.113315545 -0.040568322 0.06217563 0.06356111 -0.07763068 -0.12788993
-0.10046365 -0.06358312 0.055700094 0.14531803 -0.047731966 -0.027783334 0.050676957 -0.10860791
-0.06439395 -0.17072833 0.06887385 0.02806601 -0.048083797 -0.068001315 -0.06307821 0.11918661
-0.049791396 0.09833953 -0.043971404 0.0915533 -0.1323955 -0.015482932 0.12436414 -0.024957135
-0.18642294 0.15453899 0.13628516 0.08014026 -0.049584165 0.11595166 0.1428724 -0.11945797
-0.112957686 -0.069160014 -0.076244526 0.1007961 -0.12878773 0.07835257 0.03386891 -0.104865134
-0.036168084 -0.1560386 -0.12725247 0.18637872 -0.12553702 -0.06664939 0.060191393 -0.050813824
0.10553545 0.13149503 0.009473741 -0.15317148 0.116160154 -0.05707933 0.11323166 -0.023745745
-0.042096257 0.04771389 0.18306655 0.052974164 0.12628856 -0.10487926 0.08820203 -0.056252554
0.06262931 -0.041123405 0.16020182 -0.076068275 0.15830037 -0.17828974 -0.18042809 -0.17085545
0.024727657 -0.030107915 -0.09613832 -0.016519934 -0.14680909 0.16114193 0.009435445 0.015788883
0.023087502 0.014697611 -0.16187912 0.029475823 -0.16681533 0.13640025 -0.025105625 -0.07422634
-0.030600384 0.11576128 0.09520659 -0.0051660985 0.11609876 0.12187362 0.06162539 0.018241405
0.060422182 0.059597343 0.039688304 -0.0018880814 0.09540516 0.18782955 0.084023416 0.13408592
-0.0015304983 0.09669265 -0.18797185 -0.17186856 0.076984555 0.036677957 -0.027011663 0.07777166
0.15777603 0.06653261 -0.036017746 0.14174542 -0.06149149 0.06381425 -0.10738846 0.041743472
0.07448956 0.14158487 -0.01988858 0.188988 -0.07920487 -0.18950857 0.17242712 -0.15275188
0.14853075 -0.0730658 -0.0617716 -0.18182422 -0.0073206276 0.023546845 0.09183422 0.03798218
-0.18249738 0.15512708 -0.054360107 -0.1007622 0.041598126 0.043080404 0.15095815 0.027324855
-0.18532935 -0.091471225 0.16997382 0.0065477937 0.15856686 0.027479216 -0.15111771 -0.071226984
00000000: 4020 af3c eacb 0cbe 00ff 8bbd 003c bbba
00000010: c84a 07bd 3c15 1d3d 289c d83c d026 2ebd
00000020: cc2a 7fbd e0a9 e53d be00 dcbd d566 e7bd
00000030: 042b ae3d 83b7 97bd 7c01 8f3d 34eb 2fbd
00000040: 7873 bd3c 80c5 e2ba 303f fe3c d680 2a3e
00000050: a2a0 2bbe 5837 953d bbff dfbd 8622 0abe
00000060: 6c9d 3f3e e01b 18be dc23 133e 28f6 cd3d
00000070: d09b edbc 40a5 ca3b e8f0 89bc 20bf a8bc
00000080: 056d 44be e824 a13d 027f 40be 1cab 5bbd
00000090: 6c0c f3bd 94cf 363e 40d0 f73b 9d3d f1bd
000000a0: 90f3 263d e398 b8bd 861c f7bd 0872 4d3d
000000b0: d609 303e 5b8b aabd 6864 28bd 0413 63bd
000000c0: 38a6 42bd 3abf 363e 3041 a93c a028 8f3d
000000d0: fe64 093e ce9c 2e3e dbad 20be 4bd1 91bd
000000e0: bc2f 49bd 3e0f 9abd ec56 2f3e 2008 97bc
000000f0: 40f6 9e3b 60f7 783c 1051 09bd 52d9 133e
00000100: 10a6 01bd 2bf2 c3bd fa44 3dbe 1843 e33d
00000110: bc0c ff3d 8a33 063e 8082 8e3b 9a25 343e
00000120: ea57 363e 6012 2f3d 5482 8f3d 90cf 10be
00000130: 50c7 fdbc 7040 483d 78d0 db3c bedf 023e
00000140: 0075 283e 10c3 993c 205c 933d 6ef5 e1bd
00000150: 209d febb 4aaf 173e a9df 1abe 14ee 82bd
00000160: 8c3e bf3d 2033 d33c fa6f 083e 7e66 38be
00000170: 8693 3ebe 24ca ca3d e870 afbd 981a a83c
00000180: f547 08be e855 f43c fb11 e8bd f82a 26bd
00000190: e0ab 7e3d 542c 823d d5fc 9ebd 94f5 02be
000001a0: e3bf cdbd de37 82bd c825 643d 40ce 143e
000001b0: 9882 43bd e099 e3bc a492 4f3d d36d debd
000001c0: fae0 83bd 68d3 2ebe bc0d 8d3d b0ea e53c
000001d0: 84f3 44bd 4644 8bbd 262f 81bd 1c18 f43d
000001e0: 10f2 4bbd 3c66 c93d 5c1b 34bd 4c80 bb3d
000001f0: b092 07be 20ac 7dbc a0b2 fe3d e872 ccbc
00000200: a8e5 3ebe 783f 1e3e 568e 0b3e 9420 a43d
00000210: c418 4bbd 1078 ed3d 244d 123e 61a6 f4bd
00000220: 5c56 e7bd c4a3 8dbd 1726 9cbd 306e ce3d
00000230: eee0 03be 5077 a03d 20ba 0a3d 88c3 d6bd
00000240: fc24 14bd 95c8 1fbe 794e 02be 10da 3e3e
00000250: c78c 00be 7a7f 88bd 408b 763d 2822 50bd
00000260: f822 d83d a2a6 063e c037 1b3c fcd8 1cbe
00000270: 60e5 ed3d 04cc 69bd 00e6 e73d 7086 c2bc
00000280: 206d 2cbd a46f 433d cc75 3b3e 70fb 583d
00000290: ca51 013e f0ca d6bd 44a3 b43d 1469 66bd
000002a0: cc43 803d 0471 28bd f20b 243e afc9 9bbd
000002b0: 7e19 223e 9691 36be 24c2 38be bbf4 2ebe
000002c0: a891 ca3c e0a4 f6bc 2be4 c4bd d054 87bc
000002d0: 1f55 16be 6402 253e 2097 1a3c b057 813c
000002e0: 0022 bd3c 40ce 703c a4c3 25be 4877 f13c
000002f0: a3d1 2abe 82ac 0b3e 50aa cdbc fb03 98bd
00000300: a8ad fabc 4014 ed3d acfb c23d 6048 a9bb
00000310: 30c5 ed3d e098 f93d e86a 7c3d 006f 953c
00000320: 407d 773d 581c 743d 3490 223d 8079 f7ba
00000330: c863 c33d 6456 403e 7814 ac3d d24d 093e
00000340: 009b c8ba cc06 c63d b17b 40be 50fe 2fbe
00000350: 14aa 9d3d a03b 163d 9047 ddbc c046 9f3d
00000360: 0a90 213e 4042 883d 5887 13bd b625 113e
00000370: 80de 7bbd 0cb1 823d 7bee dbbd 34fb 2a3d
00000380: fc8d 983d a0fb 103e 60ed a2bc 1286 413e
00000390: 2a36 a2bd 890e 42be bc90 303e fd6a 1cbe
000003a0: 7218 183e 86a3 95bd 3804 7dbd 2130 3abe
000003b0: e0e1 efbb 50e5 c03c 9413 bc3d 3493 1b3d
000003c0: 98e0 3abe a2d9 1e3e b4a8 5ebd 6a5c cebd
000003d0: cc62 2a3d 1475 303d c694 1a3e 60d8 df3c
000003e0: fac6 3dbe 4455 bbbd 9e0d 2e3e e08e d63b
000003f0: 5a5f 223e 181c e13c 9abe 1abe 74df 91bd

lstm.bias_ih_l1 f4 [128]
0.0 0.0 0.0 0.0 0.0 0.0 0.0 0.0
0.0 0.0 0.0 0.0 0.0 0.0 0.0 0.0
0.0 0.0 0.0 0.0 0.0 0.0 0.0 0.0
0.0 0.0 0.0 0.0 0.0 0.0 0.0 0.0
0.0 0.0 0.0 0.0 0.0 0.0 0.0 0.0
0.0 0.0 0.0 0.0 0.0 0.0 0.0 0.0
0.0 0.0 0.0 0.0 0.0 0.0 0.0 0.0
0.0 0.0 0.0 0.0 0.0 0.0 0.0 0.0
0.0 0.0 0.0 0.0 0.0 0.0 0.0 0.0
0.0 0.0 0.0 0.0 0.0 0.0 0.0 0.0
0.0 0.0 0.0 0.0 0.0 0.0 0.0 0.0
0.0 0.0 0.0 0.0 0.0 0.0 0.0 0.0
0.0 0.0 0.0 0.0 0.0 0.0 0.0 0.0
0.0 0.0 0.0 0.0 0.0 0.0 0.0 0.0
0.0 0.0 0.0 0.0 0.0 0.0 0.0 0.0
0.0 0.0 0.0 0.0 0.0 0.0 0.0 0.0
00000000: 0000 0000 0000 0000 0000 0000 0000 0000
00000010: 0000 0000 0000 0000 0000 0000 0000 0000
00000020: 0000 0000 0000 0000 0000 0000 0000 0000
00000030: 0000 0000 0000 0000 0000 0000 0000 0000
00000040: 0000 0000 0000 0000 0000 0000 0000 0000
00000050: 0000 0000 0000 0000 0000 0000 0000 0000
00000060: 0000 0000 0000 0000 0000 0000 0000 0000
00000070: 0000 0000 0000 0000 0000 0000 0000 0000
00000080: 0000 0000 0000 0000 0000 0000 0000 0000
00000090: 0000 0000 0000 0000 0000 0000 0000 0000
000000a0: 0000 0000 0000 0000 0000 0000 0000 0000
000000b0: 0000 0000 0000 0000 0000 0000 0000 0000
000000c0: 0000 0000 0000 0000 0000 0000 0000 0000
000000d0: 0000 0000 0000 0000 0000 0000 0000 0000
000000e0: 0000 0000 0000 0000 0000 0000 0000 0000
000000f0: 0000 0000 0000 0000 0000 0000 0000 0000
00000100: 0000 0000 0000 0000 0000 0000 0000 0000
00000110: 0000 0000 0000 0000 0000 0000 0000 0000
00000120: 0000 0000 0000 0000 0000 0000 0000 0000
00000130: 0000 0000 0000 0000 0000 0000 0000 0000
00000140: 0000 0000 0000 0000 0000 0000 0000 0000
00000150: 0000 0000 0000 0000 0000 0000 0000 0000
00000160: 0000 0000 0000 0000 0000 0000 0000 0000
00000170: 0000 0000 0000 0000 0000 0000 0000 0000
00000180: 0000 0000 0000 0000 0000 0000 0000 0000
00000190: 0000 0000 0000 0000 0000 0000 0000 0000
000001a0: 0000 0000 0000 0000 0000 0000 0000 0000
000001b0: 0000 0000 0000 0000 0000 0000 0000 0000
000001c0: 0000 0000 0000 0000 0000 0000 0000 0000
000001d0: 0000 0000 0000 0000 0000 0000 0000 0000
000001e0: 0000 0000 0000 0000 0000 0000 0000 0000
000001f0: 0000 0000 0000 0000 0000 0000 0000 0000

lstm.bias_hh_l1 f4 [128]
0.0 0.0 0.0 0.0 0.0 0.0 0.0 0.0
0.0 0.0 0.0 0.0 0.0 0.0 0.0 0.0
0.0 0.0 0.0 0.0 0.0 0.0 0.0 0.0
0.0 0.0 0.0 0.0 0.0 0.0 0.0 0.0
0.0 0.0 0.0 0.0 0.0 0.0 0.0 0.0
0.0 0.0 0.0 0.0 0.0 0.0 0.0 0.0
0.0 0.0 0.0 0.0 0.0 0.0 0.0 0.0
0.0 0.0 0.0 0.0 0.0 0.0 0.0 0.0
0.0 0.0 0.0 0.0 0.0 0.0 0.0 0.0
0.0 0.0 0.0 0.0 0.0 0.0 0.0 0.0
0.0 0.0 0.0 0.0 0.0 0.0 0.0 0.0
0.0 0.0 0.0 0.0 0.0 0.0 0.0 0.0
0.0 0.0 0.0 0.0 0.0 0.0 0.0 0.0
0.0 0.0 0.0 0.0 0.0 0.0 0.0 0.0
0.0 0.0 0.0 0.0 0.0 0.0 0.0 0.0
0.0 0.0 0.0 0.0 0.0 0.0 0.0 0.0
00000000: 0000 0000 0000 0000 0000 0000 0000 0000
00000010: 0000 0000 0000 0000 0000 0000 0000 0000
00000020: 0000 0000 0000 0000 0000 0000 0000 0000
00000030: 0000 0000 0000 0000 0000 0000 0000 0000
00000040: 0000 0000 0000 0000 0000 0000 0000 0000
00000050: 0000 0000 0000 0000 0000 0000 0000 0000
00000060: 0000 0000 0000 0000 0000 0000 0000 0000
00000070: 0000 0000 0000 0000 0000 0000 0000 0000
00000080: 0000 0000 0000 0000 0000 0000 0000 0000
00000090: 0000 0000 0000 0000 0000 0000 0000 0000
000000a0: 0000 0000 0000 0000 0000 0000 0000 0000
000000b0: 0000 0000 0000 0000 0000 0000 0000 0000
000000c0: 0000 0000 0000 0000 0000 0000 0000 0000
000000d0: 0000 0000 0000 0000 0000 0000 0000 0000
000000e0: 0000 0000 0000 0000 0000 0000 0000 0000
000000f0: 0000 0000 0000 0000 0000 0000 0000 0000
00000100: 0000 0000 0000 0000 0000 0000 0000 0000
00000110: 0000 0000 0000 0000 0000 0000 0000 0000
00000120: 0000 0000 0000 0000 0000 0000 0000 0000
00000130: 0000 0000 0000 0000 0000 0000 0000 0000
00000140: 0000 0000 0000 0000 0000 0000 0000 0000
00000150: 0000 0000 0000 0000 0000 0000 0000 0000
00000160: 0000 0000 0000 0000 0000 0000 0000 0000
00000170: 0000 0000 0000 0000 0000 0000 0000 0000
00000180: 0000 0000 0000 0000 0000 0000 0000 0000
00000190: 0000 0000 0000 0000 0000 0000 0000 0000
000001a0: 0000 0000 0000 0000 0000 0000 0000 0000
000001b0: 0000 0000 0000 0000 0000 0000 0000 0000
000001c0: 0000 0000 0000 0000 0000 0000 0000 0000
000001d0: 0000 0000 0000 0000 0000 0000 0000 0000
000001e0: 0000 0000 0000 0000 0000 0000 0000 0000
000001f0: 0000 0000 0000 0000 0000 0000 0000 0000

fc.weight f4 [1, 32]
0.1150018 0.29027444 0.3246041 0.055757403 -0.3013338 -0.105068415 -0.33600977 -0.2102907
-0.20394927 -0.3270751 0.29948413 0.035966337 -0.3769978 0.3476619 0.31311965 -0.24398504
0.27350247 -0.17018613 0.06361994 -0.36221772 -0.33798862 0.23450911 -0.13205561 -0.4171664
-0.30794448 0.07013801 0.3191278 0.3672071 -0.33364516 -0.26131308 0.2784025 0.20528269
00000000: 1086 eb3d da9e 943e 8232 a63e e061 643d
00000010: 6d48 9abe 1c2e d7bd 7909 acbe 7256 57be
00000020: 14d8 50be 6376 a7be fc55 993e 7051 133d
00000030: db05 c1be be00 b23e 3851 a03e 37d7 79be
00000040: 8408 8c3e 4645 2ebe 2c4b 823d 9a74 b9be
00000050: d80c adbe 2823 703e 9639 07be d696 d5be
00000060: e6aa 9dbe 84a4 8f3d b864 a33e 9202 bc3e
00000070: 8ad3 aabe d4ca 85be c68a 8e3e a035 523e
