trading/models/GOOGL_lstm.pth (torch, 72821 bytes, 13 tensors)

lstm1.weight_ih_l0 f4 [128, 30]
000000 3d af 1c 3e e6 cc e7 3d 37 7d c8 bd a9 25 2c 3e
       0.15301223 0.11318378 -0.09789508 0.16811241
000010 58 1c 09 bd fe 26 e9 bd fa 56 fb 3d 75 e7 3f 3e
       -0.033474296 -0.1138439 0.12272449 0.18740638
000020 4c 7a 3f be fc 4f 67 bd 78 95 1e be a1 24 10 3e
       -0.18698996 -0.056472763 -0.15486705 0.14076473
000030 76 eb 9f 3d 0c b5 e4 bd 34 0c 2f be 04 17 16 bd
       0.078085825 -0.111673445 -0.17094499 -0.036643043
000040 d8 b0 ee 3c c4 2e 6a 3d 28 fe 03 bd 39 7a 29 be
       0.02913706 0.057173505 -0.032224804 -0.1655053
000050 6b 50 3b 3e 11 a4 03 3e c0 d0 bb bc ba c3 3f be
       0.18292396 0.12855555 -0.022926688 -0.18727008
000060 d1 ea 3d be 4e 74 23 be 8e 33 ae 3d 35 2f 0b be
       -0.18546607 -0.15962335 0.08505927 -0.13592227
000070 bc 6d 50 3d b9 00 d5 bd 0b 3c 47 3e a0 df 86 3b
       0.0508859 -0.104005285 0.19456498 0.0041160136
000080 f1 a2 d5 bd b8 ad 25 be d4 17 59 bd 67 bd 21 3e
       -0.10431469 -0.1617955 -0.05300124 0.15794908
000090 90 7d 3d be 98 09 c8 bc 40 30 ee 3c c0 6d ae 3b
       -0.1850493 -0.024418637 0.029075742 0.005323142
0000a0 30 f7 a6 bc 1c 26 77 3d 05 aa 1f be 22 db 9e 3d
       -0.02038154 0.06033908 -0.15592201 0.0775664
0000b0 16 11 b8 3d d1 fc 9a bd a0 f5 35 bc 83 90 04 3e
       0.08987634 -0.07567752 -0.011105925 0.12945752
0000c0 94 40 f5 bd 46 f9 ea 3d 2b aa 1a be 22 ac 15 be
       -0.11975208 0.114733264 -0.15103976 -0.14616445
0000d0 79 7c 17 be 00 b5 cb 3a 88 92 1d be 5f 99 08 3e
       -0.14793576 0.0015541613 -0.15387928 0.13339756
0000e0 f2 89 0a be a1 08 2d be 8a bb fc 3d 07 93 10 be
       -0.13529184 -0.16897823 0.12340458 -0.14118586
0000f0 41 8c 0e 3e 98 60 9a 3c 5c 00 5a 3d 78 bd 4d bd
       0.1392069 0.018844888 0.053223 -0.05022952
000100 51 72 21 3e 58 3c 16 be 30 81 45 3d 9e 26 97 3d
       0.15766264 -0.14671457 0.048218906 0.073804125
000110 b0 70 86 3c 98 7d 18 3d 96 fc 91 3d 50 84 18 3c
       0.016411155 0.03722915 0.07128255 0.0093088895
000120 78 33 23 bd a8 ab 26 3d 00 0a 09 bd 1d 24 10 be
       -0.039844006 0.040691048 -0.033456802 -0.14076276
000130 52 f4 ab 3d 05 2c c4 bd 05 70 41 3e e6 4f 86 3d
       0.0839621 -0.095787086 0.18890388 0.06558208
000140 bf 05 01 be 61 5d 23 3e 38 6e 83 bd 73 e7 06 3e
       -0.12599848 0.1595359 -0.06417507 0.13174228
000150 ca a6 11 be 54 20 22 be 6c 77 43 be 92 1b 07 be
       -0.14223781 -0.15832645 -0.19088525 -0.13194111
000160 92 0d f7 bd 45 2e 34 3e 1d e4 25 3e a9 c0 2b 3e
       -0.12063135 0.17595775 0.162003 0.16772713
000170 06 fc 9b 3d 20 96 ad bb 4e 93 02 be e4 99 64 3d
       0.07616429 -0.0052974373 -0.12751505 0.055810824
000180 0c 71 06 be 64 6b a6 bd 10 e0 b0 bc 92 9a c3 3d
       -0.13129061 -0.08125952 -0.021591216 0.09550966
000190 9a 64 d6 3d 3b b7 ef bd de 16 d6 3d 80 59 06 3b
       0.10468407 -0.1170487 0.1045358 0.0020500124
0001a0 27 0c 14 3e d1 01 d9 bd 28 44 57 bd ac 44 71 3d
       0.14457761 -0.105960496 -0.052555233 0.05890338
0001b0 70 ff 87 bc 20 86 a3 bc 6b 9f 04 be 3c 2e 03 be
       -0.016601294 -0.019961417 -0.12951438 -0.12810606
0001c0 26 f2 d3 3d d7 59 32 be 3c 87 a5 bd 8d 22 26 be
       0.103489205 -0.17417084 -0.080824345 -0.16224118
0001d0 50 8b 8e bd 0e 8b 45 be e1 ab 2a 3e d0 de 55 3d
       -0.069601655 -0.19291326 0.16667129 0.052214444
0001e0 8b ad 28 be 59 93 3d 3e b8 28 04 be 55 b3 94 bd
       -0.16472451 0.1851324 -0.12906158 -0.07260767
0001f0 9e 83 a2 bd b6 8d 33 be 3b cb 45 3e 85 ab b3 bd
       -0.0793526 -0.17534527 0.19315808 -0.08772949
000200 7e 74 16 be 26 5b 2a be 30 a8 10 bc 89 36 3b 3e
       -0.14692876 -0.16636333 -0.0088291615 0.18282522
000210 f4 48 e6 bd d7 33 2f 3e 38 b7 a6 bd d5 4d 0c be
       -0.112443835 0.17109619 -0.08140415 -0.13701566
000220 c0 08 44 3c a4 38 7e 3d 38 32 93 bd 8a d8 b1 3d
       0.011964977 0.062065735 -0.07187313 0.0868388
000230 94 10 bf bd dc 8e 2e 3d 60 cd 09 3c e1 d8 2f 3e
       -0.09329334 0.04261671 0.008410782 0.17172576
000240 32 49 05 be 72 46 06 be dd 02 31 3e ca e4 9a 3d
       -0.13016203 -0.1311281 0.17286249 0.07563169
000250 93 f4 1d 3e 3f f7 37 3e f0 bf 14 3c e1 84 f5 bd
       0.15425329 0.1796541 0.009078965 -0.11988235
000260 46 ba ee 3d 24 e6 82 bd 18 8b ea 3c 16 81 9d bd
       0.116566226 -0.06391552 0.028630778 -0.07690637
000270 f9 56 18 3e cf 82 3f 3e 3a c3 8a bd 1d 73 32 be
       0.14876927 0.18702243 -0.06775518 -0.17426725
000280 ae 39 88 3d 8e c2 c9 bd 8c 0d 03 bd 4d cb 1b 3e
       0.066516265 -0.098515615 -0.03199534 0.15214272
000290 1b 14 2d 3e 34 96 69 3d eb 0e 20 3e 40 de ee 3b
       0.16902201 0.05702801 0.15630691 0.007289678
0002a0 9c 63 bb bd 77 bd 04 be 32 b9 84 3d d8 9c 80 bc
       -0.09149858 -0.129629 0.06480636 -0.015699789
0002b0 97 4f 0b 3e e6 d7 33 be 02 14 d7 3d 15 0c e1 bd
       0.1360458 -0.17562827 0.10501863 -0.109886326
0002c0 00 f2 1f 3b 5a d0 82 3d c3 9f ed bd be f6 a3 3d
       0.0024405718 0.06387396 -0.11602738 0.08006047
0002d0 bb ae 05 3e 51 59 1f 3e b0 1a cf bc e0 cf a1 bb
       0.13054936 0.15561415 -0.02528128 -0.0049381107
0002e0 ef 52 1a be d0 4a a2 3c 17 0a d2 bd 06 49 9f 3d
       -0.15070699 0.019811064 -0.10255831 0.077776
0002f0 2a e1 a6 bd f1 ce 45 be 28 f4 81 3c d6 dc 26 be
       -0.081484154 -0.19317223 0.015863493 -0.1629518
000300 92 30 ff bd 1a 6b 99 3d 2d 95 36 be 7c 9e 6c bd
       -0.12460436 0.07491131 -0.17830344 -0.05776833
000310 8e aa a5 bd e0 5d 28 3d 1d d4 17 3e f2 c4 17 be
       -0.08089171 0.04110515 0.14827009 -0.14821222
000320 6f fe 05 3e 40 01 2e bd eb b1 29 3e a8 21 34 be
       0.1308534 -0.04248166 0.16571777 -0.17590964
000330 04 6d 43 be 9b ea ee bd a9 9f 1f be 6e 30 f6 3d
       -0.19084555 -0.11665841 -0.1558825 0.12020956
000340 ea 46 f9 3d b4 76 35 bd ac 33 5c bd 62 1b 8a 3d
       0.12171729 -0.044302657 -0.053760216 0.06743504
000350 1a 48 3b be 92 79 8b 3d 1a 63 b2 3d 48 7b ef 3c
       -0.18289223 0.06810297 0.087103084 0.02923359
000360 d7 b9 25 3e 9b e2 01 3e 00 1e 62 bc 54 b4 23 be
       0.16184174 0.126841 -0.013801098 -0.15986758
000370 d8 30 1d be 50 f5 b0 3c 31 8e 42 be f9 40 11 3e
       -0.15350664 0.02160135 -0.18999554 0.14184941
000380 1e 15 ed 3d 63 ab 24 be 0e 3d 27 be 36 1e 8e 3d
       0.115762934 -0.16081004 -0.16331884 0.06939356
000390 ea d7 8f 3d 3f ba c7 bd e0 77 02 bc 90 1c 05 bd
       0.07023604 -0.097523205 -0.007963151 -0.032497942
0003a0 33 9a 9b bd 08 95 10 bd 6b 38 dd bd c0 b1 77 bc
       -0.075977705 -0.035298377 -0.108017765 -0.0151180625
0003b0 e5 dd 97 bd 80 fc 50 bd 8a 6b 2d be 24 33 3a 3d
       -0.0741537 -0.051022053 -0.16935554 0.045458928
0003c0 b6 c3 8a 3d aa 0d fd 3d 34 46 4c 3d 00 f0 8f ba
       0.0677561 0.12356122 0.04987164 -0.001098156
0003d0 14 0f 81 bd 3b 92 c2 bd b8 84 49 3d 3f 33 36 be
       -0.06301704 -0.095005475 0.049198836 -0.17792986
0003e0 31 72 42 be fd e8 34 3e 10 cb 8d 3c 80 56 4a 3d
       -0.18988873 0.17667003 0.017308742 0.0493989
0003f0 d8 70 f7 bd 2a db b0 3d 1d ca 2a 3e 2f 02 01 be
       -0.1208207 0.08635552 0.16678663 -0.12598489

lstm1.weight_hh_l0 f4 [128, 32]
000000 52 eb 35 be 20 52 23 3e c0 99 76 3c 39 5d 22 be
       -0.17765549 0.15949297 0.015051305 -0.15855874
000010 8a 50 24 be c8 7a c3 bd 6a 36 3c 3e 50 6e 4f 3c
       -0.16046348 -0.09544903 0.18380132 0.012660578
000020 30 b8 3b bc 80 89 9f ba 00 bc 08 ba 5c 98 8f 3d
       -0.011457488 -0.0012171715 -0.00052160025 0.07011482
000030 9c 7b 03 bd b7 61 f0 bd 98 b8 3e bd 70 ae 63 3d
       -0.032100305 -0.117373876 -0.04656276 0.05558628
000040 9e 92 25 be 42 6d a2 bd 5c 8f 70 bd 37 73 1e be
       -0.16169211 -0.079309955 -0.05873047 -0.15473638
000050 24 4a 33 3e 25 a8 29 be 38 62 98 3d f0 50 2a 3d
       0.17508751 -0.16568048 0.07440609 0.041581094
000060 ca 24 11 3e 10 05 91 3c ea cb c7 bd c4 d2 06 be
       0.1417419 0.01770261 -0.097556904 -0.13166338
000070 80 df ec 3d bf 1a f7 bd e7 1f c3 bd 34 37 d4 3d
       0.11566067 -0.12065648 -0.09527569 0.10362092
000080 47 f5 af bd 34 08 56 bd b8 dd 2c 3d b3 cb 45 be
       -0.08591705 -0.052253917 0.042203635 -0.19315986
000090 8c cd 68 bd e8 a0 0d bd 20 88 22 be 89 80 c4 bd
       -0.05683665 -0.03457728 -0.1587224 -0.09594829
0000a0 d0 03 5c 3d 84 99 ec bd d6 8c 03 be 50 7c 22 be
       0.053714573 -0.11552718 -0.12846693 -0.15867734
0000b0 f9 ac 02 be 80 42 71 bb fc f9 18 3d fb c4 37 be
       -0.12761296 -0.0036813319 0.03734778 -0.17946236
0000c0 60 c5 fa 3c e8 ab bf 3d d8 28 34 3e b0 2a ac bc
       0.030611694 0.093589604 0.17593706 -0.021016449
0000d0 a2 80 23 be 31 a6 11 be f0 73 8b bd 7f c3 8c bd
       -0.15967038 -0.14223553 -0.06809223 -0.068732254
0000e0 70 f3 be 3d 62 ac ac bd ea f2 34 be 55 03 36 be
       0.09323776 -0.08431317 -0.1767079 -0.17774709
0000f0 c8 5c 82 bc 6c 64 9c bd 6c 21 43 3d 00 26 40 be
       -0.015913382 -0.076363415 0.047639295 -0.18764496
000100 3c b8 50 bd a7 cf 45 be 00 9a 39 ba 78 dc 11 3d
       -0.05095695 -0.19317494 -0.0007080138 0.035610646
000110 24 06 94 bd 90 59 b6 3d cc be 25 be 90 a3 9e 3d
       -0.07227734 0.089038014 -0.16186064 0.07746041
000120 b1 1f 37 be b8 b0 c4 bd 8c e4 a8 bd 18 b8 27 be
       -0.17883183 -0.09604019 -0.08246717 -0.1637882
000130 80 72 d2 bc 78 a6 b1 3d 3d ef 9b bd e6 bd 39 3e
       -0.025689363 0.086743295 -0.076139905 0.18138847
000140 d0 07 3f be c9 99 ca bd 94 89 0f 3e c0 83 43 be
       -0.18655324 -0.098926134 0.14017326 -0.19093227
000150 20 98 8a 3d bc 1f cb 3d e4 ec 0a be 5a fb 1a 3e
       0.06767297 0.09918162 -0.13566929 0.15134946
000160 72 cb 17 3e 8c 32 cb 3d 60 90 0f 3c 1e c6 c7 bd
       0.14823702 0.099217504 0.008762449 -0.09754585
000170 30 93 f7 3c 60 6e 92 bb 7e 19 86 bd 20 4b 85 bb
       0.030221552 -0.004468724 -0.06547831 -0.0040677935
000180 84 8b 1b 3d bc 58 9e 3d d4 89 df 3d 80 e9 c0 bd
       0.03797485 0.077317685 0.109149605 -0.094195366
000190 c0 0e b7 3d a0 1b 44 3e 49 3e 39 be ec 7d 77 bd
       0.0893836 0.19151163 -0.18090166 -0.060422823
0001a0 8c e6 17 3e 40 f0 53 bc 00 40 bb 3d b8 3d 19 bd
       0.1483404 -0.012935698 0.091430664 -0.037412375
0001b0 72 6e 3c 3e 7e 82 0f be 19 91 20 be ee ec 1b be
       0.18401507 -0.14014623 -0.1568035 -0.152271
0001c0 b0 b1 a7 bc e8 a5 98 3c 58 51 b9 3d 68 60 70 3d
       -0.02047047 0.018633798 0.09048718 0.05868569
0001d0 e9 2e 0d be d4 5d 21 be fa 48 06 3e 25 a7 c1 bd
       -0.13787426 -0.15758449 0.13113776 -0.094557084
0001e0 b8 d0 7b 3d d7 da 38 be 00 90 ab 3d 30 1f d5 bc
       0.061478347 -0.18052231 0.08377075 -0.026015848
0001f0 80 17 6c bb 53 91 aa bd 00 1f 96 3b db c6 a2 bd
       -0.003602475 -0.083285 0.004581332 -0.07948085
000200 c0 bb 55 bc 00 78 b3 b8 08 29 0a 3e be 23 96 bd
       -0.013045251 -8.557737e-05 0.13492215 -0.07331036
000210 30 ba 4d bc c0 b4 01 bb cc 8a dd bd d4 91 57 3d
       -0.012556598 -0.0019791573 -0.10817489 0.052629307
000220 b3 7e df bd c8 dd 33 be 2c b8 3f be 9a e7 42 3e
       -0.10912838 -0.17565072 -0.187226 0.19033661
000230 10 2d 72 bc 0e 3b 0b 3e 5a 11 13 3e d0 37 27 3e
       -0.014781252 0.13596746 0.14362088 0.16329885
000240 84 d7 0c be 05 ef ac bd 18 ed 44 be db 36 df bd
       -0.13754088 -0.08444027 -0.19231069 -0.10899135
000250 e8 74 13 3d 10 8c 07 3c 0c f9 14 3d e1 2e 40 be
       0.036000162 0.00827314 0.036370322 -0.18767883
000260 70 c2 8a bd 80 46 ab 3d a6 ad a0 bd f4 e5 08 3e
       -0.06775367 0.08363056 -0.07845621 0.1336897
000270 24 75 84 3d c6 84 1a 3e e0 c1 ef 3c c0 a4 15 3c
       0.06467655 0.15089712 0.029267251 0.009133518
000280 b6 49 2a 3e e4 db b3 3d 35 5d 3a be 40 ba 18 bb
       0.16629681 0.08782175 -0.18199618 -0.0023304373
000290 7c b2 b6 3d d5 1b 92 bd 66 2b 25 be fa 5d 19 3e
       0.08920762 -0.07134215 -0.16129836 0.14977255
0002a0 0c 3e b3 3d c4 0b dc 3d ce e5 c2 bd f1 ec e0 bd
       0.08752069 0.107444316 -0.09516488 -0.10982693
0002b0 dc 16 03 3e 1e 9e 1f be 46 09 fe bd fc 22 63 3d
       0.12801689 -0.1558766 -0.124041125 0.055453286
0002c0 0e 4b e1 bd 94 d9 fd 3d b9 87 95 bd 7a 96 98 bd
       -0.11000644 0.12395015 -0.07301278 -0.07450576
0002d0 6e 8e 22 3e f8 6a 2e be 70 52 2e 3c 20 bb ea bc
       0.15874645 -0.17032993 0.010639772 -0.028653681
0002e0 c6 b0 2c be ec 44 35 3d dc 06 25 bd 08 47 eb 3d
       -0.16864309 0.044255182 -0.040289745 0.114881575
0002f0 f4 8c e8 3d 50 30 35 3e 80 89 85 ba 86 02 23 be
       0.1135501 0.17694211 -0.0010188073 -0.15918931
000300 97 b0 09 be 44 a7 f2 3d 80 9c df bb fb 7b 98 bd
       -0.1344627 0.1184831 -0.006824076 -0.074455224
000310 80 57 e9 3a cc 0f 86 3d 82 a0 37 3e 08 28 8d 3d
       0.0017802566 0.06545982 0.17932323 0.06892401
000320 f2 21 2f 3e 8f 60 9b bd 48 bd d7 3d 3c fe 88 3d
       0.17102793 -0.075867765 0.105341494 0.06689116
000330 c0 ea 87 3b 40 d0 28 be 00 0c 8f bb d8 f6 41 3d
       0.0041478574 -0.16485691 -0.004365444 0.04735455
000340 38 22 2a 3e 1c 0f b9 bd 2e 77 bb bd 54 0f 2d be
       0.16614616 -0.09036085 -0.09153591 -0.16900378
000350 26 4c 41 be b0 cf 44 3d 8c bc af 3d 84 84 41 bd
       -0.18876705 0.04804963 0.08580884 -0.047245517
000360 c4 60 07 bd 34 5d d3 3d 90 a5 74 3d b5 70 fb bd
       -0.033051267 0.103205115 0.059728205 -0.122773565
000370 f4 64 11 3e 50 25 dc 3d 40 33 e4 3d b0 a7 d6 3d
       0.14198667 0.10749304 0.11142588 0.104812026
000380 9c 12 9d bd 96 0c a1 bd ac 56 2f be a0 cd 2b 3c
       -0.07669565 -0.07863729 -0.17122906 0.010486037
000390 ad 33 30 be 88 03 b9 3d 60 a9 cd 3b 74 cd 97 3d
       -0.17207213 0.09033877 0.0062762946 0.07412234
0003a0 f8 9c 37 bd 30 cf 5b bd 48 12 73 3d 30 9f 0e 3e
       -0.04482743 -0.053664386 0.059343606 0.13927913
0003b0 98 6c 9a 3c c8 44 fb 3d 9f d7 ab bd ea b5 17 be
       0.01885061 0.12268978 -0.08390736 -0.14815488
0003c0 cf f3 a8 bd c7 c4 42 be a4 14 2a 3e 98 e9 19 3e
       -0.08249628 -0.19020377 0.16609436 0.15030515
0003d0 00 1d 7a 3d fe 7a 1c be a0 39 75 bd 90 13 53 3c
       0.061062813 -0.15281293 -0.05986941 0.012883082
0003e0 59 20 e8 bd b6 e6 2c be c0 fb 2d 3b f2 00 23 be
       -0.11334295 -0.16884884 0.002654776 -0.1591833
0003f0 00 84 73 3c 58 74 1f 3e f4 f4 03 be e6 60 90 bd
       0.014863014 0.15571725 -0.12886411 -0.07049732

lstm1.bias_ih_l0 f4 [128]
000000 00 00 00 00 00 00 00 00 00 00 00 00 00 00 00 00
       0.0 0.0 0.0 0.0
000010 00 00 00 00 00 00 00 00 00 00 00 00 00 00 00 00
       0.0 0.0 0.0 0.0
000020 00 00 00 00 00 00 00 00 00 00 00 00 00 00 00 00
       0.0 0.0 0.0 0.0
000030 00 00 00 00 00 00 00 00 00 00 00 00 00 00 00 00
       0.0 0.0 0.0 0.0
000040 00 00 00 00 00 00 00 00 00 00 00 00 00 00 00 00
       0.0 0.0 0.0 0.0
000050 00 00 00 00 00 00 00 00 00 00 00 00 00 00 00 00
       0.0 0.0 0.0 0.0
000060 00 00 00 00 00 00 00 00 00 00 00 00 00 00 00 00
       0.0 0.0 0.0 0.0
000070 00 00 00 00 00 00 00 00 00 00 00 00 00 00 00 00
       0.0 0.0 0.0 0.0
000080 00 00 00 00 00 00 00 00 00 00 00 00 00 00 00 00
       0.0 0.0 0.0 0.0
000090 00 00 00 00 00 00 00 00 00 00 00 00 00 00 00 00
       0.0 0.0 0.0 0.0
0000a0 00 00 00 00 00 00 00 00 00 00 00 00 00 00 00 00
       0.0 0.0 0.0 0.0
0000b0 00 00 00 00 00 00 00 00 00 00 00 00 00 00 00 00
       0.0 0.0 0.0 0.0
0000c0 00 00 00 00 00 00 00 00 00 00 00 00 00 00 00 00
       0.0 0.0 0.0 0.0
0000d0 00 00 00 00 00 00 00 00 00 00 00 00 00 00 00 00
       0.0 0.0 0.0 0.0
0000e0 00 00 00 00 00 00 00 00 00 00 00 00 00 00 00 00
       0.0 0.0 0.0 0.0
0000f0 00 00 00 00 00 00 00 00 00 00 00 00 00 00 00 00
       0.0 0.0 0.0 0.0
000100 00 00 00 00 00 00 00 00 00 00 00 00 00 00 00 00
       0.0 0.0 0.0 0.0
000110 00 00 00 00 00 00 00 00 00 00 00 00 00 00 00 00
       0.0 0.0 0.0 0.0
000120 00 00 00 00 00 00 00 00 00 00 00 00 00 00 00 00
       0.0 0.0 0.0 0.0
000130 00 00 00 00 00 00 00 00 00 00 00 00 00 00 00 00
       0.0 0.0 0.0 0.0
000140 00 00 00 00 00 00 00 00 00 00 00 00 00 00 00 00
       0.0 0.0 0.0 0.0
000150 00 00 00 00 00 00 00 00 00 00 00 00 00 00 00 00
       0.0 0.0 0.0 0.0
000160 00 00 00 00 00 00 00 00 00 00 00 00 00 00 00 00
       0.0 0.0 0.0 0.0
000170 00 00 00 00 00 00 00 00 00 00 00 00 00 00 00 00
       0.0 0.0 0.0 0.0
000180 00 00 00 00 00 00 00 00 00 00 00 00 00 00 00 00
       0.0 0.0 0.0 0.0
000190 00 00 00 00 00 00 00 00 00 00 00 00 00 00 00 00
       0.0 0.0 0.0 0.0
0001a0 00 00 00 00 00 00 00 00 00 00 00 00 00 00 00 00
       0.0 0.0 0.0 0.0
0001b0 00 00 00 00 00 00 00 00 00 00 00 00 00 00 00 00
       0.0 0.0 0.0 0.0
0001c0 00 00 00 00 00 00 00 00 00 00 00 00 00 00 00 00
       0.0 0.0 0.0 0.0
0001d0 00 00 00 00 00 00 00 00 00 00 00 00 00 00 00 00
       0.0 0.0 0.0 0.0
0001e0 00 00 00 00 00 00 00 00 00 00 00 00 00 00 00 00
       0.0 0.0 0.0 0.0
0001f0 00 00 00 00 00 00 00 00 00 00 00 00 00 00 00 00
       0.0 0.0 0.0 0.0

lstm1.bias_hh_l0 f4 [128]
000000 00 00 00 00 00 00 00 00 00 00 00 00 00 00 00 00
       0.0 0.0 0.0 0.0
000010 00 00 00 00 00 00 00 00 00 00 00 00 00 00 00 00
       0.0 0.0 0.0 0.0
000020 00 00 00 00 00 00 00 00 00 00 00 00 00 00 00 00
       0.0 0.0 0.0 0.0
000030 00 00 00 00 00 00 00 00 00 00 00 00 00 00 00 00
       0.0 0.0 0.0 0.0
000040 00 00 00 00 00 00 00 00 00 00 00 00 00 00 00 00
       0.0 0.0 0.0 0.0
000050 00 00 00 00 00 00 00 00 00 00 00 00 00 00 00 00
       0.0 0.0 0.0 0.0
000060 00 00 00 00 00 00 00 00 00 00 00 00 00 00 00 00
       0.0 0.0 0.0 0.0
000070 00 00 00 00 00 00 00 00 00 00 00 00 00 00 00 00
       0.0 0.0 0.0 0.0
000080 00 00 00 00 00 00 00 00 00 00 00 00 00 00 00 00
       0.0 0.0 0.0 0.0
000090 00 00 00 00 00 00 00 00 00 00 00 00 00 00 00 00
       0.0 0.0 0.0 0.0
0000a0 00 00 00 00 00 00 00 00 00 00 00 00 00 00 00 00
       0.0 0.0 0.0 0.0
0000b0 00 00 00 00 00 00 00 00 00 00 00 00 00 00 00 00
       0.0 0.0 0.0 0.0
0000c0 00 00 00 00 00 00 00 00 00 00 00 00 00 00 00 00
       0.0 0.0 0.0 0.0
0000d0 00 00 00 00 00 00 00 00 00 00 00 00 00 00 00 00
       0.0 0.0 0.0 0.0
0000e0 00 00 00 00 00 00 00 00 00 00 00 00 00 00 00 00
       0.0 0.0 0.0 0.0
0000f0 00 00 00 00 00 00 00 00 00 00 00 00 00 00 00 00
       0.0 0.0 0.0 0.0
000100 00 00 00 00 00 00 00 00 00 00 00 00 00 00 00 00
       0.0 0.0 0.0 0.0
000110 00 00 00 00 00 00 00 00 00 00 00 00 00 00 00 00
       0.0 0.0 0.0 0.0
000120 00 00 00 00 00 00 00 00 00 00 00 00 00 00 00 00
       0.0 0.0 0.0 0.0
000130 00 00 00 00 00 00 00 00 00 00 00 00 00 00 00 00
       0.0 0.0 0.0 0.0
000140 00 00 00 00 00 00 00 00 00 00 00 00 00 00 00 00
       0.0 0.0 0.0 0.0
000150 00 00 00 00 00 00 00 00 00 00 00 00 00 00 00 00
       0.0 0.0 0.0 0.0
000160 00 00 00 00 00 00 00 00 00 00 00 00 00 00 00 00
       0.0 0.0 0.0 0.0
000170 00 00 00 00 00 00 00 00 00 00 00 00 00 00 00 00
       0.0 0.0 0.0 0.0
000180 00 00 00 00 00 00 00 00 00 00 00 00 00 00 00 00
       0.0 0.0 0.0 0.0
000190 00 00 00 00 00 00 00 00 00 00 00 00 00 00 00 00
       0.0 0.0 0.0 0.0
0001a0 00 00 00 00 00 00 00 00 00 00 00 00 00 00 00 00
       0.0 0.0 0.0 0.0
0001b0 00 00 00 00 00 00 00 00 00 00 00 00 00 00 00 00
       0.0 0.0 0.0 0.0
0001c0 00 00 00 00 00 00 00 00 00 00 00 00 00 00 00 00
       0.0 0.0 0.0 0.0
0001d0 00 00 00 00 00 00 00 00 00 00 00 00 00 00 00 00
       0.0 0.0 0.0 0.0
0001e0 00 00 00 00 00 00 00 00 00 00 00 00 00 00 00 00
       0.0 0.0 0.0 0.0
0001f0 00 00 00 00 00 00 00 00 00 00 00 00 00 00 00 00
       0.0 0.0 0.0 0.0

lstm2.weight_ih_l0 f4 [128, 32]
000000 34 70 01 3e 4c 6c 45 3d ea ac 18 be cb 95 ce bd
       0.12640458 0.048198983 -0.14909711 -0.100871645
000010 24 f2 4b bd 8e 3a 01 be 1c 67 85 3d bc 95 ae 3d
       -0.04979147 -0.12619993 0.06513807 0.08524653
000020 cc c9 26 3e 69 c3 a3 bd c9 bc f8 bd 08 a6 e5 3d
       0.16287917 -0.07996256 -0.12145383 0.112133086
000030 18 cd b0 3d 28 bc 8e 3d 0e 8c 09 3e f4 42 1e be
       0.086328685 0.06969482 0.13432333 -0.15455228
000040 68 a4 9b bd 62 53 16 3e 04 b6 13 bd cc f2 2f bd
       -0.075997174 0.14680246 -0.036062256 -0.04295616
000050 98 1b 8c bd 2c 6f 21 be 94 15 c2 3d 65 42 d1 bd
       -0.068412006 -0.15765065 0.09476772 -0.10217742
000060 b3 79 43 be 16 62 10 3e b6 15 bd bd 40 a6 ef 3d
       -0.19089393 0.14099917 -0.09232657 0.117016315
000070 bc 5c 39 bd 10 84 c2 3d 82 5f 31 3e e0 1b 7f bc
       -0.045254454 0.09497845 0.1732159 -0.015570611
000080 39 12 1c be d3 2f d0 bd 62 3a 32 3e 6d 29 0f be
       -0.15241326 -0.10165372 0.17405084 -0.13980646
000090 50 08 a5 3d 14 dc 43 bd e6 7a 36 3e f8 50 9e 3d
       0.08058226 -0.047817305 0.1782032 0.07730287
0000a0 2c f1 45 bd 3c 5a 42 3e e0 68 f2 bc 14 a0 ff 3d
       -0.048325703 0.18979734 -0.029591024 0.12481704
0000b0 dc b5 3f bd ee 16 1a be 40 e4 fd bc c0 73 0f 3d
       -0.046804294 -0.1504781 -0.030992627 0.035022497
0000c0 10 45 c2 bc c8 12 22 3e 5b 40 39 be 36 32 2b be
       -0.023714572 0.15827477 -0.18090956 -0.16718373
0000d0 a9 0f 42 be ce a7 38 3e 19 3d c4 bd 60 91 04 3d
       -0.18951286 0.18032762 -0.09581966 0.032365203
0000e0 58 b8 9b 3d c8 8f 4e bd c0 ba 09 3d d0 2c 16 bc
       0.0760352 -0.05043009 0.033625364 -0.009165958
0000f0 f2 75 36 3e d4 5a 3b be 5d 4a 2d be 34 59 25 be
       0.1781843 -0.18296367 -0.16922899 -0.1614731
000100 a8 23 cc 3d 98 3f 43 3d 24 af 2a 3e 1a 75 31 3e
       0.099677384 0.04766807 0.16668373 0.17329827
000110 ae bc 32 3e ee 69 2a 3e d8 d8 03 3e 9c 00 b2 3d
       0.17454788 0.16641971 0.12875688 0.086915225
000120 c0 51 61 3d 80 f9 b6 bc 18 ac 40 3e a2 17 83 bd
       0.055009604 -0.022335768 0.18815649 -0.06400992
000130 c0 b8 ec bb 00 78 9e 3b 78 3f a9 bc 80 11 46 3e
       -0.0072241724 0.0048360825 -0.020660147 0.19342613
000140 78 81 22 be e0 41 81 3d ea a4 0e be 1d d3 a4 bd
       -0.15869701 0.06311393 -0.13930097 -0.08048079
000150 dc 5d 1c 3e 00 0d 10 be c8 8d e9 3d 86 ee e5 bd
       0.1527018 -0.14067459 0.11403996 -0.11227135
000160 0a bb 3f be 78 3f 38 3d b4 6f 00 3e dc f8 89 3d
       -0.18723693 0.044982404 0.12542611 0.06736919
000170 a2 fa 33 3e a2 a8 3b 3e 53 17 16 be 9c 74 34 3e
       0.17576078 0.18326047 -0.14657335 0.17622608
000180 0e 95 35 3e b8 fe 27 3e e8 f8 30 bd c0 d7 78 bd
       0.17732641 0.16405761 -0.043206125 -0.06075263
000190 e4 50 1d 3e d8 d7 1a 3e 70 d9 cc 3d d8 3b 36 3e
       0.15362889 0.151214 0.100024104 0.17796266
0001a0 92 a8 1e be 64 e9 3c bd 9a 46 24 3e ab 4f 1b be
       -0.15493992 -0.046121016 0.16042557 -0.1516711
0001b0 0a 6c 2a 3e e4 57 d5 3d c8 e1 f0 3d 3d 92 0e be
       0.16642776 0.104171544 0.11761814 -0.13922973
0001c0 a6 be 93 bd ca 42 01 be e8 ca 81 3c 44 3f 07 be
       -0.07214098 -0.12623134 0.015843824 -0.13207728
0001d0 e6 25 b9 bd 1c 12 43 bd a0 e6 da 3d 7c 21 28 3e
       -0.09040432 -0.047624692 0.106885195 0.16419023
0001e0 50 50 d1 bd 54 78 3b 3e 8a 88 3c be 14 6b ad 3d
       -0.102203965 0.1830762 -0.1841146 0.08467689
0001f0 81 fb fe bd 30 ae 80 3d 14 9b c2 3d 0c 64 ec 3d
       -0.12450314 0.06283224 0.09502235 0.1154252
000200 20 bb 73 bd 6c 35 2d bd a4 27 2e 3e 38 f7 d2 bd
       -0.05950463 -0.042287275 0.17007309 -0.103010595
000210 b8 6d 81 3c d2 2d 2b 3e 07 51 29 be 48 31 a1 3c
       0.015799388 0.16716698 -0.16534816 0.01967682
000220 38 a3 88 3d a8 cb e0 3d fc a3 d4 3d 58 a5 6e 3d
       0.066717565 0.10976344 0.1038284 0.058263153
000230 28 ca 19 3d d8 b3 67 3d 84 e2 26 bd 84 30 2a bd
       0.037546307 0.056567997 -0.040743366 -0.041550174
000240 b0 e8 7b bc 0e f1 af bd ac b3 2f be 2e 66 08 3e
       -0.015375301 -0.085908994 -0.17158383 0.13320228
000250 9d 67 31 be ea 1b 42 3e 40 e6 55 3c e2 4b 32 be
       -0.17324682 0.18955961 0.013055384 -0.1741176
000260 ee 31 07 3e 83 1f d1 bd dc ca 43 3e c0 45 4e bd
       0.1320264 -0.102110885 0.19120353 -0.050359488
000270 52 cc e2 bd fc 4f f1 3d 00 e4 0e 3e 23 ce ac bd
       -0.11074127 0.11782834 0.13954163 -0.08437755
000280 c2 9f 25 3e 7a fb 0e 3e d8 ad bd 3d ae 36 37 3e
       0.16174224 0.13963118 0.09261674 0.17891952
000290 b0 93 85 3d d4 99 93 3d e0 af 03 be 48 67 8d 3c
       0.0652231 0.07207075 -0.1286006 0.017261162
0002a0 60 a3 39 3c f4 87 9e 3d 90 35 23 be a4 a2 1f be
       0.011330456 0.07740775 -0.15938401 -0.15589386
0002b0 60 55 19 be cc 71 49 bd 00 dc 23 3a e0 5e 7e 3c
       -0.14973974 -0.04918079 0.0006250739 0.01552555
0002c0 f4 71 fd 3d 1c 6e fd 3d 58 2c 2c 3e 56 7a 32 3e
       0.123752505 0.12374517 0.16813791 0.1742948
0002d0 8c 48 17 bd b4 27 77 bd cc 80 8d 3d 78 b1 85 3c
       -0.03693442 -0.0603406 0.06909332 0.016319975
0002e0 54 18 0a 3d 2c 25 2e 3e cc f7 60 bd 54 ce ec 3d
       0.033714607 0.17006367 -0.054923818 0.115627915
0002f0 2c 8f 1e bd c4 d0 c4 bd 90 3a 61 bd 0a 04 0c 3e
       -0.038710758 -0.096101314 -0.05498749 0.13673416
000300 d2 e5 e2 bd 21 16 0b be 78 19 c7 3c 54 e2 79 bd
       -0.11078991 -0.1358266 0.024304137 -0.06100686
000310 82 1c 06 be 1e 98 33 3e b0 ab 28 be 00 36 74 3c
       -0.13096812 0.17538497 -0.16471744 0.014905453
000320 60 b0 de 3d 0f 48 c0 bd ac 20 63 bd b6 d3 30 be
       0.108734846 -0.09388744 -0.05545108 -0.17268261
000330 e0 91 8b 3c b0 bb ed bc 74 ff 74 bd 78 1d 89 bd
       0.017037332 -0.02902016 -0.05981393 -0.06695074
000340 c0 ac be 3c c6 5e 80 bd 3c 26 fc 3d 4c 29 09 be
       0.023275733 -0.062680766 0.1231198 -0.1339466
000350 bc 8f 65 3d 44 a9 ab 3d 4b 23 45 be 8d 0c 2a be
       0.05604528 0.08381894 -0.19251744 -0.1660635
000360 28 5b 91 3d 00 b0 a3 3c 48 d9 c5 3c c0 ed 30 be
       0.07097465 0.019981384 0.02415146 -0.17278194
000370 68 8b b3 bd 6c 96 2e 3e 42 7d 37 3e 54 7d 29 be
       -0.08766824 0.17049569 0.17918876 -0.16551715
000380 51 45 d8 bd b1 a4 3b be 48 3c 35 bd 2c cf 09 3e
       -0.10560096 -0.18324544 -0.04424694 0.13457936
000390 7e 7f 0f 3e da e3 00 3e 10 bd 59 bc fa 8c 1c 3e
       0.14013478 0.12586918 -0.013289705 0.15288153
0003a0 c8 8a 3f 3d 6a 06 0d be b4 2a 29 bd e8 db d6 3c
       0.04676321 -0.13771978 -0.04130049 0.026227906
0003b0 30 f2 8e bd d8 47 e9 bd a0 35 74 bc 80 05 37 bc
       -0.06979787 -0.11390656 -0.014905363 -0.011170745
0003c0 e6 3b 1a 3e fe a4 16 be e2 78 0a 3e 30 9a b7 3c
       0.15061912 -0.14711377 0.13522676 0.02241239
0003d0 ac 6b 1f be b0 a3 5b bc 46 8b 3c 3e dc 11 ee bd
       -0.15568417 -0.013405725 0.18412504 -0.116245
0003e0 78 21 f8 3d 08 b1 b3 bc 82 19 03 be 24 49 0f 3d
       0.12115759 -0.021935001 -0.12802699 0.03498186
0003f0 00 e8 a6 3d 7c 73 16 bd a3 b1 f5 bd 40 4c 37 bb
       0.08149719 -0.03673123 -0.11996772 -0.0027969033

lstm2.weight_hh_l0 f4 [128, 32]
000000 ac 11 f9 3d 8e 97 3f be 98 9b c4 3d 4c 5b 03 bd
       0.12161574 -0.18710157 0.0959999 -0.03206949
000010 48 88 d9 3d 20 fc 76 3d 47 44 ab bd 12 a0 18 3e
       0.10621697 0.06029904 -0.08362632 0.14904812
000020 30 ca ef 3d 3f b2 39 be a0 44 34 3d 3c 92 2b be
       0.11708486 -0.18134402 0.04401076 -0.16755003
000030 40 93 50 bb b8 38 99 3d 9c a6 0b 3e 27 53 8e bd
       -0.003182605 0.07481521 0.13637775 -0.06949454
000040 d8 97 83 3d 10 56 17 bc 38 33 fe 3c 50 97 74 3d
       0.06425446 -0.0092368275 0.031030282 0.059714615
000050 24 28 16 be 20 77 34 3d ce 71 8c bd 30 08 e9 3d
       -0.1466375 0.04405892 -0.06857644 0.11378515
000060 ee 45 0b be 88 df 37 bd c4 31 38 be 30 82 db 3d
       -0.13600895 -0.04489091 -0.17987734 0.10718191
000070 dc 98 fd 3d 10 82 55 bd 38 12 ec 3d 76 76 45 3e
       0.12382671 -0.05212599 0.115269125 0.1928347
000080 70 05 f5 3d 0c 8c 11 3e e4 c5 f6 3d d2 88 0e 3e
       0.11963928 0.1421358 0.120494634 0.1391938
000090 00 62 bf 3a e8 a4 90 bc 30 ba 6e 3d 84 51 0f 3e
       0.001460135 -0.017656758 0.05828303 0.1399594
0000a0 c0 22 62 3d f0 00 8f 3c 94 91 bd 3d 40 34 82 3d
       0.05520892 0.017456502 0.092562824 0.06357622
0000b0 d4 44 c6 3d 98 b7 2b 3d fc 96 3c 3d 78 e2 3d 3d
       0.09681097 0.041923136 0.046042427 0.046358556
0000c0 18 11 ea 3c 70 b1 1a bc a8 03 6a 3d 28 45 44 3e
       0.028572604 -0.009441718 0.057132393 0.19167006
0000d0 38 16 dc bc ee 5a 06 3e f0 ba 09 3c f2 35 09 3e
       -0.026866063 0.13120624 0.008406386 0.13399485
0000e0 63 75 2e be 78 7c 0a 3d 5e 7f 1c be 10 12 fd bc
       -0.17036967 0.03381011 -0.15282962 -0.030892402
0000f0 f0 32 3e bd 1c d2 a7 3d 08 78 38 bd 1b aa 23 be
       -0.046435297 0.08194372 -0.045036346 -0.15982859
000100 d5 db 11 be a0 80 0e be 5d c7 b3 bd 30 56 85 3c
       -0.14244016 -0.13916254 -0.0877826 0.016276449
000110 b0 d4 31 be 5e 08 30 be e8 a2 33 3e 30 dc 68 3c
       -0.1736629 -0.17190692 0.17542613 0.014212653
000120 c0 1b 59 bc b0 6d 9c 3d e4 08 2c 3e fe d1 28 3e
       -0.013251245 0.07638109 0.16800267 0.16486356
000130 38 13 c2 bc 4b 7d 02 be 6a d5 36 3e 16 34 83 bd
       -0.023690805 -0.12743108 0.17854849 -0.06406419
000140 f2 02 1b be 9c 0a d4 3d b8 60 97 3d 40 d6 3d bb
       -0.15137842 0.10353586 0.073914945 -0.0028966814
000150 c0 55 93 3d 61 05 a5 bd 2a bf 1c 3e b8 a3 01 3e
       0.0719409 -0.080576666 0.15307298 0.1266011
000160 50 6f 6b 3d ac bb 0b be b0 cc 39 bc f4 17 0b 3e
       0.057479203 -0.1364581 -0.011340305 0.13583356
000170 b0 12 ef 3c 00 3d 8d 3b b2 38 d9 bd 3c 96 2f bd
       0.029183716 0.0043102503 -0.10606517 -0.042867884
000180 60 7c c6 bc 13 36 da bd 4a 32 85 bd d4 59 22 bd
       -0.024229228 -0.10654845 -0.065037325 -0.039636448
000190 b0 90 0c 3d 30 7f 43 3c 10 d0 da 3d 58 f8 ef bc
       0.034317672 0.011932179 0.10684216 -0.029293224
0001a0 40 2b b4 bc 26 2a 19 3e 00 30 7f 3d cc 23 48 bd
       -0.02199328 0.14957485 0.062301636 -0.048862264
0001b0 58 29 9e bd e4 6f ea 3d 00 28 98 b8 7c 51 6d bd
       -0.077227294 0.11447123 -7.2553754e-05 -0.057939038
0001c0 e4 e0 d6 bd 92 af db bd 8e f0 2a 3e 68 73 23 bd
       -0.10492113 -0.10726847 0.16693327 -0.03990498
0001d0 a0 42 0e be 08 a0 c1 3c cc f2 06 3e e0 38 0f 3e
       -0.13892603 0.02363588 0.13178557 0.1398654
0001e0 6e 46 99 bd 56 d8 25 be 04 af 00 bd d9 c0 f7 bd
       -0.074841365 -0.16195807 -0.031416908 -0.1209733
0001f0 98 b6 e1 3d a6 94 f7 bd 98 a2 3b 3e c0 27 51 bd
       0.11021155 -0.12088899 0.18323743 -0.0510633
000200 f8 5f 3f 3e 2c be c7 3d a2 e0 1d 3e 28 78 c6 3d
       0.18688953 0.09753069 0.15417722 0.09690887
000210 0d c0 45 be e2 61 d0 bd 28 2c d4 3d 03 ad 2f be
       -0.19311543 -0.1017492 0.10359985 -0.17155842
000220 04 70 18 3d a6 f9 c0 bd 72 78 3e be 00 3e c2 3b
       0.0372162 -0.09422617 -0.18600634 0.005927801
000230 ac a8 df 3d 33 db 8d bd d6 ca a7 bd fa 93 0a be
       0.109208435 -0.069265746 -0.08192985 -0.13533011
000240 38 ba 3d 3e 20 db fa bb dc 90 09 be 54 5e 44 be
       0.18528068 -0.0076555163 -0.13434166 -0.19176608
000250 98 8e ec bc 08 58 7e 3d e8 28 61 bd 68 5a 2c be
       -0.028876588 0.062095672 -0.054970652 -0.16831362
000260 b8 9f 3d be 9c a9 87 3d 20 dd 8a bd 20 07 95 bd
       -0.18517959 0.06624147 -0.067804575 -0.072767496
000270 b2 53 42 3e 30 83 be 3d fc 74 44 3e cb 0d 23 be
       0.1897724 0.09302366 0.19185251 -0.1592323
000280 c0 54 39 bd 3c d9 f9 3d 98 78 56 3d 7b ae a2 bd
       -0.04524684 0.12199637 0.0523611 -0.07943436
000290 60 0f c1 bb 68 91 f5 3d 60 e6 8e bd 16 83 eb bd
       -0.0058917254 0.11990625 -0.06977534 -0.11499612
0002a0 5c 5d 34 3e 11 4d f6 bd 94 78 ae bd e7 2b 01 be
       0.17613739 -0.12026418 -0.08519092 -0.12614404
0002b0 76 9c 35 3e 04 3b f2 bd 08 09 d5 bc 2f cf de bd
       0.17735466 -0.118276626 -0.026005283 -0.10879361
0002c0 0e 79 3e be 10 9a c7 bd 3c af 45 bd 08 97 b4 3c
       -0.18600866 -0.09746182 -0.04826282 0.022044674
0002d0 78 23 d4 3c 80 04 42 be c8 c8 b9 3c cc ee f8 3d
       0.025895819 -0.18947029 0.022678748 0.12154922
0002e0 60 e4 9f bd 54 dc b3 3d 70 d8 7f bc a0 1f 0b 3e
       -0.07807231 0.08782259 -0.015615568 0.13586283
0002f0 88 57 16 be b2 34 2a 3e b0 e5 5b bc 5f 9d 8f bd
       -0.14681828 0.16621664 -0.013421461 -0.07012438
000300 5c 0a 29 3e 9a 31 1d 3e 74 0f 30 be a0 d8 2c bd
       0.16507858 0.15350953 -0.17193395 -0.042198777
000310 56 80 3d be 85 f1 0b be f4 dd 38 be 40 e0 c3 bb
       -0.18505988 -0.13666351 -0.18053418 -0.0059776604
000320 58 25 f1 3d 9c a9 b1 3d 56 1c d0 bd 68 ad 41 3e
       0.11774701 0.086749285 -0.10161655 0.18913805
000330 f0 a2 63 3d cc 00 04 be 8c 71 3b be 28 09 1d 3e
       0.05557531 -0.12890929 -0.18305033 0.15335524
000340 1c 51 28 3e 86 83 16 3e a3 6d 8f bd aa 29 dc bd
       0.16437191 0.1469861 -0.070033334 -0.10750134
000350 64 8e 50 bd 87 b2 19 be 76 68 3c be d4 91 52 bd
       -0.050917044 -0.15009509 -0.18399224 -0.051408604
000360 d0 20 b8 3d 47 3a b8 bd 50 17 18 bc e4 be 1d 3e
       0.089906335 -0.089954905 -0.009282902 0.1540485
000370 70 bc 16 3e 70 47 bf 3c c6 f9 2b 3e e8 3e 8e 3c
       0.1472032 0.023349494 0.167945 0.01736398
000380 02 84 93 bd 1c 82 2e 3e 48 8a cb 3c f0 99 39 3c
       -0.07202913 0.1704182 0.024846211 0.0113282055
000390 a8 72 8b 3d c0 0b d4 bb e8 86 1a be b4 b7 11 be
       0.06808978 -0.0064711273 -0.15090525 -0.14230233
0003a0 c4 ac 16 bd 18 37 69 3d b8 f9 2f 3e 40 1f e0 bd
       -0.036785856 0.056937307 0.17185104 -0.109434605
0003b0 93 11 21 be f2 fb 12 3e dc 6e 15 3e dc 7d 2e be
       -0.1572936 0.14353922 0.14593071 -0.17040199
0003c0 7f dd 92 bd f9 99 c0 bd b6 47 0f 3e 8c 11 24 3e
       -0.07171153 -0.09404368 0.139922 0.16022319
0003d0 bc cf b0 3d fc 29 41 bd 18 e4 be bc 3c ad 19 3d
       0.08633372 -0.04715918 -0.023302123 0.037518725
0003e0 84 e1 0e 3e fc 77 c8 bd 30 d8 00 3c 90 80 4a 3c
       0.13953215 -0.0978851 0.007864043 0.012359753
0003f0 50 7b ed 3d 0e 16 e7 bd 20 ee df bb 54 a4 10 3e
       0.115957856 -0.112835035 -0.0068338066 0.14125186

lstm2.bias_ih_l0 f4 [128]
000000 00 00 00 00 00 00 00 00 00 00 00 00 00 00 00 00
       0.0 0.0 0.0 0.0
000010 00 00 00 00 00 00 00 00 00 00 00 00 00 00 00 00
       0.0 0.0 0.0 0.0
000020 00 00 00 00 00 00 00 00 00 00 00 00 00 00 00 00
       0.0 0.0 0.0 0.0
000030 00 00 00 00 00 00 00 00 00 00 00 00 00 00 00 00
       0.0 0.0 0.0 0.0
000040 00 00 00 00 00 00 00 00 00 00 00 00 00 00 00 00
       0.0 0.0 0.0 0.0
000050 00 00 00 00 00 00 00 00 00 00 00 00 00 00 00 00
       0.0 0.0 0.0 0.0
000060 00 00 00 00 00 00 00 00 00 00 00 00 00 00 00 00
       0.0 0.0 0.0 0.0
000070 00 00 00 00 00 00 00 00 00 00 00 00 00 00 00 00
       0.0 0.0 0.0 0.0
000080 00 00 00 00 00 00 00 00 00 00 00 00 00 00 00 00
       0.0 0.0 0.0 0.0
000090 00 00 00 00 00 00 00 00 00 00 00 00 00 00 00 00
       0.0 0.0 0.0 0.0
0000a0 00 00 00 00 00 00 00 00 00 00 00 00 00 00 00 00
       0.0 0.0 0.0 0.0
0000b0 00 00 00 00 00 00 00 00 00 00 00 00 00 00 00 00
       0.0 0.0 0.0 0.0
0000c0 00 00 00 00 00 00 00 00 00 00 00 00 00 00 00 00
       0.0 0.0 0.0 0.0
0000d0 00 00 00 00 00 00 00 00 00 00 00 00 00 00 00 00
       0.0 0.0 0.0 0.0
0000e0 00 00 00 00 00 00 00 00 00 00 00 00 00 00 00 00
       0.0 0.0 0.0 0.0
0000f0 00 00 00 00 00 00 00 00 00 00 00 00 00 00 00 00
       0.0 0.0 0.0 0.0
000100 00 00 00 00 00 00 00 00 00 00 00 00 00 00 00 00
       0.0 0.0 0.0 0.0
000110 00 00 00 00 00 00 00 00 00 00 00 00 00 00 00 00
       0.0 0.0 0.0 0.0
000120 00 00 00 00 00 00 00 00 00 00 00 00 00 00 00 00
       0.0 0.0 0.0 0.0
000130 00 00 00 00 00 00 00 00 00 00 00 00 00 00 00 00
       0.0 0.0 0.0 0.0
000140 00 00 00 00 00 00 00 00 00 00 00 00 00 00 00 00
       0.0 0.0 0.0 0.0
000150 00 00 00 00 00 00 00 00 00 00 00 00 00 00 00 00
       0.0 0.0 0.0 0.0
000160 00 00 00 00 00 00 00 00 00 00 00 00 00 00 00 00
       0.0 0.0 0.0 0.0
000170 00 00 00 00 00 00 00 00 00 00 00 00 00 00 00 00
       0.0 0.0 0.0 0.0
000180 00 00 00 00 00 00 00 00 00 00 00 00 00 00 00 00
       0.0 0.0 0.0 0.0
000190 00 00 00 00 00 00 00 00 00 00 00 00 00 00 00 00
       0.0 0.0 0.0 0.0
0001a0 00 00 00 00 00 00 00 00 00 00 00 00 00 00 00 00
       0.0 0.0 0.0 0.0
0001b0 00 00 00 00 00 00 00 00 00 00 00 00 00 00 00 00
       0.0 0.0 0.0 0.0
0001c0 00 00 00 00 00 00 00 00 00 00 00 00 00 00 00 00
       0.0 0.0 0.0 0.0
0001d0 00 00 00 00 00 00 00 00 00 00 00 00 00 00 00 00
       0.0 0.0 0.0 0.0
0001e0 00 00 00 00 00 00 00 00 00 00 00 00 00 00 00 00
       0.0 0.0 0.0 0.0
0001f0 00 00 00 00 00 00 00 00 00 00 00 00 00 00 00 00
       0.0 0.0 0.0 0.0

lstm2.bias_hh_l0 f4 [128]
000000 00 00 00 00 00 00 00 00 00 00 00 00 00 00 00 00
       0.0 0.0 0.0 0.0
000010 00 00 00 00 00 00 00 00 00 00 00 00 00 00 00 00
       0.0 0.0 0.0 0.0
000020 00 00 00 00 00 00 00 00 00 00 00 00 00 00 00 00
       0.0 0.0 0.0 0.0
000030 00 00 00 00 00 00 00 00 00 00 00 00 00 00 00 00
       0.0 0.0 0.0 0.0
000040 00 00 00 00 00 00 00 00 00 00 00 00 00 00 00 00
       0.0 0.0 0.0 0.0
000050 00 00 00 00 00 00 00 00 00 00 00 00 00 00 00 00
       0.0 0.0 0.0 0.0
000060 00 00 00 00 00 00 00 00 00 00 00 00 00 00 00 00
       0.0 0.0 0.0 0.0
000070 00 00 00 00 00 00 00 00 00 00 00 00 00 00 00 00
       0.0 0.0 0.0 0.0
000080 00 00 00 00 00 00 00 00 00 00 00 00 00 00 00 00
       0.0 0.0 0.0 0.0
000090 00 00 00 00 00 00 00 00 00 00 00 00 00 00 00 00
       0.0 0.0 0.0 0.0
0000a0 00 00 00 00 00 00 00 00 00 00 00 00 00 00 00 00
       0.0 0.0 0.0 0.0
0000b0 00 00 00 00 00 00 00 00 00 00 00 00 00 00 00 00
       0.0 0.0 0.0 0.0
0000c0 00 00 00 00 00 00 00 00 00 00 00 00 00 00 00 00
       0.0 0.0 0.0 0.0
0000d0 00 00 00 00 00 00 00 00 00 00 00 00 00 00 00 00
       0.0 0.0 0.0 0.0
0000e0 00 00 00 00 00 00 00 00 00 00 00 00 00 00 00 00
       0.0 0.0 0.0 0.0
0000f0 00 00 00 00 00 00 00 00 00 00 00 00 00 00 00 00
       0.0 0.0 0.0 0.0
000100 00 00 00 00 00 00 00 00 00 00 00 00 00 00 00 00
       0.0 0.0 0.0 0.0
000110 00 00 00 00 00 00 00 00 00 00 00 00 00 00 00 00
       0.0 0.0 0.0 0.0
000120 00 00 00 00 00 00 00 00 00 00 00 00 00 00 00 00
       0.0 0.0 0.0 0.0
000130 00 00 00 00 00 00 00 00 00 00 00 00 00 00 00 00
       0.0 0.0 0.0 0.0
000140 00 00 00 00 00 00 00 00 00 00 00 00 00 00 00 00
       0.0 0.0 0.0 0.0
000150 00 00 00 00 00 00 00 00 00 00 00 00 00 00 00 00
       0.0 0.0 0.0 0.0
000160 00 00 00 00 00 00 00 00 00 00 00 00 00 00 00 00
       0.0 0.0 0.0 0.0
000170 00 00 00 00 00 00 00 00 00 00 00 00 00 00 00 00
       0.0 0.0 0.0 0.0
000180 00 00 00 00 00 00 00 00 00 00 00 00 00 00 00 00
       0.0 0.0 0.0 0.0
000190 00 00 00 00 00 00 00 00 00 00 00 00 00 00 00 00
       0.0 0.0 0.0 0.0
0001a0 00 00 00 00 00 00 00 00 00 00 00 00 00 00 00 00
       0.0 0.0 0.0 0.0
0001b0 00 00 00 00 00 00 00 00 00 00 00 00 00 00 00 00
       0.0 0.0 0.0 0.0
0001c0 00 00 00 00 00 00 00 00 00 00 00 00 00 00 00 00
       0.0 0.0 0.0 0.0
0001d0 00 00 00 00 00 00 00 00 00 00 00 00 00 00 00 00
       0.0 0.0 0.0 0.0
0001e0 00 00 00 00 00 00 00 00 00 00 00 00 00 00 00 00
       0.0 0.0 0.0 0.0
0001f0 00 00 00 00 00 00 00 00 00 00 00 00 00 00 00 00
       0.0 0.0 0.0 0.0

fc.weight f4 [1, 32]
000000 ec 7e c2 3e e4 61 1d 3e c2 d8 52 be be a0 d2 be
       0.3798746 0.15369374 -0.20590499 -0.41138262
000010 22 13 98 3e 88 9d 45 3d e8 18 32 be f1 2e 3c be
       0.29702097 0.048245937 -0.17392313 -0.18377282
000020 a4 83 48 3e dc 5c 3c be 64 b2 85 be a8 69 5b bd
       0.19581467 -0.18394798 -0.26112664 -0.05356756
000030 18 4e 9d 3e 39 e3 d8 be 4c 26 8e be 3a 6a 41 be
       0.30723643 -0.42360857 -0.27763593 -0.18888178
000040 4a 16 1a be 90 71 b2 3d d8 69 a7 3d 2c 23 58 3e
       -0.15047565 0.087130666 0.08174485 0.21107167
000050 98 05 e9 bd f2 22 84 3e 78 34 18 3d c7 49 90 be
       -0.1137802 0.2580791 0.037159413 -0.28181288
000060 76 b0 8a 3e d8 cd d0 bd 84 bf 47 3e 90 56 17 3e
       0.27087754 -0.101955116 0.19506651 0.14779115
000070 ed 2c d1 be 50 53 b3 3e 46 ed 6c be ae 21 6f be
       -0.40854588 0.350245 -0.23137388 -0.23352692

batch_norm.weight f4 [32]
000000 00 00 80 3f 00 00 80 3f 00 00 80 3f 00 00 80 3f
       1.0 1.0 1.0 1.0
000010 00 00 80 3f 00 00 80 3f 00 00 80 3f 00 00 80 3f
       1.0 1.0 1.0 1.0
000020 00 00 80 3f 00 00 80 3f 00 00 80 3f 00 00 80 3f
       1.0 1.0 1.0 1.0
000030 00 00 80 3f 00 00 80 3f 00 00 80 3f 00 00 80 3f
       1.0 1.0 1.0 1.0
000040 00 00 80 3f 00 00 80 3f 00 00 80 3f 00 00 80 3f
       1.0 1.0 1.0 1.0
000050 00 00 80 3f 00 00 80 3f 00 00 80 3f 00 00 80 3f
       1.0 1.0 1.0 1.0
000060 00 00 80 3f 00 00 80 3f 00 00 80 3f 00 00 80 3f
       1.0 1.0 1.0 1.0
000070 00 00 80 3f 00 00 80 3f 00 00 80 3f 00 00 80 3f
       1.0 1.0 1.0 1.0

batch_norm.bias f4 [32]
000000 00 00 00 00 00 00 00 00 00 00 00 00 00 00 00 00
       0.0 0.0 0.0 0.0
000010 00 00 00 00 00 00 00 00 00 00 00 00 00 00 00 00
       0.0 0.0 0.0 0.0
000020 00 00 00 00 00 00 00 00 00 00 00 00 00 00 00 00
       0.0 0.0 0.0 0.0
000030 00 00 00 00 00 00 00 00 00 00 00 00 00 00 00 00
       0.0 0.0 0.0 0.0
000040 00 00 00 00 00 00 00 00 00 00 00 00 00 00 00 00
       0.0 0.0 0.0 0.0
000050 00 00 00 00 00 00 00 00 00 00 00 00 00 00 00 00
       0.0 0.0 0.0 0.0
000060 00 00 00 00 00 00 00 00 00 00 00 00 00 00 00 00
       0.0 0.0 0.0 0.0
000070 00 00 00 00 00 00 00 00 00 00 00 00 00 00 00 00
       0.0 0.0 0.0 0.0

batch_norm.running_mean f4 [32]
000000 00 00 00 00 00 00 00 00 00 00 00 00 00 00 00 00
       0.0 0.0 0.0 0.0
000010 00 00 00 00 00 00 00 00 00 00 00 00 00 00 00 00
       0.0 0.0 0.0 0.0
000020 00 00 00 00 00 00 00 00 00 00 00 00 00 00 00 00
       0.0 0.0 0.0 0.0
000030 00 00 00 00 00 00 00 00 00 00 00 00 00 00 00 00
       0.0 0.0 0.0 0.0
000040 00 00 00 00 00 00 00 00 00 00 00 00 00 00 00 00
       0.0 0.0 0.0 0.0
000050 00 00 00 00 00 00 00 00 00 00 00 00 00 00 00 00
       0.0 0.0 0.0 0.0
000060 00 00 00 00 00 00 00 00 00 00 00 00 00 00 00 00
       0.0 0.0 0.0 0.0
000070 00 00 00 00 00 00 00 00 00 00 00 00 00 00 00 00
       0.0 0.0 0.0 0.0

batch_norm.running_var f4 [32]
000000 00 00 80 3f 00 00 80 3f 00 00 80 3f 00 00 80 3f
       1.0 1.0 1.0 1.0
000010 00 00 80 3f 00 00 80 3f 00 00 80 3f 00 00 80 3f
       1.0 1.0 1.0 1.0
000020 00 00 80 3f 00 00 80 3f 00 00 80 3f 00 00 80 3f
       1.0 1.0 1.0 1.0
000030 00 00 80 3f 00 00 80 3f 00 00 80 3f 00 00 80 3f
       1.0 1.0 1.0 1.0
000040 00 00 80 3f 00 00 80 3f 00 00 80 3f 00 00 80 3f
       1.0 1.0 1.0 1.0
000050 00 00 80 3f 00 00 80 3f 00 00 80 3f 00 00 80 3f
       1.0 1.0 1.0 1.0
000060 00 00 80 3f 00 00 80 3f 00 00 80 3f 00 00 80 3f
       1.0 1.0 1.0 1.0
000070 00 00 80 3f 00 00 80 3f 00 00 80 3f 00 00 80 3f
       1.0 1.0 1.0 1.0
