trading/models/GOOGL_ensemble.pth (torch, 70965 bytes, 9 tensors)

lstm.weight_ih_l0 f4 [128, 30]
000000 fc df 7c bd 12 a1 af 3d 05 cc 34 be 56 a4 1a be
       -0.061737046 0.085756436 -0.17655952 -0.15101752
000010 08 f4 d6 bd f6 b5 17 be bc 74 48 bd d7 d2 2f 3e
       -0.10495764 -0.14815506 -0.04893945 0.17170273
000020 0c 30 00 3d 05 bf 31 3e 19 b1 19 3e b6 fe 39 be
       0.03129582 0.17358024 0.15008964 -0.18163571
000030 b0 f9 00 bd 3a e7 32 be 2e 00 e6 bd 50 87 83 bc
       -0.03148812 -0.17471018 -0.11230503 -0.016055733
000040 ae 67 cf bd a0 f9 1c bc 59 24 db bd 7e 47 a4 3d
       -0.10127197 -0.009581 -0.10700292 0.080214486
000050 68 b5 eb bc 54 b0 5f 3d 0c a1 70 3d 2c 5b e9 bd
       -0.028773025 0.05461152 0.058747336 -0.11394343
000060 88 b7 1b bd 20 f0 7e bd df cc 01 3e df 42 46 be
       -0.038016826 -0.06224072 0.12675808 -0.19361447
000070 30 d8 27 be 41 59 a8 bd d2 f9 22 be dc 58 2f bd
       -0.16391063 -0.08220149 -0.15915611 -0.042809352
000080 80 06 5a 3b 30 b3 42 bc cf ca 3a 3e 44 a0 73 3d
       0.0033268034 -0.011883542 0.18241428 0.059479013
000090 08 30 0f bd 16 71 e2 bd 81 0b 1e 3e 00 59 16 3b
       -0.034957916 -0.11056726 0.15434076 0.0022941232
0000a0 8b 1f 13 3e 11 41 bf bd f2 fe d1 bd 9a e1 f5 bd
       0.14367501 -0.09338582 -0.10253705 -0.12005921
0000b0 0a c6 02 be e9 62 36 be e6 76 b2 3d 1b e2 21 3e
       -0.12770858 -0.17811169 0.08714084 0.15808909
0000c0 e8 e0 7c bd 7b bb 10 3e ed 4a 09 3e 8a 45 fe 3d
       -0.061737925 0.14134018 0.13407488 0.12415607
0000d0 88 0f f8 3c 06 e7 e4 3d e6 12 aa 3d f2 34 de 3d
       0.030280843 0.11176877 0.08304386 0.10849942
0000e0 f2 d3 91 3d 05 7e 3e be b8 46 b7 3c 61 12 01 3e
       0.071205035 -0.1860276 0.022372589 0.12604667
0000f0 6e d9 03 be 89 6d 3f be 72 b6 87 bd b6 d1 32 be
       -0.12875912 -0.18694128 -0.066265956 -0.17462811
000100 ad 82 23 3e 64 89 67 3d 48 e0 4d bd 56 fc c2 bd
       0.15967818 0.05652751 -0.05026272 -0.095207855
000110 e6 5a 83 3d e4 73 3f be a4 11 59 3d 78 ac 0c 3d
       0.06413822 -0.18696553 0.05299534 0.034344167
000120 e0 53 e7 3c 94 dd 3f be 80 cf 4b 3d 68 94 04 bd
       0.028238237 -0.18736869 0.049758434 -0.032368094
000130 24 5a 43 be 40 01 5c bd 82 f5 d4 bd 73 14 2d 3e
       -0.19077355 -0.05371213 -0.103983894 0.16902332
000140 a6 5c f1 3d 69 4b 2a 3e 00 f8 3c 3b a3 2a 3b 3e
       0.117852494 0.16630329 0.0028834343 0.18277983
000150 d6 6f f4 3d e4 33 4a bd 08 f3 4d 3d 14 b0 c7 bd
       0.119353935 -0.049365893 0.0502806 -0.09750381
000160 24 f7 26 bd b8 46 2f bd a4 f7 9b bd 40 13 ee bc
       -0.040763035 -0.042792052 -0.07615593 -0.029061913
000170 14 4e 53 bd 64 66 78 3d ac af d2 bd 4f a9 09 3e
       -0.051588133 0.060644522 -0.10287413 0.13443492
000180 65 2d 3d 3e f2 70 81 3d 60 4f 3e bc 2d 27 ee bd
       0.18474348 0.06320371 -0.011615604 -0.11628566
000190 10 c7 38 3d b6 69 e9 3d 28 88 d9 bc c6 64 d1 3d
       0.045111716 0.11397116 -0.026554182 0.10224299
0001a0 f8 28 e9 bc 59 0d 07 3e fa 38 eb 3d ac 2d 01 be
       -0.028461918 0.13188685 0.11485477 -0.12615079
0001b0 80 af 71 bc 75 c2 96 bd 89 d1 2b be 04 a0 0c 3d
       -0.014751315 -0.073613085 -0.1677915 0.03433229
0001c0 ae 9f e0 3d 80 15 eb bc 25 e0 0b 3e 89 8d 13 3e
       0.109679565 -0.028696775 0.13659723 0.1440946
0001d0 66 cf 88 bd 20 21 d0 bd b6 ff fe 3d 94 5d 69 bd
       -0.06680183 -0.10162568 0.12451117 -0.05697401
0001e0 c0 81 7d 3b 5e a6 a1 3d 56 89 b9 3d ca 5b c4 3d
       0.0038682073 0.0789306 0.09059398 0.0958782
0001f0 9d 7d d2 bd b2 9f 9a bd d8 20 8b bc c3 67 d2 bd
       -0.10277865 -0.07549991 -0.016983435 -0.10273697
000200 8e f6 0d be a9 88 09 3e 84 57 0b be f2 e5 b9 3d
       -0.13863584 0.13431038 -0.13607603 0.09077062
000210 4a c8 14 be 08 b8 df 3c 9c b3 04 bd c0 bb 93 3b
       -0.14529529 0.027309433 -0.03239785 0.0045084655
000220 73 da 04 3e 69 58 16 be 8a 0d 07 be 5e ff c6 3d
       0.12973957 -0.14682163 -0.13188758 0.09716676
000230 95 a6 bc bd 54 60 2d be e2 49 e5 3d a0 b1 70 3c
       -0.092114605 -0.16931278 0.11195733 0.014690787
000240 c0 5e 51 3c b8 f2 16 bd 21 0f 30 3e 68 f7 9b bc
       0.012778938 -0.03685257 0.17193271 -0.01903887
000250 f6 18 c0 bd 79 6a 1d 3e a1 c4 0b 3e 50 38 d9 3c
       -0.09379761 0.15372647 0.13649227 0.02651611
000260 a2 5e 22 be 55 6a 31 be 7b 93 fd bd ac ea 26 3d
       -0.15856412 -0.17325719 -0.12381645 0.040751144
000270 9c ae 5b bd b5 1d 30 3e 9f 19 11 be a1 42 02 3e
       -0.053633317 0.17198832 -0.1416993 0.1272073
000280 d0 9e f2 3c 45 91 14 3e 2f 73 08 3e 60 a2 0e bd
       0.029616743 0.14508541 0.13325189 -0.03482282
000290 a0 f9 cf bc 92 58 9f 3d 6b ee d1 bd bc 36 33 3d
       -0.025387585 0.07780565 -0.10250553 0.04375337
0002a0 5f 0b a0 bd a2 e7 d3 bd bd fb 16 3e 7f cb f3 bd
       -0.07814669 -0.10346915 0.14744468 -0.11904048
0002b0 5c 5f 03 3d 99 70 19 be e3 92 bf bd 0d d8 26 3e
       0.032073364 -0.14984359 -0.09354188 0.16293354
0002c0 3c 17 9d bd d0 81 22 bc 6a d2 c7 3d e3 22 f2 bd
       -0.07670447 -0.009918645 0.0975693 -0.1182306
0002d0 fc 85 29 be 4a 66 a6 3d d6 3b 3e be 8c f0 46 bd
       -0.16555017 0.08124979 -0.18577513 -0.048569247
0002e0 d4 2e 3c 3d be ce e9 3d df d7 1e 3e 7e 17 ed 3d
       0.045943096 0.11416386 0.15512036 0.115767464
0002f0 ad 03 b0 bd d6 87 14 be 76 e8 9a 3d e9 3a 00 be
       -0.08594451 -0.14504942 0.0756387 -0.12522472
000300 40 b3 05 3b 12 e9 96 3d c4 42 97 bd bf 30 01 3e
       0.002040103 0.073686734 -0.073857814 0.12616251
000310 bd a3 19 3e b1 17 39 3e fa 74 98 3d b6 25 f4 3d
       0.15003867 0.18075444 0.074441865 0.11921255
000320 00 53 8b 3b 8d b4 2c 3e 94 1b 8c bd 7c ae 4e bd
       0.0042518377 0.1686575 -0.068411976 -0.05045937
000330 f0 a4 a8 bc e4 88 84 bd 30 39 0f be b9 cc 1d 3e
       -0.02058646 -0.06471422 -0.13986659 0.15410127
000340 74 d9 c6 bd 8b 33 95 bd 36 54 84 3d 56 14 c2 3d
       -0.09709445 -0.07285222 0.064613745 0.09476535
000350 00 7a 88 3b 2f 23 18 3e 17 a1 38 3e b1 55 9e bd
       0.004164934 0.14857171 0.18030201 -0.07731188
000360 15 d7 10 3e e8 2c e5 3c 32 63 22 be b2 25 fc bd
       0.14144547 0.027975515 -0.15858153 -0.12311877
000370 f6 c3 c5 3d 6c 37 19 3d d8 b7 bb 3c d0 42 12 bc
       0.09656517 0.03740637 0.022914812 -0.008927062
000380 c4 5c 44 be 86 89 b8 bd c5 73 ef bd 60 c9 d7 3c
       -0.19176012 -0.090106055 -0.11692003 0.02634114
000390 5c 76 17 be bc 6c 13 bd f0 dc 25 3c 00 a0 41 bd
       -0.14791244 -0.03599237 0.010123476 -0.04727173
0003a0 bb 9d 14 be 1c a7 57 bd fa f0 c8 3d 80 9a 8e ba
       -0.14513294 -0.052649602 0.09811588 -0.0010879785
0003b0 80 25 e5 ba d1 77 31 3e 8e 30 c5 3d 62 dc 9d bd
       -0.0017482489 0.17330863 0.09628402 -0.0770805
0003c0 19 0c 2e 3e a0 71 a8 3c 78 74 25 bd a8 a3 26 bd
       0.16996802 0.020561993 -0.040394276 -0.04068342
0003d0 0e bc 35 be c2 47 bd 3d 60 a9 9e 3c 90 9f 04 3d
       -0.17747518 0.09242202 0.019367874 0.032378733
0003e0 c0 2f 25 3b 47 01 2e be 00 42 42 3b 8c b6 77 3d
       0.0025205463 -0.16992675 0.002964139 0.060476825
0003f0 fb a6 23 3e 43 88 12 3e e0 cb bd bd f2 2b f1 3d
       0.15981667 0.14309792 -0.09267402 0.1177596

lstm.weight_hh_l0 f4 [128, 32]
000000 01 c0 96 bd 72 99 96 bd 00 7d 2d 3e 00 f7 72 3d
       -0.073608406 -0.07353486 0.16942215 0.05931759
000010 98 35 15 3e 1c f2 3d bd cc 8a 81 bd 80 0e 00 3d
       0.14571226 -0.04637347 -0.063253015 0.03126383
000020 c4 f6 aa 3d 6e fc 38 3e e0 97 46 bc 02 43 36 3e
       0.08347848 0.18065044 -0.012121171 0.17798999
000030 0a 83 08 be 00 3f 54 ba 68 94 e0 bd a6 69 30 3e
       -0.13331237 -0.0008096546 -0.10965806 0.17227802
000040 90 6f 42 3d 94 96 2c bd 87 04 2e be 1e 8f 2e 3e
       0.047469676 -0.04213579 -0.16993915 0.17046782
000050 a9 bf f4 bd ab 6c 13 be f0 f4 30 3d 04 fa 36 3d
       -0.11950619 -0.14396922 0.04320234 0.044672027
000060 d5 c9 f8 bd 99 a2 bc bd 00 d6 80 bd 77 47 0f be
       -0.121478714 -0.092107005 -0.06290817 -0.13992105
000070 3e bf 14 3e 59 4e 11 be 30 e5 4f bd 90 ef 3f 3c
       0.14526078 -0.14190044 -0.05075568 0.011714831
000080 8c 23 0d 3e 5c 37 4b bd 39 06 23 be 62 1f 18 3e
       0.13783091 -0.04961334 -0.15920343 0.14855722
000090 f0 e5 c2 3c 14 d5 c4 3d 60 85 ef 3c 0c 7a a7 bd
       0.023791283 0.09610954 0.029238403 -0.081775755
0000a0 04 ff b1 3d e0 cc 01 be c8 c6 5a bd 06 90 25 3e
       0.086912185 -0.1267581 -0.05341223 0.16168222
0000b0 45 04 15 be ac ec 46 bd b0 5b 93 3d 40 18 55 bc
       -0.1455241 -0.04856555 0.071952224 -0.01300627
0000c0 88 ee c9 3d e4 30 f5 3d 20 b9 ae 3d 36 d7 bf bd
       0.09859949 0.11972216 0.085314035 -0.0936722
0000d0 00 9a 78 3d ed 20 b7 bd 5c f7 10 bd 4c 39 be bd
       0.06069374 -0.08941827 -0.03539215 -0.09288272
0000e0 8d 41 90 bd 5e e3 e0 bd ad 93 45 be f8 b9 6d 3d
       -0.07043753 -0.10980867 -0.19294615 0.05803868
0000f0 9f 28 12 be 7c 09 25 3d f8 7a 9d 3d f0 6a 91 3d
       -0.14273308 0.040292248 0.0768947 0.07100475
000100 b8 f3 ac 3d 52 f0 29 3e e0 7b a8 3c a8 82 2d be
       0.08444923 0.16595581 0.02056688 -0.16944373
000110 b8 17 13 bd d0 bf 8f 3d 1e 9c 07 3e 7a 68 07 be
       -0.03591129 0.07019007 0.13243148 -0.13223448
000120 64 23 11 bd 53 64 20 be 90 f8 a6 3c 00 be 92 bc
       -0.03543414 -0.1566327 0.020382196 -0.017912865
000130 e3 a8 ef bd 84 d6 12 be a8 f9 07 be 40 9d b9 bb
       -0.117021345 -0.14339644 -0.1327883 -0.0056644976
000140 1a 40 0e 3e fb cc 05 be a0 74 2a be aa b1 d6 bd
       0.1389164 -0.13066475 -0.16646051 -0.104831055
000150 94 2b f3 bd 3c 97 72 bd 16 13 2b be b0 94 65 3c
       -0.11873546 -0.05922626 -0.167065 0.014012501
000160 07 e1 ab bd 1b d2 0c be 10 11 21 3d c0 0c 14 3e
       -0.0839253 -0.13752024 0.039322913 0.14457989
000170 00 81 cb 3c 37 6f db bd f2 58 1b be d0 d4 dc bd
       0.024841785 -0.10714572 -0.15170649 -0.10782778
000180 6e 1d eb bd 7f 30 ec bd 13 22 18 be 0e 6c 29 be
       -0.11480223 -0.115326874 -0.14856748 -0.16545126
000190 5e fb 37 3e 20 04 f0 bb 8b 5f 1d be ae 53 01 3e
       0.17966983 -0.0073247105 -0.15368478 0.12629578
0001a0 5a 4c 08 be dc 35 3d be b1 1b a1 bd de 42 fd bd
       -0.13310376 -0.18477577 -0.0786661 -0.123662695
0001b0 1c b8 11 be 58 3b 14 bd 0c 19 88 3d db ce 29 be
       -0.14230388 -0.036189407 0.06645402 -0.16582815
0001c0 00 60 db 3a 00 31 f7 bc b8 e9 d3 3d ae 55 10 3e
       0.0016736984 -0.030174732 0.10347313 0.14095184
0001d0 5c 27 b5 bd c0 f5 ff bd 18 57 df 3d 60 a7 a2 3b
       -0.08845398 -0.12498045 0.10905284 0.0049638003
0001e0 c0 b6 52 bc 4c 7b 2f be a4 ea a8 3d a4 cf 1f 3e
       -0.012860954 -0.17136878 0.08247879 0.15606552
0001f0 93 45 d6 bd 92 aa 28 3e 88 33 c6 3c 88 f1 16 bd
       -0.10462489 0.16471317 0.024194494 -0.036851436
000200 96 68 91 bd c2 68 33 3e 80 7a 58 3b a6 25 2c 3e
       -0.07100026 0.1752043 0.0033032 0.16811237
000210 6c aa 13 3e e6 36 1c 3e 98 3c fb 3d 20 61 cc bd
       0.1442048 0.15255317 0.12267417 -0.099794626
000220 8c 7a c9 3d b0 ea 95 bc e7 ef 24 be 70 3d b6 bd
       0.09837827 -0.018300384 -0.1610714 -0.08898437
000230 94 89 8b 3d c0 b3 02 bc 0c 2d 1b be c4 ba 39 3e
       0.0681335 -0.007977426 -0.15153903 0.18137652
000240 f0 22 76 3d c4 85 38 3d 94 28 fa 3d cc 1c c2 3d
       0.060091913 0.045049444 0.12214771 0.09478149
000250 b8 2d 98 bc 50 17 00 3d f2 c8 cc bd f6 1b 40 3e
       -0.018576488 0.031272233 -0.09999265 0.18760666
000260 40 77 fa bd e0 af ee 3d da 43 33 3e 60 8d b9 3c
       -0.122297764 0.11654639 0.17506352 0.02265042
000270 7c 66 2b 3d a0 d4 7a bc c0 3c b4 3d a0 01 ee 3d
       0.041845784 -0.015309483 0.0880065 0.11621404
000280 00 93 c4 3d 24 59 2c 3e d8 7e 75 3d bc e4 4b 3d
       0.095983505 0.1683088 0.05993542 0.049778685
000290 8e 7e e2 bd 2a 79 38 be 26 25 fb bd 04 24 3a be
       -0.11059295 -0.1801497 -0.12262945 -0.18177801
0002a0 20 85 ed 3b 2a 32 07 3e be cc 0c 3e 60 64 01 3c
       0.0072485358 0.1320273 0.13749978 0.007897466
0002b0 a0 0e 38 3c 3f 23 3e be 38 6f 2c 3d 85 03 3c be
       0.011233956 -0.18568133 0.042098254 -0.18360718
0002c0 50 b8 71 3d 6d fc dc bd f4 86 bc 3d 50 5c da bc
       0.059013665 -0.10790334 0.09205428 -0.026655346
0002d0 ac 7f d4 bd 2a 1c 13 3e a9 cd bc bd 04 35 dc bd
       -0.10375914 0.14366212 -0.09218914 -0.107522994
0002e0 28 ef b7 3c 8a ae 2d be e0 e6 39 3d 9a 86 27 3e
       0.022452906 -0.16961113 0.045386195 0.1635994
0002f0 2a ca 14 3e 9e 9c 1d 3e 10 34 14 bd ca ee df bd
       0.14530244 0.15391776 -0.036182463 -0.10934217
000300 51 95 e9 bd b4 8f 0e 3d 1c e5 70 bd 6c 89 57 3d
       -0.11405433 0.034805015 -0.058812246 0.05262129
000310 7c f7 0b 3e 90 d9 2d 3d 24 aa c0 3d 6a b1 01 3e
       0.13668627 0.042443812 0.09407452 0.12665334
000320 16 ec 45 3e 64 90 8b bd 9e 9f 34 3e 48 b8 16 bd
       0.19328341 -0.0681465 0.17639014 -0.036796838
000330 7c 10 2f 3e 10 53 00 bc e0 ac dc 3d 20 78 a2 bc
       0.17096132 -0.007832304 0.10775161 -0.01983267
000340 ae 1e a4 bd 7a 5a 21 be cc fb 33 be fd b8 91 bd
       -0.08013664 -0.1575717 -0.17576522 -0.07115362
000350 7c 53 2f 3e 5c c6 43 be ec 9c 19 3e be b1 e2 bd
       0.1712169 -0.19118637 0.15001267 -0.11069058
000360 64 d3 60 bd 20 30 fb bd 40 39 19 be a0 8c 91 3b
       -0.054889098 -0.122650385 -0.14963245 0.0044418126
000370 56 f7 23 3e 4c 87 18 3e 06 e7 16 3e 13 5b 3e be
       0.1601232 0.14895362 0.14736566 -0.1858943
000380 38 10 fd 3d 92 ee 33 be 58 d3 f9 bc 30 09 cd 3d
       0.12356609 -0.17571476 -0.030496284 0.10011518
000390 70 ba 3d be 80 22 20 3e 34 30 13 bd e9 de 05 be
       -0.18528152 0.1563816 -0.035934642 -0.13073315
0003a0 78 dd 29 bd 06 09 43 3e bc 58 2e 3e a0 12 e5 bc
       -0.041470975 0.19046411 0.17026037 -0.027962983
0003b0 7c ea 1d 3d a8 39 dd 3d 98 77 f5 3c fc de 85 3d
       0.0385537 0.10802013 0.029964253 0.065366715
0003c0 c0 76 53 bc fa ac dd bd b2 c1 15 be c0 61 9a bc
       -0.01290673 -0.10824008 -0.1462467 -0.018845439
0003d0 32 d8 2c 3e f8 a6 e3 bc 08 40 02 3e 54 d6 4c bd
       0.16879347 -0.027789578 0.12719738 -0.050009087
0003e0 b9 83 15 be e0 a7 66 bc 89 20 1f be e6 9e 43 3e
       -0.1460103 -0.01407811 -0.15539755 0.19103584
0003f0 e8 ab a0 3d c2 c7 11 3e ef 5b e0 bd a8 63 98 bd
       0.078452885 0.14236358 -0.10955035 -0.07440883

lstm.bias_ih_l0 f4 [128]
000000 00 00 00 00 00 00 00 00 00 00 00 00 00 00 00 00
       0.0 0.0 0.0 0.0
000010 00 00 00 00 00 00 00 00 00 00 00 00 00 00 00 00
       0.0 0.0 0.0 0.0
000020 00 00 00 00 00 00 00 00 00 00 00 00 00 00 00 00
       0.0 0.0 0.0 0.0
000030 00 00 00 00 00 00 00 00 00 00 00 00 00 00 00 00
       0.0 0.0 0.0 0.0
000040 00 00 00 00 00 00 00 00 00 00 00 00 00 00 00 00
       0.0 0.0 0.0 0.0
000050 00 00 00 00 00 00 00 00 00 00 00 00 00 00 00 00
       0.0 0.0 0.0 0.0
000060 00 00 00 00 00 00 00 00 00 00 00 00 00 00 00 00
       0.0 0.0 0.0 0.0
000070 00 00 00 00 00 00 00 00 00 00 00 00 00 00 00 00
       0.0 0.0 0.0 0.0
000080 00 00 00 00 00 00 00 00 00 00 00 00 00 00 00 00
       0.0 0.0 0.0 0.0
000090 00 00 00 00 00 00 00 00 00 00 00 00 00 00 00 00
       0.0 0.0 0.0 0.0
0000a0 00 00 00 00 00 00 00 00 00 00 00 00 00 00 00 00
       0.0 0.0 0.0 0.0
0000b0 00 00 00 00 00 00 00 00 00 00 00 00 00 00 00 00
       0.0 0.0 0.0 0.0
0000c0 00 00 00 00 00 00 00 00 00 00 00 00 00 00 00 00
       0.0 0.0 0.0 0.0
0000d0 00 00 00 00 00 00 00 00 00 00 00 00 00 00 00 00
       0.0 0.0 0.0 0.0
0000e0 00 00 00 00 00 00 00 00 00 00 00 00 00 00 00 00
       0.0 0.0 0.0 0.0
0000f0 00 00 00 00 00 00 00 00 00 00 00 00 00 00 00 00
       0.0 0.0 0.0 0.0
000100 00 00 00 00 00 00 00 00 00 00 00 00 00 00 00 00
       0.0 0.0 0.0 0.0
000110 00 00 00 00 00 00 00 00 00 00 00 00 00 00 00 00
       0.0 0.0 0.0 0.0
000120 00 00 00 00 00 00 00 00 00 00 00 00 00 00 00 00
       0.0 0.0 0.0 0.0
000130 00 00 00 00 00 00 00 00 00 00 00 00 00 00 00 00
       0.0 0.0 0.0 0.0
000140 00 00 00 00 00 00 00 00 00 00 00 00 00 00 00 00
       0.0 0.0 0.0 0.0
000150 00 00 00 00 00 00 00 00 00 00 00 00 00 00 00 00
       0.0 0.0 0.0 0.0
000160 00 00 00 00 00 00 00 00 00 00 00 00 00 00 00 00
       0.0 0.0 0.0 0.0
000170 00 00 00 00 00 00 00 00 00 00 00 00 00 00 00 00
       0.0 0.0 0.0 0.0
000180 00 00 00 00 00 00 00 00 00 00 00 00 00 00 00 00
       0.0 0.0 0.0 0.0
000190 00 00 00 00 00 00 00 00 00 00 00 00 00 00 00 00
       0.0 0.0 0.0 0.0
0001a0 00 00 00 00 00 00 00 00 00 00 00 00 00 00 00 00
       0.0 0.0 0.0 0.0
0001b0 00 00 00 00 00 00 00 00 00 00 00 00 00 00 00 00
       0.0 0.0 0.0 0.0
0001c0 00 00 00 00 00 00 00 00 00 00 00 00 00 00 00 00
       0.0 0.0 0.0 0.0
0001d0 00 00 00 00 00 00 00 00 00 00 00 00 00 00 00 00
       0.0 0.0 0.0 0.0
0001e0 00 00 00 00 00 00 00 00 00 00 00 00 00 00 00 00
       0.0 0.0 0.0 0.0
0001f0 00 00 00 00 00 00 00 00 00 00 00 00 00 00 00 00
       0.0 0.0 0.0 0.0

lstm.bias_hh_l0 f4 [128]
000000 00 00 00 00 00 00 00 00 00 00 00 00 00 00 00 00
       0.0 0.0 0.0 0.0
000010 00 00 00 00 00 00 00 00 00 00 00 00 00 00 00 00
       0.0 0.0 0.0 0.0
000020 00 00 00 00 00 00 00 00 00 00 00 00 00 00 00 00
       0.0 0.0 0.0 0.0
000030 00 00 00 00 00 00 00 00 00 00 00 00 00 00 00 00
       0.0 0.0 0.0 0.0
000040 00 00 00 00 00 00 00 00 00 00 00 00 00 00 00 00
       0.0 0.0 0.0 0.0
000050 00 00 00 00 00 00 00 00 00 00 00 00 00 00 00 00
       0.0 0.0 0.0 0.0
000060 00 00 00 00 00 00 00 00 00 00 00 00 00 00 00 00
       0.0 0.0 0.0 0.0
000070 00 00 00 00 00 00 00 00 00 00 00 00 00 00 00 00
       0.0 0.0 0.0 0.0
000080 00 00 00 00 00 00 00 00 00 00 00 00 00 00 00 00
       0.0 0.0 0.0 0.0
000090 00 00 00 00 00 00 00 00 00 00 00 00 00 00 00 00
       0.0 0.0 0.0 0.0
0000a0 00 00 00 00 00 00 00 00 00 00 00 00 00 00 00 00
       0.0 0.0 0.0 0.0
0000b0 00 00 00 00 00 00 00 00 00 00 00 00 00 00 00 00
       0.0 0.0 0.0 0.0
0000c0 00 00 00 00 00 00 00 00 00 00 00 00 00 00 00 00
       0.0 0.0 0.0 0.0
0000d0 00 00 00 00 00 00 00 00 00 00 00 00 00 00 00 00
       0.0 0.0 0.0 0.0
0000e0 00 00 00 00 00 00 00 00 00 00 00 00 00 00 00 00
       0.0 0.0 0.0 0.0
0000f0 00 00 00 00 00 00 00 00 00 00 00 00 00 00 00 00
       0.0 0.0 0.0 0.0
000100 00 00 00 00 00 00 00 00 00 00 00 00 00 00 00 00
       0.0 0.0 0.0 0.0
000110 00 00 00 00 00 00 00 00 00 00 00 00 00 00 00 00
       0.0 0.0 0.0 0.0
000120 00 00 00 00 00 00 00 00 00 00 00 00 00 00 00 00
       0.0 0.0 0.0 0.0
000130 00 00 00 00 00 00 00 00 00 00 00 00 00 00 00 00
       0.0 0.0 0.0 0.0
000140 00 00 00 00 00 00 00 00 00 00 00 00 00 00 00 00
       0.0 0.0 0.0 0.0
000150 00 00 00 00 00 00 00 00 00 00 00 00 00 00 00 00
       0.0 0.0 0.0 0.0
000160 00 00 00 00 00 00 00 00 00 00 00 00 00 00 00 00
       0.0 0.0 0.0 0.0
000170 00 00 00 00 00 00 00 00 00 00 00 00 00 00 00 00
       0.0 0.0 0.0 0.0
000180 00 00 00 00 00 00 00 00 00 00 00 00 00 00 00 00
       0.0 0.0 0.0 0.0
000190 00 00 00 00 00 00 00 00 00 00 00 00 00 00 00 00
       0.0 0.0 0.0 0.0
0001a0 00 00 00 00 00 00 00 00 00 00 00 00 00 00 00 00
       0.0 0.0 0.0 0.0
0001b0 00 00 00 00 00 00 00 00 00 00 00 00 00 00 00 00
       0.0 0.0 0.0 0.0
0001c0 00 00 00 00 00 00 00 00 00 00 00 00 00 00 00 00
       0.0 0.0 0.0 0.0
0001d0 00 00 00 00 00 00 00 00 00 00 00 00 00 00 00 00
       0.0 0.0 0.0 0.0
0001e0 00 00 00 00 00 00 00 00 00 00 00 00 00 00 00 00
       0.0 0.0 0.0 0.0
0001f0 00 00 00 00 00 00 00 00 00 00 00 00 00 00 00 00
       0.0 0.0 0.0 0.0

lstm.weight_ih_l1 f4 [128, 32]
000000 b8 5a 2d 3e 60 c3 ab 3d 6a 4e ee bd 6c d9 0e 3e
       0.16929138 0.08386874 -0.1163605 0.13950127
000010 5b 6b 9c bd 7a 1a ae bd 2c 9f 40 bd ec 9f 2f 3d
       -0.07637664 -0.08501144 -0.047026798 0.042877123
000020 78 f0 96 bc a0 ed 24 3c 70 01 1a bc ba 59 38 be
       -0.018425211 0.01006642 -0.009399757 -0.18002978
000030 7e b0 94 bd e5 75 29 be a4 7e 2e 3e 78 1d cf 3d
       -0.07260226 -0.1654888 0.17040497 0.101130426
000040 65 3b 01 be 60 d6 f1 3b 6c f4 57 bd 30 81 83 3d
       -0.12620313 0.007380292 -0.052723333 0.06421125
000050 d4 22 1b 3e aa 7c 0c be 60 d5 5d 3c 58 bb 12 3e
       0.15150005 -0.1371943 0.013539642 0.14329278
000060 bc b6 90 bd 74 f4 d3 3d 78 4d fa bd ff f7 fe bd
       -0.07066104 0.1034936 -0.12221807 -0.12449645
000070 c8 0f b7 3d 00 63 98 3b 26 df 0e be dc 03 96 3d
       0.08938557 0.0046504736 -0.13952312 0.07324955
000080 d8 3f 9c 3c 80 3c 79 3c bc 4e da 3d b8 a3 f8 bd
       0.019073412 0.015212178 0.10659549 -0.12140602
000090 30 6b ef 3c 34 ac 23 3d 18 18 cb 3c 6e de 31 be
       0.029225916 0.039959148 0.024791762 -0.17370006
0000a0 28 cb 33 3e 94 e2 0b be 56 a9 21 3e 42 de c6 bd
       0.17557967 -0.13660651 0.15787253 -0.09710361
0000b0 a9 15 f6 bd 54 fc d4 3d 0a 5e 0a be 3d 67 22 be
       -0.1201585 0.1039969 -0.13512436 -0.15859695
0000c0 f8 d8 a0 bd 4a ac 37 be 10 53 dd 3d 3c d3 65 bd
       -0.078538835 -0.17936817 0.108068585 -0.056109652
0000d0 c0 93 81 bc 80 cb be bc 90 f8 5a 3d 00 68 68 b9
       -0.015817523 -0.023290396 0.053459704 -0.00022163987
0000e0 c8 b7 7d 3d 50 4c 7a 3c da c1 eb bd 74 65 c7 3d
       0.061942846 0.015276983 -0.115115836 0.097361475
0000f0 54 a9 7d bd 94 20 4f bd 22 8a 1b be a0 9b 1b 3e
       -0.061929062 -0.05056818 -0.15189412 0.15196085
000100 b8 0d 9b bc 68 e7 89 bc 48 16 29 bd 68 a7 9f 3d
       -0.01892744 -0.016833976 -0.041281015 0.07795602
000110 d8 5b 0b 3e 79 04 24 be 10 ec 56 bd c4 ba 69 bd
       0.13609254 -0.16017331 -0.05247122 -0.05706288
000120 00 20 17 b9 d0 f2 7e bd a2 f1 84 bd bb 49 2f be
       -0.00014412403 -0.062243283 -0.064914 -0.1711797
000130 e0 1e 9c bc 70 60 79 3c ce f6 8a bd d8 11 9f bd
       -0.019057691 0.015220746 -0.067853555 -0.07767075
000140 f0 94 bf 3d 50 4c c3 3d 98 75 fd 3d 98 0a 53 3d
       0.093545794 0.0953604 0.12375945 0.051523775
000150 1f 7e ff bd 8c c9 14 be 48 fb 5a 3d 08 7a e2 bc
       -0.124752276 -0.14530009 0.053462297 -0.02764608
000160 22 b8 01 3e 6c c2 2b 3e 50 af 43 3c 3a 34 22 be
       0.12667897 0.16773385 0.011943653 -0.15840235
000170 46 6b 9c bd 82 fe 3f be e3 d7 15 be 68 73 ae 3d
       -0.07637648 -0.18749431 -0.14633135 0.08518106
000180 ac 5b 18 be 02 7b 19 be 10 5b e5 3c 36 1a 17 3e
       -0.1487872 -0.1498833 0.027997524 0.14756092
000190 00 69 03 3c 9c 0e ab 3d 19 9e 34 be cc c6 2b 3e
       0.008020639 0.08352396 -0.17638434 0.16775054
0001a0 78 3c 6c 3d 60 06 b4 bc 8a 2d dc bd d4 a4 b7 3d
       0.057674855 -0.021975696 -0.107508734 0.08966985
0001b0 c0 40 f4 bb e0 47 33 bd 36 33 1f 3e 2c 39 03 3d
       -0.007454008 -0.043769717 0.15546879 0.032036945
0001c0 d5 37 96 bd c8 d6 2d bd 44 82 18 bd 80 6b 0b 3e
       -0.07334868 -0.04244116 -0.037233606 0.13615227
0001d0 97 da d4 bd c7 f7 d9 bd 30 84 3f 3d 80 af b9 3b
       -0.10393255 -0.10642963 0.046756923 0.005666673
0001e0 32 a3 0b 3e 20 ea a4 3d 5a 4f 23 3e 40 e5 87 3d
       0.13636473 0.08052468 0.15948239 0.06635523
0001f0 9e 17 10 3e 10 bc ed bc 20 b0 c8 3d 18 b9 97 3c
       0.14071509 -0.02902034 0.09799218 0.018520877
000200 18 9e 80 3d e2 c7 16 be e6 01 1e be de 8a 3f 3e
       0.06280154 -0.14724687 -0.15430412 0.18705317
000210 3c eb 59 3d ca 9d 22 3e 28 98 8c bd 12 5e 30 3e
       0.053202853 0.15880504 -0.06864959 0.17223385
000220 84 31 38 3e db 58 27 be 19 db 13 be 24 90 3d 3d
       0.17987639 -0.1634249 -0.14439048 0.04628004
000230 00 5e 17 bd 70 94 9a 3d f3 ba 07 be 2c 99 d2 3d
       -0.03695488 0.075478435 -0.13254909 0.102831215
000240 f8 38 8c 3d 18 dc 9e 3d 74 44 20 3e 70 4e 28 3c
       0.068468034 0.07756823 0.15651113 0.010272607
000250 bb 5e 1b be 93 20 bc bd 78 1c 6e bd 08 c8 e6 3d
       -0.15172856 -0.091859005 -0.05813262 0.11268622
000260 be ab 88 bd 08 5e 1d be f0 04 c3 3d a1 68 bd bd
       -0.06673382 -0.15367901 0.09522426 -0.09248472
000270 8c 25 63 3d 56 3a 19 3e 94 17 3a bd e4 a9 64 bd
       0.05545573 0.1496366 -0.045432642 -0.055826083
000280 3a 41 1b be 96 55 8c bd e2 b6 42 be 10 0a a0 3d
       -0.151616 -0.06852262 -0.19015077 0.07814419
000290 f8 20 26 3d 4c 20 2f bd 42 50 2b 3e 0c 53 82 3d
       0.040558785 -0.04275541 0.16729835 0.06363496
0002a0 25 5b 1f be 88 03 f0 3d 96 8e 1d be 93 02 36 be
       -0.15562113 0.117194235 -0.15386423 -0.1777442
0002b0 00 4e 12 3c a0 2f 35 be 38 a7 f9 3d 0f c7 25 be
       0.008929729 -0.17693949 0.121900976 -0.16189216
0002c0 24 72 34 be d8 6c 1c be 06 04 16 3e 40 f5 1a 3e
       -0.17621666 -0.15275896 0.14649972 0.15132618
0002d0 60 fb b7 bb e4 71 66 bd f0 a5 23 3e 78 59 8d 3c
       -0.005614683 -0.05626096 0.15981269 0.017254576
0002e0 80 2a 91 bd 04 de 31 3e 56 ae bc bd 0c 51 11 be
       -0.07088184 0.17369848 -0.092129394 -0.14191073
0002f0 22 62 16 be a4 b3 66 bd 64 71 db 3d 00 f8 01 3c
       -0.14685872 -0.056323662 0.10714987 0.007932663
000300 ed ed fe bd aa 14 44 3e e6 68 1e 3e 60 a9 21 bc
       -0.124477245 0.19148508 0.15469703 -0.009867042
000310 30 22 df 3d cc 78 7f bd 7b 16 3c be f8 61 89 bc
       0.108951926 -0.06237106 -0.1836795 -0.016770348
000320 8c a6 3e 3e 42 8e bb bd a4 c2 ec bd 34 dd 16 bd
       0.1861822 -0.09157993 -0.11560562 -0.03683205
000330 ac 27 7b bd c5 71 27 be 60 2f 20 3e a0 24 0e bc
       -0.06131713 -0.16351993 0.15643072 -0.008675724
000340 c0 8d 64 3c c0 cf da bb 04 10 29 3e 8c b3 06 3d
       0.013949811 -0.0066775978 0.16510016 0.032886073
000350 17 34 2b be 5c 6a 49 3d 5f 34 10 be d0 8a ed bc
       -0.1671909 0.049173698 -0.14082478 -0.028996855
000360 2c 7d e8 3d 94 c9 33 3e 1c 0e 09 be 54 a2 19 3e
       0.11352 0.17557365 -0.13384289 0.1500333
000370 24 37 ed 3d e0 00 10 3e c8 17 e2 3d 38 d1 66 3d
       0.11582783 0.14062834 0.11039692 0.05635187
000380 c8 49 f0 3d 52 c0 3f 3e 84 cd 17 be 70 02 4d 3d
       0.11732823 0.18725708 -0.14824492 0.050051153
000390 f6 4f e2 bd 9c 6c 40 be b0 d9 b5 3d 0c 2c 28 be
       -0.110504076 -0.18791431 0.08879411 -0.16423053
0003a0 48 f8 94 3d 40 36 f8 bd 20 4a fe 3c 01 db ac bd
       0.072739184 -0.12119722 0.031041205 -0.08440209
0003b0 30 25 04 be 22 93 03 3e 90 45 55 bd d0 70 1a 3e
       -0.12904811 0.12849095 -0.052068293 0.15082097
0003c0 f0 d8 5a 3c ac a3 22 be ca f9 fc bd 7c 69 32 3e
       0.013357386 -0.15882748 -0.12352331 0.17423052
0003d0 cc fb 01 3d 88 91 0b bd 28 26 e4 3d 5c d4 3f be
       0.031734273 -0.034074336 0.1114009 -0.18733352
0003e0 10 30 0e 3e ba 81 3c be 3c 48 3c 3e c8 29 83 3d
       0.13885522 -0.18408862 0.1838693 0.064044535
0003f0 88 16 f2 3d 99 f6 c9 bd fc 7a 90 3d d8 1f 01 3d
       0.11820704 -0.09861488 0.070547074 0.03152451

lstm.weight_hh_l1 f4 [128, 32]
000000 2a be 38 3e e0 2b a2 bc b0 be 32 bc 38 6d 11 be
       0.18041292 -0.019796312 -0.010909721 -0.1420182
000010 1e 0e 11 3e 68 41 9b 3d 7e d0 1d be 9e fe c5 bd
       0.14165542 0.075808346 -0.15411565 -0.09667705
000020 c0 b3 6b 3d 66 c4 02 be 00 91 84 3d 98 39 bf 3c
       0.05754447 -0.12770233 0.06472969 0.023342893
000030 96 eb 1f 3e 36 a8 15 3e ac 63 11 be 40 8e a4 3b
       0.15617213 0.14614949 -0.14198178 0.0050218403
000040 78 a8 bb 3d b8 1f fd bc d6 66 32 3e c0 e7 1d be
       0.09162992 -0.030898914 0.17422041 -0.15420437
000050 f0 4c e4 3d 44 2d 2d be 98 9d d5 3d a0 51 1b 3c
       0.11147487 -0.16911799 0.10430449 0.00947991
000060 1c 1b 1d 3e 75 9b 17 be 84 a9 72 bd 08 34 41 3e
       0.15342373 -0.14805396 -0.059243694 0.18867505
000070 1c 3f a5 3d a8 d5 c5 3c e9 d2 3d be 02 bc 2d 3e
       0.08068678 0.02414973 -0.18537487 0.1696625
000080 1e cd a8 bd 3f 38 ad bd f8 1b 1a be e0 05 42 be
       -0.08242248 -0.08457994 -0.15049732 -0.18947554
000090 10 e4 2b 3e 20 af bf bd 5d c5 2e be f0 2d 20 bd
       0.16786218 -0.09359574 -0.17067476 -0.03910631
0000a0 4c 43 0f be 78 3c d2 3c e4 21 89 3d e8 31 af 3d
       -0.13990515 0.0256636 0.06695917 0.08554441
0000b0 cc ff c2 3d b0 7d 17 3e b0 26 1b bc 98 fa 87 bd
       0.09521446 0.1479404 -0.009469673 -0.06639594
0000c0 f0 14 5f bd e6 49 f4 bd 6c ff 21 be 74 92 60 bd
       -0.054463327 -0.119281575 -0.15820092 -0.05482717
0000d0 c2 9b 26 3e ca f9 ed bd 3c 70 64 bd 10 28 8e 3c
       0.16270354 -0.11619909 -0.055771098 0.017353088
0000e0 6c 24 8f 3d 14 87 43 3e 98 e2 5a bd 08 67 f7 3d
       0.06989369 0.19094497 -0.053438753 0.120801985
0000f0 c0 b6 e4 bb f8 9f 67 3d 39 6c 02 be 70 5a 26 3c
       -0.0069797933 0.056549042 -0.12736596 0.010153398
000100 e4 16 1b 3e 7e 8c c1 bd 8a ca 13 3e ac 86 fd 3d
       0.15145451 -0.09450625 0.14432731 0.12379202
000110 00 3a a8 ba e0 5f bb bb 2c 22 45 3e 19 50 f4 bd
       -0.0012834668 -0.0057182163 0.19251317 -0.1192934
000120 08 1e 9b 3d ea 09 18 3e 6c 10 1f be 0c dc f9 3d
       0.075740874 0.14847532 -0.15533608 0.12200174
000130 a8 39 3e 3e 10 27 fd 3c f0 40 49 bd dc eb 43 3e
       0.18576682 0.030902416 -0.049134195 0.19132942
000140 c2 b0 1c be 14 5c 44 3d c8 35 ff bc f1 52 0b be
       -0.15301803 0.047939375 -0.031153575 -0.13605858
000150 a8 2a 16 bd b9 3f 41 be 19 a9 df bd f3 0c 2f be
       -0.036661774 -0.18871965 -0.10920925 -0.17094783
000160 48 18 b5 3d 82 94 a8 bd d0 30 a0 3d 00 e4 e6 3d
       0.08842522 -0.082314506 0.0782181 0.11273956
000170 68 f9 3c 3e e8 cd 41 be d1 be 28 be 00 c6 a3 ba
       0.18454516 -0.18926203 -0.1647904 -0.0012494922
000180 a8 9a e4 3d c1 e2 c7 bd 3c 8e 21 be a7 f0 94 bd
       0.11162311 -0.09760047 -0.15776914 -0.07272463
000190 db 7c d8 bd 80 04 92 bd a8 a9 de 3d 04 82 b6 bd
       -0.10570689 -0.071297646 0.10872203 -0.08911517
0001a0 68 12 2d 3e dc 76 fd 3d 3d 03 06 be 46 3b 2d 3e
       0.16901553 0.12376186 -0.13087173 0.16917142
0001b0 26 4a 3d 3e d8 27 04 be 48 cf 92 3d 24 83 84 3d
       0.18485317 -0.12905824 0.07168442 0.064703256
0001c0 2a 8a 12 be 57 6a be bd 03 5c ca bd e8 4f 71 3d
       -0.14310518 -0.092976265 -0.09880831 0.058914095
0001d0 f4 51 38 3e 9f 9e 95 bd 00 6a d7 3a d4 fa 85 3d
       0.18000013 -0.07305645 0.0016434789 0.06541982
0001e0 04 1f bb 3d 6c d5 bd bd 2c 98 c8 3d 48 f7 85 3d
       0.09136775 -0.092692226 0.097946495 0.06541306
0001f0 ec 68 3b bd e0 b1 82 3d 18 06 b8 bc 70 c1 7d bc
       -0.04575436 0.06381583 -0.022463843 -0.015488014
000200 00 65 b2 3c 24 5d 3d bd be c9 2e 3e cd 75 8d bd
       0.021776676 -0.046231404 0.17069146 -0.06907234
000210 13 7f 11 be 00 1b 10 3b 20 26 ac bb 80 d5 fa 3a
       -0.14208631 0.002198875 -0.0052535683 0.0019137114
000220 3c a0 04 be ca 79 21 3e 07 3e 43 be b3 8b a0 bd
       -0.1295175 0.15769115 -0.1906663 -0.078391455
000230 58 5f 20 be c8 b5 79 3d 6c 17 9a 3d 44 30 61 3d
       -0.15661371 0.060964376 0.075239986 0.05497767
000240 cc 72 12 bd ab 62 40 be 04 fe 9e 3d 16 06 0b be
       -0.03575401 -0.18787639 0.077632934 -0.1357654
000250 90 83 1e bc 8e bf 21 3e 90 1c 26 3d 90 9a bd bc
       -0.009674922 0.15795729 0.040554583 -0.02314499
000260 1c 0c 3e 3e e4 27 04 3d 5c 7b 02 3e c0 92 65 bd
       0.18559307 0.032264605 0.1274237 -0.056048155
000270 fc 52 a4 3d e4 79 44 3e 98 44 f3 bc 00 aa 76 bc
       0.080236405 0.19187123 -0.029695794 -0.01505518
000280 d8 68 c8 bc 48 d6 36 be fb e8 c3 bd 94 bb f7 3d
       -0.024464056 -0.1785518 -0.09565922 0.120963246
000290 00 4c 23 bc 1a 6a 0f 3e 20 af 30 3e b4 1d 09 3d
       -0.00996685 0.14005318 0.17254305 0.033475593
0002a0 94 36 3f 3e 0e ab 15 be f5 31 e2 bd cc 7c 14 3d
       0.18673164 -0.14616033 -0.11044685 0.036251828
0002b0 f0 93 53 3c 38 17 eb 3c f0 40 ff 3d 69 18 01 be
       0.012913689 0.028697595 0.12463558 -0.12606968
0002c0 58 bd 9b 3d 48 7e 69 3d e8 a1 26 be 35 fe 31 be
       0.07604474 0.057005197 -0.162727 -0.17382129
0002d0 30 e0 f2 bc c0 57 a2 3d 20 34 d0 3d bc b3 d9 bd
       -0.029647917 0.07926893 0.10166192 -0.10629985
0002e0 60 a1 0a 3d a3 c2 c8 bd 4c 99 1f 3e a0 a4 6e 3d
       0.033845305 -0.09802749 0.15585822 0.058262467
0002f0 d8 65 4a bd 13 b5 03 be 00 93 90 ba f6 92 05 3e
       -0.049413532 -0.12862043 -0.0011030138 0.13044342
000300 60 71 24 3e 00 3a 3f 3d b0 e4 1f bc f0 58 5c bc
       0.16058874 0.046686172 -0.009759113 -0.013448939
000310 29 d0 e0 bd 00 fe 94 3d 21 ed 14 be a0 5d 03 3c
       -0.109772034 0.07275009 -0.14543582 0.008017927
000320 94 ec 8d 3d f8 59 a9 bc a8 67 0d 3d 18 91 ca bd
       0.06929889 -0.020672783 0.034522682 -0.09890956
000330 d8 d2 9c 3d ff 0f 0c be bc 77 b9 3d 16 7b 1d 3e
       0.07657403 -0.13677977 0.09056041 0.15378985
000340 40 01 5d bc d8 49 d0 3c fe ed 21 be 8c 15 11 bd
       -0.013489068 0.025425836 -0.15813443 -0.03542094
000350 e6 48 36 3e 98 e3 f6 3c 30 19 14 3e b4 78 d5 3d
       0.17801246 0.030137822 0.14462733 0.10423413
000360 88 8c 0c 3d 5b 68 05 be 53 61 99 bd b4 9f 48 bd
       0.03431371 -0.1302809 -0.07489266 -0.04898043
000370 bb 29 a7 bd a0 44 ce bb 80 78 18 3e 4c 0d 4a 3d
       -0.08162256 -0.006294802 0.14889717 0.049329087
000380 94 f9 14 3e c0 91 5a bc 25 80 c9 bd 9c a6 03 3d
       0.14548331 -0.013340414 -0.09838895 0.032141313
000390 de 4b 09 3e 05 73 d9 bd 4f 40 38 be 04 5f 29 3e
       0.13407847 -0.10617641 -0.17993282 0.16540152
0003a0 a1 1e 27 be f8 a0 93 3d a0 4e a1 3c 20 13 11 bc
       -0.16320278 0.07208437 0.019690812 -0.008854657
0003b0 b4 e1 2d 3e bc 20 4c bd 66 98 40 be 7d 82 00 be
       0.1698063 -0.049835905 -0.18808135 -0.12549777
0003c0 b7 fd 40 be 88 61 06 bd 40 b5 20 3e 80 d6 b7 3c
       -0.18846785 -0.032807857 0.15694141 0.022441149
0003d0 e0 5b c4 3d 0e 0b 45 be 22 27 f3 bd 92 8f 0e be
       0.09587836 -0.19242498 -0.11872698 -0.13921955
0003e0 30 a4 ec 3c 80 e9 00 be 84 5c b6 3d e2 64 2c be
       0.028886884 -0.12589073 0.08904365 -0.16835359
0003f0 38 78 35 be 41 c8 20 be 76 4e 2e 3e 1c e6 93 3d
       -0.17721641 -0.15701391 0.17022118 0.07221624

lstm.bias_ih_l1 f4 [128]
000000 00 00 00 00 00 00 00 00 00 00 00 00 00 00 00 00
       0.0 0.0 0.0 0.0
000010 00 00 00 00 00 00 00 00 00 00 00 00 00 00 00 00
       0.0 0.0 0.0 0.0
000020 00 00 00 00 00 00 00 00 00 00 00 00 00 00 00 00
       0.0 0.0 0.0 0.0
000030 00 00 00 00 00 00 00 00 00 00 00 00 00 00 00 00
       0.0 0.0 0.0 0.0
000040 00 00 00 00 00 00 00 00 00 00 00 00 00 00 00 00
       0.0 0.0 0.0 0.0
000050 00 00 00 00 00 00 00 00 00 00 00 00 00 00 00 00
       0.0 0.0 0.0 0.0
000060 00 00 00 00 00 00 00 00 00 00 00 00 00 00 00 00
       0.0 0.0 0.0 0.0
000070 00 00 00 00 00 00 00 00 00 00 00 00 00 00 00 00
       0.0 0.0 0.0 0.0
000080 00 00 00 00 00 00 00 00 00 00 00 00 00 00 00 00
       0.0 0.0 0.0 0.0
000090 00 00 00 00 00 00 00 00 00 00 00 00 00 00 00 00
       0.0 0.0 0.0 0.0
0000a0 00 00 00 00 00 00 00 00 00 00 00 00 00 00 00 00
       0.0 0.0 0.0 0.0
0000b0 00 00 00 00 00 00 00 00 00 00 00 00 00 00 00 00
       0.0 0.0 0.0 0.0
0000c0 00 00 00 00 00 00 00 00 00 00 00 00 00 00 00 00
       0.0 0.0 0.0 0.0
0000d0 00 00 00 00 00 00 00 00 00 00 00 00 00 00 00 00
       0.0 0.0 0.0 0.0
0000e0 00 00 00 00 00 00 00 00 00 00 00 00 00 00 00 00
       0.0 0.0 0.0 0.0
0000f0 00 00 00 00 00 00 00 00 00 00 00 00 00 00 00 00
       0.0 0.0 0.0 0.0
000100 00 00 00 00 00 00 00 00 00 00 00 00 00 00 00 00
       0.0 0.0 0.0 0.0
000110 00 00 00 00 00 00 00 00 00 00 00 00 00 00 00 00
       0.0 0.0 0.0 0.0
000120 00 00 00 00 00 00 00 00 00 00 00 00 00 00 00 00
       0.0 0.0 0.0 0.0
000130 00 00 00 00 00 00 00 00 00 00 00 00 00 00 00 00
       0.0 0.0 0.0 0.0
000140 00 00 00 00 00 00 00 00 00 00 00 00 00 00 00 00
       0.0 0.0 0.0 0.0
000150 00 00 00 00 00 00 00 00 00 00 00 00 00 00 00 00
       0.0 0.0 0.0 0.0
000160 00 00 00 00 00 00 00 00 00 00 00 00 00 00 00 00
       0.0 0.0 0.0 0.0
000170 00 00 00 00 00 00 00 00 00 00 00 00 00 00 00 00
       0.0 0.0 0.0 0.0
000180 00 00 00 00 00 00 00 00 00 00 00 00 00 00 00 00
       0.0 0.0 0.0 0.0
000190 00 00 00 00 00 00 00 00 00 00 00 00 00 00 00 00
       0.0 0.0 0.0 0.0
0001a0 00 00 00 00 00 00 00 00 00 00 00 00 00 00 00 00
       0.0 0.0 0.0 0.0
0001b0 00 00 00 00 00 00 00 00 00 00 00 00 00 00 00 00
       0.0 0.0 0.0 0.0
0001c0 00 00 00 00 00 00 00 00 00 00 00 00 00 00 00 00
       0.0 0.0 0.0 0.0
0001d0 00 00 00 00 00 00 00 00 00 00 00 00 00 00 00 00
       0.0 0.0 0.0 0.0
0001e0 00 00 00 00 00 00 00 00 00 00 00 00 00 00 00 00
       0.0 0.0 0.0 0.0
0001f0 00 00 00 00 00 00 00 00 00 00 00 00 00 00 00 00
       0.0 0.0 0.0 0.0

lstm.bias_hh_l1 f4 [128]
000000 00 00 00 00 00 00 00 00 00 00 00 00 00 00 00 00
       0.0 0.0 0.0 0.0
000010 00 00 00 00 00 00 00 00 00 00 00 00 00 00 00 00
       0.0 0.0 0.0 0.0
000020 00 00 00 00 00 00 00 00 00 00 00 00 00 00 00 00
       0.0 0.0 0.0 0.0
000030 00 00 00 00 00 00 00 00 00 00 00 00 00 00 00 00
       0.0 0.0 0.0 0.0
000040 00 00 00 00 00 00 00 00 00 00 00 00 00 00 00 00
       0.0 0.0 0.0 0.0
000050 00 00 00 00 00 00 00 00 00 00 00 00 00 00 00 00
       0.0 0.0 0.0 0.0
000060 00 00 00 00 00 00 00 00 00 00 00 00 00 00 00 00
       0.0 0.0 0.0 0.0
000070 00 00 00 00 00 00 00 00 00 00 00 00 00 00 00 00
       0.0 0.0 0.0 0.0
000080 00 00 00 00 00 00 00 00 00 00 00 00 00 00 00 00
       0.0 0.0 0.0 0.0
000090 00 00 00 00 00 00 00 00 00 00 00 00 00 00 00 00
       0.0 0.0 0.0 0.0
0000a0 00 00 00 00 00 00 00 00 00 00 00 00 00 00 00 00
       0.0 0.0 0.0 0.0
0000b0 00 00 00 00 00 00 00 00 00 00 00 00 00 00 00 00
       0.0 0.0 0.0 0.0
0000c0 00 00 00 00 00 00 00 00 00 00 00 00 00 00 00 00
       0.0 0.0 0.0 0.0
0000d0 00 00 00 00 00 00 00 00 00 00 00 00 00 00 00 00
       0.0 0.0 0.0 0.0
0000e0 00 00 00 00 00 00 00 00 00 00 00 00 00 00 00 00
       0.0 0.0 0.0 0.0
0000f0 00 00 00 00 00 00 00 00 00 00 00 00 00 00 00 00
       0.0 0.0 0.0 0.0
000100 00 00 00 00 00 00 00 00 00 00 00 00 00 00 00 00
       0.0 0.0 0.0 0.0
000110 00 00 00 00 00 00 00 00 00 00 00 00 00 00 00 00
       0.0 0.0 0.0 0.0
000120 00 00 00 00 00 00 00 00 00 00 00 00 00 00 00 00
       0.0 0.0 0.0 0.0
000130 00 00 00 00 00 00 00 00 00 00 00 00 00 00 00 00
       0.0 0.0 0.0 0.0
000140 00 00 00 00 00 00 00 00 00 00 00 00 00 00 00 00
       0.0 0.0 0.0 0.0
000150 00 00 00 00 00 00 00 00 00 00 00 00 00 00 00 00
       0.0 0.0 0.0 0.0
000160 00 00 00 00 00 00 00 00 00 00 00 00 00 00 00 00
       0.0 0.0 0.0 0.0
000170 00 00 00 00 00 00 00 00 00 00 00 00 00 00 00 00
       0.0 0.0 0.0 0.0
000180 00 00 00 00 00 00 00 00 00 00 00 00 00 00 00 00
       0.0 0.0 0.0 0.0
000190 00 00 00 00 00 00 00 00 00 00 00 00 00 00 00 00
       0.0 0.0 0.0 0.0
0001a0 00 00 00 00 00 00 00 00 00 00 00 00 00 00 00 00
       0.0 0.0 0.0 0.0
0001b0 00 00 00 00 00 00 00 00 00 00 00 00 00 00 00 00
       0.0 0.0 0.0 0.0
0001c0 00 00 00 00 00 00 00 00 00 00 00 00 00 00 00 00
       0.0 0.0 0.0 0.0
0001d0 00 00 00 00 00 00 00 00 00 00 00 00 00 00 00 00
       0.0 0.0 0.0 0.0
0001e0 00 00 00 00 00 00 00 00 00 00 00 00 00 00 00 00
       0.0 0.0 0.0 0.0
0001f0 00 00 00 00 00 00 00 00 00 00 00 00 00 00 00 00
       0.0 0.0 0.0 0.0

fc.weight f4 [1, 32]
000000 ec 7e c2 3e e4 61 1d 3e c2 d8 52 be be a0 d2 be
       0.3798746 0.15369374 -0.20590499 -0.41138262
000010 22 13 98 3e 88 9d 45 3d e8 18 32 be f1 2e 3c be
       0.29702097 0.048245937 -0.17392313 -0.18377282
000020 a4 83 48 3e dc 5c 3c be 64 b2 85 be a8 69 5b bd
       0.19581467 -0.18394798 -0.26112664 -0.05356756
000030 18 4e 9d 3e 39 e3 d8 be 4c 26 8e be 3a 6a 41 be
       0.30723643 -0.42360857 -0.27763593 -0.18888178
000040 4a 16 1a be 90 71 b2 3d d8 69 a7 3d 2c 23 58 3e
       -0.15047565 0.087130666 0.08174485 0.21107167
000050 98 05 e9 bd f2 22 84 3e 78 34 18 3d c7 49 90 be
       -0.1137802 0.2580791 0.037159413 -0.28181288
000060 76 b0 8a 3e d8 cd d0 bd 84 bf 47 3e 90 56 17 3e
       0.27087754 -0.101955116 0.19506651 0.14779115
000070 ed 2c d1 be 50 53 b3 3e 46 ed 6c be ae 21 6f be
       -0.40854588 0.350245 -0.23137388 -0.23352692
