trading/models/MSFT_ensemble.pth (torch, 70949 bytes, 9 tensors)

lstm.weight_ih_l0 f4 [128, 30]
00000000: 48b0 bcbc 7365 0c3e 4841 c7bd e525 163e
00000010: e609 9dbd 376c 42be 9dd0 0a3e 78be ef3c
00000020: f6a4 903d cdf8 2dbe 0ecc a83d bab8 39be
00000030: 9c9d 32bd de66 e33d beae 8d3d 7ef7 843d
00000040: 307e cabc 85be 143e 76b9 31be 6b05 2c3e
00000050: 04a7 4bbd acc9 13be 087a e0bc f3f4 41be
00000060: 9e8a 9a3d d7f8 95bd 00d6 0bbc d5eb 2b3e
00000070: 2d7d 173e 70e7 ae3c e078 30bd 9fc9 11be
00000080: 5af7 fe3d fae7 b5bd e091 033c 8a32 24be
00000090: 80bc 80ba 5020 56bc 8eac 8f3d da41 3cbe
000000a0: 2278 b9bd bcb5 173d 2239 ef3d 7798 34be
000000b0: 4902 38be 3cce 393d 1cd8 6fbd 108f 38bd
000000c0: 0024 0339 6046 42bc d3e3 cfbd 7bd4 2d3e
000000d0: ad1c 093e 0a5f aa3d 0c3e 5f3d a19b 393e
000000e0: a8ed 04bd e2b2 813d 7823 d8bc 335a 1c3e
000000f0: 50a6 8c3c 50a9 34bc efb4 41be 9058 aebc
00000100: af37 f8bd fb65 463e 2b01 97bd 1054 3e3c
00000110: e53e 173e d2fc c33d b328 0c3e e37d 3f3e
00000120: 307b 87bc 84d9 2c3d f3d5 1b3e f912 9abd
00000130: 3e31 30be 7137 3bbe c163 273e 5ea0 45be
00000140: 12c9 c9bd 37fa 1a3e 2ef0 cc3d 7d52 143e
00000150: 26fd e0bd de95 d13d 8f6d 34be ca3f 05be
00000160: eba2 273e 761d bd3d 6830 a0bc 4da5 41be
00000170: d5e9 053e 06f9 cf3d 82f3 f33d a6f7 0dbe
00000180: fceb 423d 7e81 8e3d 9555 123e 3631 973d
00000190: d880 d33c 3f6b 2fbe 8dff 07be c0c1 79bc
000001a0: 9cf3 5c3d f490 633d 38da acbc 3a8d e43d
000001b0: 0773 203e 94b0 3abe cb6a 233e 57bf 2fbe
000001c0: e0bb 9e3b 63ae 183e 92be c63d 0fab e4bd
000001d0: 3435 0cbe b004 21be 9a4b e53d e8df b03c
000001e0: 8bc4 25be 7a19 d33d 5c8c 28be 1149 253e
000001f0: f228 a93d 2a32 23be 7506 153e 2d20 473e
00000200: c442 81bd 436e f4bd 0088 a6b9 4cf5 623d
00000210: 7d81 1c3e a027 e93b d629 f73d 7687 ea3d
00000220: 00ea b239 6824 1f3d 0046 57ba 70f0 303d
00000230: 40e1 103d b4c4 0bbe ad63 053e 7822 f4bc
00000240: 2945 393e cbb6 413e e05e eb3b 632b 343e
00000250: 1d23 173e 650c 283e 23ad 053e 7af6 8e3d
00000260: 38cf 0dbd b864 5fbd 4cf4 053d 4069 8e3b
00000270: 9ed4 8dbd 0c93 79bd bb20 47be 2bb3 2f3e
00000280: b856 09bd aebe 34be 8614 d03d b22f b93d
00000290: 30d0 7dbc d304 033e 3884 71bd 0ede a43d
000002a0: a8f1 9fbc 2546 42be 3a93 9d3d b763 a9bd
000002b0: 766c e23d 51b9 353e f20d 823d 7597 e9bd
000002c0: a2eb 99bd 04e1 613d 9583 303e 0910 a2bd
000002d0: f8bb 473d 51fb 033e ae0b e3bd 3e8c 40be
000002e0: 3cea cbbd e4db 6cbd 9e54 cc3d 802b 14be
000002f0: 0801 03be b8e6 16be c010 dabd 9258 e73d
00000300: e393 1d3e 3765 34be 0860 af3c bcc6 0bbe
00000310: c2fb 893d a0cd e4bc c0c7 cdbd a8aa a23c
00000320: 83d4 423e 9440 143d 0e97 a0bd 36a6 9abd
00000330: 7951 c0bd 4390 13be 18ca 063d b4f6 45be
00000340: 2b18 41be 8340 1f3e e480 29be b82e d93c
00000350: 2d2a f9bd fe55 2cbe 90b2 e23c dee5 b73d
00000360: 731f 1cbe 80b2 ab3b 6c26 26be a096 c7bb
00000370: 448e 6ebd a6dd e03d f87c 92bc 2650 b03d
00000380: 393c 003e 1310 043e 400f 7ebb 40be 1dbc
00000390: 449a 623d 0973 0f3e fcc7 333d c8f5 91bd
000003a0: 2cf8 173d 4465 5e3d 78f3 04bd aefe 8cbd
000003b0: 17c3 44be 483c 1bbe 30f0 99bd a4b8 3bbd
000003c0: 66cd f43d 7082 83bd 0638 86bd 8a96 fb3d
000003d0: 80ea 99bb e003 d8bd 1c9d b9bd 0e05 a93d
000003e0: 447f 8abd f46c 753d d0a7 dabd bcc6 06be
000003f0: 40ea f33c 80ca b9ba 6eda dcbd 1f34 39be
-0.023033276 0.13710575 -0.09729248 0.14662893 -0.076679036 -0.18986593 0.13556142 0.029265627
0.07062714 -0.16989441 0.08242045 -0.18136874 -0.04360734 0.11103605 0.06918095 0.06492518
-0.024718374 0.14525802 -0.17355904 0.16798942 -0.049719825 -0.144324 -0.027401939 -0.18941097
0.075459704 -0.07322853 -0.008534908 0.16789182 0.14793845 0.021350592 -0.043084025 -0.14237069
0.12449522 -0.08882137 0.008030385 -0.16034904 -0.0009821802 -0.013069227 0.07015334 -0.18384495
-0.09056117 0.03703855 0.11680819 -0.17636286 -0.17969622 0.045362696 -0.058555707 -0.04505831
0.00012506545 -0.011857599 -0.10150876 0.16975586 0.13389845 0.083189085 0.054502532 0.18125774
-0.03245321 0.06332947 -0.0263841 0.15268783 0.017169148 -0.011026695 -0.18916677 -0.021282464
-0.12119996 0.1937484 -0.0737327 0.011616722 0.14770086 0.09569706 0.136874 0.18700366
-0.016538233 0.042199627 0.15218334 -0.0752315 -0.17206284 -0.18282868 0.16346647 -0.19299456
-0.09852804 0.15134512 0.10006748 0.14484592 -0.10985784 0.10233663 -0.17619918 -0.13012615
0.16370742 0.09234135 -0.019554332 -0.18910713 0.13077481 0.10154919 0.1191168 -0.13864002
0.047588333 0.069582924 0.1429046 0.07382433 0.025818273 -0.17130755 -0.13281079 -0.0152439475
0.05394326 0.05555816 -0.021100149 0.11159749 0.1566888 -0.18231422 0.15958707 -0.17162834
0.004844174 0.14910273 0.09704317 -0.11165439 -0.1369217 -0.15724444 0.111960605 0.021591142
-0.16188256 0.10307594 -0.16459793 0.16141154 0.08259763 -0.15937105 0.14553244 0.19445868
-0.06311563 -0.11935093 -0.00031763315 0.055409715 0.15283771 0.0071153194 0.120685264 0.114516184
0.0003412515 0.03885308 -0.000821203 0.04319805 0.035371065 -0.13649255 0.13026305 -0.029801592
0.18092789 0.18917386 0.007182941 0.17594676 0.14759488 0.16410978 0.13054328 0.069806054
-0.034621447 -0.054539412 0.032703683 0.004346043 -0.06925319 -0.06093125 -0.1944608 0.17158191
-0.033529967 -0.17650864 0.101601645 0.090423 -0.01549153 0.12794809 -0.058963984 0.08050166
-0.01952441 -0.1897207 0.07694097 -0.08270972 0.110558435 0.17746474 0.06350316 -0.11405841
-0.075156465 0.055146232 0.17237695 -0.07913215 0.048763245 0.12888838 -0.11086212 -0.18803498
-0.09956786 -0.05782689 0.09977077 -0.14469719 -0.12793362 -0.1473645 -0.10647726 0.1129619
0.15388446 -0.17616735 0.021408096 -0.1365003 0.06737472 -0.02793008 -0.10047865 0.019856766
0.1902638 0.0361944 -0.078413114 -0.075512335 -0.0939054 -0.144105 0.032907575 -0.19332391
-0.18856876 0.15551953 -0.16553074 0.026511535 -0.121662475 -0.16829678 0.027673036 0.089793906
-0.15246372 0.0052397847 -0.16225594 -0.006090954 -0.058241144 0.10979776 -0.017881855 0.08609037
0.12522973 0.12896757 -0.0038766414 -0.009627879 0.0553229 0.14008726 0.04389189 -0.07126957
0.03710191 0.054295793 -0.032458752 -0.06884514 -0.19215046 -0.15159714 -0.07516515 -0.045830384
0.11953239 -0.06421363 -0.065536544 0.122845724 -0.004697144 -0.10547614 -0.09063169 0.08252917
-0.06762555 0.05991836 -0.10676539 -0.13161749 0.029774785 -0.001417473 -0.1078385 -0.18086289

lstm.weight_hh_l0 f4 [128, 32]
00000000: 16c8 bdbd 08d3 1d3d 60d5 8fbb c042 6f3c
00000010: 08da 27be 7394 25be 321d 2dbe a031 c6bc
00000020: cc08 af3d 1f79 b4bd 804c b0ba 107d 85bd
00000030: 70e2 af3c 1002 413c d870 af3d b266 9cbd
00000040: 5c9c 2c3e 3a90 81bd 59b1 90bd 203b f0bb
00000050: c7e3 33be 9cf9 05be 9030 c63d e51f 2cbe
00000060: cd3a a5bd dcef 233d e8ac 1fbe a03a 53bd
00000070: a7de d9bd 8c48 bbbd 2c73 033d 02aa 2dbe
00000080: b305 a1bd d2e4 b5bd 803d 98bc d0ea 58bd
00000090: 50b0 2ebe d250 013e 802b 543b facd 3d3e
000000a0: 74f9 5c3d 1813 cbbd 98b6 d4bc 6c24 483d
000000b0: 2cef 70bd b1b9 1dbe bfd9 0abe 47ed 44be
000000c0: 484a e73d b8cd c83d 8c21 0e3e de95 263e
000000d0: 697e c5bd b42a 0b3d c0d0 813b c85e 523d
000000e0: 9ca4 bc3d 8873 1f3e f4d7 163e d037 01bd
000000f0: 389b 873d a071 2a3c 9ce0 ee3d 3c85 a5bd
00000100: c0b9 163e 7821 b6bd a849 b03d 5c8d c53d
00000110: c083 733c c603 19be 6039 c93d e77d 11be
00000120: f0ea 3bbe e0db 913c c093 043c 0c89 2ebe
00000130: 78e2 26bd be93 16be a077 cd3b d0ff 08bc
00000140: d019 4abc 9a11 1fbe 4ac2 d5bd 3424 f43d
00000150: 48a3 563d 0464 cd3d 211d 0fbe 20ea a63d
00000160: 501d 183c da57 dfbd 4a41 153e d803 d53c
00000170: 2083 8f3c 78ae 823d 6095 98bb 0c18 1abe
00000180: c844 02be fce1 ff3d 02a0 203e 57c0 1ebe
00000190: 8cb6 b93d a739 2fbe 4a5c 20be aa4d 1b3e
000001a0: 54fc a23d f030 f6bd d8e4 263e 300a 923c
000001b0: 401f 333e 80cb f93c 87e6 9ebd 748c 023e
000001c0: 598a 92bd d8c2 e13c 8263 c6bd 982f 123e
000001d0: 3c27 ab3d cc6b 73bd 379f 3bbe 30ae 7cbd
000001e0: d8a1 e4bc c062 3b3c d019 57bd c81d 8abc
000001f0: c4a7 eb3d e2ee 063e b89a 38bd 51f0 fdbd
00000200: 805a 353d daab 93bd 88f5 363e ae36 31be
00000210: e4b8 1f3e 2a83 3dbe c85a 8b3c 58ed 9d3c
00000220: 2499 01bd e296 8bbd b083 863d 8057 9abd
00000230: 801e 613c ec1e b43d 280d 923c 4e8e 0a3e
00000240: f6cf cebd 6eea 18be 3e2e ebbd 3783 91bd
00000250: 6495 0bbe c0ed a73d c02b 73bc 270f 32be
00000260: 18c3 093d 7025 6c3d 5899 2cbd 1804 1cbe
00000270: c057 5c3c e8d9 c13d cc69 923d e0f5 44be
00000280: 11c9 c6bd 5035 4c3c 70f7 04bc d200 193e
00000290: 56c1 0b3e 246a ca3d c094 bc3b 1620 1c3e
000002a0: 12b3 393e 8f2c 97bd a84d f13d 6e90 28be
000002b0: fa8f 98bd 9c47 563d cee5 07be 1e05 30be
000002c0: 0222 15be 505c ce3d f4fc 65bd 204e e73d
000002d0: 08ed ef3d 8055 b03c dcde 59bd 0a0b 0a3e
000002e0: 1426 993d 707a 143e ec11 05be 88f6 9b3d
000002f0: 2a8c 343e 1c90 4cbd 9201 223e 2017 a63c
00000300: ba55 273e ca51 95bd c0eb 103e e00e ac3d
00000310: 147a 21bd 240f adbd 4829 403e 48e5 ad3d
00000320: d01e 8fbc e8cd 853d 5ce7 f73d 5ca0 9e3d
00000330: 0293 2f3e ab3f c5bd 00a5 e53a e821 363e
00000340: 9821 153d 1863 ba3d a0d6 cf3c 70f1 fdbc
00000350: 86f8 00be 9ca6 f03d 3833 9a3d 2867 2b3e
00000360: 9036 9f3d e4f3 84bd 1816 783d 0dbf d9bd
00000370: 8017 243e 205c 863c 3c44 2e3e ebd5 37be
00000380: 2c3a 9fbd 4177 b3bd c0f3 71bc 1459 973d
00000390: b0aa 46bc 0081 e53a b80c 2b3e 4884 953d
000003a0: b877 f3bc 1467 7ebd b889 2fbe 60f0 e53c
000003b0: 4532 0dbe 5b13 46be 0c60 b2bd 3c7a bb3d
000003c0: bc39 aa3d e4a1 243e e06b 973c 76a1 31be
000003d0: 361c 173e 78ea 3c3e c68f 3d3e 04e4 273e
000003e0: d703 32be 556c c6bd 800b 723d d886 ebbc
000003f0: 2e15 433e 44b8 2b3e b530 eabd f202 f6bd
-0.09266679 0.038531333 -0.00438945 0.014603317 -0.16391766 -0.1616991 -0.16905668 -0.024193585
0.085466 -0.088121645 -0.0013450533 -0.065179944 0.021470279 0.011780277 0.08566445 -0.07636775
0.16856521 -0.06326337 -0.070650764 -0.007331267 -0.17567359 -0.130835 0.09677231 -0.16809042
-0.08067856 0.04002367 -0.15593302 -0.05156958 -0.10638171 -0.091446966 0.03209226 -0.16959384
-0.07862415 -0.08881535 -0.018584013 -0.05295831 -0.17059445 0.12628487 0.003237456 0.18535605
0.053948835 -0.09915751 -0.025965974 0.04886286 -0.058821842 -0.15402867 -0.13559626 -0.19231139
0.11293465 0.09804863 0.13879985 0.16268107 -0.096432514 0.03397627 0.0039616525 0.05135992
0.09211084 0.15571415 0.14730817 -0.031547368 0.066214025 0.010403067 0.116639346 -0.08082053
0.14719296 -0.088931024 0.08607799 0.09646103 0.014862955 -0.14942846 0.098253965 -0.14208184
-0.1835134 0.01780504 0.008091867 -0.17044467 -0.04074332 -0.14704797 0.006270364 -0.008361772
-0.012335256 -0.15534058 -0.10437448 0.11920968 0.05240181 0.10028842 -0.13975956 0.081501245
0.009284332 -0.10905428 0.14575687 0.02600281 0.01751858 0.063809335 -0.0046564788 -0.15048236
-0.1272155 0.12494275 0.15686038 -0.1550306 0.09068021 -0.17111836 -0.15660205 0.15166345
0.07958284 -0.12021053 0.16298234 0.017827123 0.1749239 0.030492544 -0.07758813 0.12748891
-0.07155294 0.027558729 -0.09686948 0.14275968 0.08357093 -0.059428975 -0.18322454 -0.061689556
-0.027909204 0.011437118 -0.05251485 -0.016859904 0.11506608 0.13177064 -0.045069426 -0.12399352
0.04427576 -0.072105125 0.178671 -0.17306015 0.15597874 -0.18507066 0.017011061 0.019278213
-0.031640187 -0.06815888 0.06568086 -0.075362206 0.013740182 0.087949604 0.017828539 0.13530847
-0.10098259 -0.14933178 -0.11483429 -0.07105105 -0.13631207 0.08199644 -0.014841974 -0.17388593
0.03363332 0.05765289 -0.042138427 -0.15235937 0.013448656 0.094653904 0.071490854 -0.19234419
-0.09706319 0.012463883 -0.008115634 0.14941719 0.1364797 0.09883526 0.005755037 0.15246615
0.18134716 -0.07381546 0.1178239 -0.16461346 -0.07449336 0.052314386 -0.13271257 -0.17189452
-0.14563754 0.10076201 -0.056149438 0.11294198 0.11715132 0.021525145 -0.05319105 0.13480774
0.07477966 0.14499831 -0.12995118 0.076153815 0.17631593 -0.04994212 0.15820912 0.020274699
0.16341296 -0.07290991 0.14152431 0.08401275 -0.039423063 -0.084501535 0.18765748 0.084909976
-0.017470747 0.06533414 0.12104675 0.0774543 0.17145923 -0.09631284 0.0017520487 0.17786372
0.03640899 0.09100932 0.025370896 -0.030998915 -0.12594804 0.11750528 0.075293005 0.1673857
0.07774079 -0.06491831 0.060567945 -0.10632143 0.1602459 0.01640135 0.17018217 -0.17952697
-0.07774767 -0.0876298 -0.014767587 0.07390037 -0.012125656 0.0017509758 0.1670407 0.07300621
-0.029720172 -0.06211002 -0.1714238 0.028068721 -0.13788708 -0.19343321 -0.08709726 0.09154174
0.08311793 0.16077381 0.018484056 -0.17346749 0.14756855 0.18448818 0.18511876 0.16395575
-0.17384277 -0.096886314 0.059093 -0.028750822 0.19051048 0.1676951 -0.114350714 -0.120122805

lstm.bias_ih_l0 f4 [128]
00000000: 0000 0000 0000 0000 0000 0000 0000 0000
00000010: 0000 0000 0000 0000 0000 0000 0000 0000
00000020: 0000 0000 0000 0000 0000 0000 0000 0000
00000030: 0000 0000 0000 0000 0000 0000 0000 0000
00000040: 0000 0000 0000 0000 0000 0000 0000 0000
00000050: 0000 0000 0000 0000 0000 0000 0000 0000
00000060: 0000 0000 0000 0000 0000 0000 0000 0000
00000070: 0000 0000 0000 0000 0000 0000 0000 0000
00000080: 0000 0000 0000 0000 0000 0000 0000 0000
00000090: 0000 0000 0000 0000 0000 0000 0000 0000
000000a0: 0000 0000 0000 0000 0000 0000 0000 0000
000000b0: 0000 0000 0000 0000 0000 0000 0000 0000
000000c0: 0000 0000 0000 0000 0000 0000 0000 0000
000000d0: 0000 0000 0000 0000 0000 0000 0000 0000
000000e0: 0000 0000 0000 0000 0000 0000 0000 0000
000000f0: 0000 0000 0000 0000 0000 0000 0000 0000
00000100: 0000 0000 0000 0000 0000 0000 0000 0000
00000110: 0000 0000 0000 0000 0000 0000 0000 0000
00000120: 0000 0000 0000 0000 0000 0000 0000 0000
00000130: 0000 0000 0000 0000 0000 0000 0000 0000
00000140: 0000 0000 0000 0000 0000 0000 0000 0000
00000150: 0000 0000 0000 0000 0000 0000 0000 0000
00000160: 0000 0000 0000 0000 0000 0000 0000 0000
00000170: 0000 0000 0000 0000 0000 0000 0000 0000
00000180: 0000 0000 0000 0000 0000 0000 0000 0000
00000190: 0000 0000 0000 0000 0000 0000 0000 0000
000001a0: 0000 0000 0000 0000 0000 0000 0000 0000
000001b0: 0000 0000 0000 0000 0000 0000 0000 0000
000001c0: 0000 0000 0000 0000 0000 0000 0000 0000
000001d0: 0000 0000 0000 0000 0000 0000 0000 0000
000001e0: 0000 0000 0000 0000 0000 0000 0000 0000
000001f0: 0000 0000 0000 0000 0000 0000 0000 0000
0.0 0.0 0.0 0.0 0.0 0.0 0.0 0.0
0.0 0.0 0.0 0.0 0.0 0.0 0.0 0.0
0.0 0.0 0.0 0.0 0.0 0.0 0.0 0.0
0.0 0.0 0.0 0.0 0.0 0.0 0.0 0.0
0.0 0.0 0.0 0.0 0.0 0.0 0.0 0.0
0.0 0.0 0.0 0.0 0.0 0.0 0.0 0.0
0.0 0.0 0.0 0.0 0.0 0.0 0.0 0.0
0.0 0.0 0.0 0.0 0.0 0.0 0.0 0.0
0.0 0.0 0.0 0.0 0.0 0.0 0.0 0.0
0.0 0.0 0.0 0.0 0.0 0.0 0.0 0.0
0.0 0.0 0.0 0.0 0.0 0.0 0.0 0.0
0.0 0.0 0.0 0.0 0.0 0.0 0.0 0.0
0.0 0.0 0.0 0.0 0.0 0.0 0.0 0.0
0.0 0.0 0.0 0.0 0.0 0.0 0.0 0.0
0.0 0.0 0.0 0.0 0.0 0.0 0.0 0.0
0.0 0.0 0.0 0.0 0.0 0.0 0.0 0.0

lstm.bias_hh_l0 f4 [128]
00000000: 0000 0000 0000 0000 0000 0000 0000 0000
00000010: 0000 0000 0000 0000 0000 0000 0000 0000
00000020: 0000 0000 0000 0000 0000 0000 0000 0000
00000030: 0000 0000 0000 0000 0000 0000 0000 0000
00000040: 0000 0000 0000 0000 0000 0000 0000 0000
00000050: 0000 0000 0000 0000 0000 0000 0000 0000
00000060: 0000 0000 0000 0000 0000 0000 0000 0000
00000070: 0000 0000 0000 0000 0000 0000 0000 0000
00000080: 0000 0000 0000 0000 0000 0000 0000 0000
00000090: 0000 0000 0000 0000 0000 0000 0000 0000
000000a0: 0000 0000 0000 0000 0000 0000 0000 0000
000000b0: 0000 0000 0000 0000 0000 0000 0000 0000
000000c0: 0000 0000 0000 0000 0000 0000 0000 0000
000000d0: 0000 0000 0000 0000 0000 0000 0000 0000
000000e0: 0000 0000 0000 0000 0000 0000 0000 0000
000000f0: 0000 0000 0000 0000 0000 0000 0000 0000
00000100: 0000 0000 0000 0000 0000 0000 0000 0000
00000110: 0000 0000 0000 0000 0000 0000 0000 0000
00000120: 0000 0000 0000 0000 0000 0000 0000 0000
00000130: 0000 0000 0000 0000 0000 0000 0000 0000
00000140: 0000 0000 0000 0000 0000 0000 0000 0000
00000150: 0000 0000 0000 0000 0000 0000 0000 0000
00000160: 0000 0000 0000 0000 0000 0000 0000 0000
00000170: 0000 0000 0000 0000 0000 0000 0000 0000
00000180: 0000 0000 0000 0000 0000 0000 0000 0000
00000190: 0000 0000 0000 0000 0000 0000 0000 0000
000001a0: 0000 0000 0000 0000 0000 0000 0000 0000
000001b0: 0000 0000 0000 0000 0000 0000 0000 0000
000001c0: 0000 0000 0000 0000 0000 0000 0000 0000
000001d0: 0000 0000 0000 0000 0000 0000 0000 0000
000001e0: 0000 0000 0000 0000 0000 0000 0000 0000
000001f0: 0000 0000 0000 0000 0000 0000 0000 0000
0.0 0.0 0.0 0.0 0.0 0.0 0.0 0.0
0.0 0.0 0.0 0.0 0.0 0.0 0.0 0.0
0.0 0.0 0.0 0.0 0.0 0.0 0.0 0.0
0.0 0.0 0.0 0.0 0.0 0.0 0.0 0.0
0.0 0.0 0.0 0.0 0.0 0.0 0.0 0.0
0.0 0.0 0.0 0.0 0.0 0.0 0.0 0.0
0.0 0.0 0.0 0.0 0.0 0.0 0.0 0.0
0.0 0.0 0.0 0.0 0.0 0.0 0.0 0.0
0.0 0.0 0.0 0.0 0.0 0.0 0.0 0.0
0.0 0.0 0.0 0.0 0.0 0.0 0.0 0.0
0.0 0.0 0.0 0.0 0.0 0.0 0.0 0.0
0.0 0.0 0.0 0.0 0.0 0.0 0.0 0.0
0.0 0.0 0.0 0.0 0.0 0.0 0.0 0.0
0.0 0.0 0.0 0.0 0.0 0.0 0.0 0.0
0.0 0.0 0.0 0.0 0.0 0.0 0.0 0.0
0.0 0.0 0.0 0.0 0.0 0.0 0.0 0.0

lstm.weight_ih_l1 f4 [128, 32]
00000000: 1c56 203e 1c5d a63d 4f48 2ebe ca70 2ebe
00000010: 1422 be3d ece8 293e 841e 0fbe 240d ce3d
00000020: 7df5 26be 72c2 0ebe 086c bf3d d444 0d3e
00000030: fb26 c9bd 10b8 ff3c a0ff ad3c 46c3 123e
00000040: 0a43 87bd 2087 a3bd 6939 38be 9015 673d
00000050: 5c7d 613d e30b 3bbe 98a6 3ebd 0e60 8bbd
00000060: 1fad 14be 0e4f 30be c430 f33d fcd4 8d3d
00000070: affe 3ebe 006b 3cbd 91a4 0cbe 94bb da3d
00000080: c038 0ebb d57c b0bd f825 b1bc c612 423e
00000090: a266 073e 54d8 d03d 8432 973d 4969 e3bd
000000a0: e2bf 2f3e 3494 cb3d e4dd 083e b077 e1bc
000000b0: 020d 11be c869 343e 6f5c 9fbd f82e 643d
000000c0: 2811 bf3d bf55 16be c6c8 17be c4cc 69bd
000000d0: b49c 0e3e 0829 253e 1081 a73d 682b 10be
000000e0: 261d 14be 6f4f b8bd 70d7 083c 601f d0bc
000000f0: efd2 02be 20f0 0e3c e056 50bc 4cc6 373e
00000100: a1c5 1bbe cc3f 8d3d d459 5a3d f891 cd3d
00000110: 7094 5cbd 86b4 1d3e d0a8 313d 40e6 353e
00000120: 40cc d4bb 95f2 b8bd c894 ecbc f689 453e
00000130: 200c a23d 45ce b7bd 0062 a43d 7ccf be3d
00000140: 0e9c 3e3e a04d 853d c890 003e e4d9 05be
00000150: 8427 45be 0834 fd3d 10b5 dd3c f4b8 0d3e
00000160: cebb 34be 40ef 63bb 2e93 34be 545f 343d
00000170: eece 0d3e 5cc2 c63d 6d69 a0bd a860 213d
00000180: 6cb0 073d 5216 3b3e 2637 463e 3031 463e
00000190: 5607 423e cc53 183e cc67 87bd e481 ee3d
000001a0: 4033 4abd 403a ffbb 30e8 da3d e6d4 213e
000001b0: 6801 d83c 5c10 e43d 7f95 32be 8085 81ba
000001c0: ef0d 1fbe 47c2 0dbe 2c22 203e 2918 8ebd
000001d0: 4087 5ebc 5488 093e 5673 0d3e 4c7d 60bd
000001e0: 4026 07bc 2aa4 f7bd 6b15 aebd 9afa 34be
000001f0: 80b6 c73a d604 273e acbb e93d 30a1 e83d
00000200: 1992 1abe a7da c0bd 882f fdbc 30a9 e73d
00000210: b0f6 803d dc0c 03be e017 13bc 8e5f 113e
00000220: c07c 443c b472 23be 229a 05be 94ac 9d3d
00000230: d1c6 0abe 2cdb 143e c427 603d fc89 0d3d
00000240: eeb7 323e 8401 2fbe a416 17bd 60e9 a93c
00000250: 4447 febd 52ea 093e a0c8 e83d 20a7 0fbc
00000260: 7a66 0ebe f060 40bc 6c0e 0f3e 502c eb3d
00000270: 7386 d4bd c497 213d 1840 2abe 1dc6 eebd
00000280: af69 27be 9c97 52bd b039 e7bd 884c f5bd
00000290: 3cae 283d 600a 0c3c f608 18be 7e18 133e
000002a0: 1c2d ea3d 4d58 c9bd 08d9 d8bd b8c7 f23d
000002b0: a1de 1abe 20bb 06be c061 0c3b 3c45 af3d
000002c0: bc91 2e3e 5c7f 803d 207a a93b f4dc 07be
000002d0: 1cb4 b9bd d456 dc3d 08d3 223e 1060 f73d
000002e0: 4078 6bbb a752 24be 6de3 98bd 8075 b03a
000002f0: f00d 3d3c cfa3 8ebd 5808 3a3e a0f4 ae3c
00000300: 27a0 97bd 0486 dd3d e0da aa3d 7ac9 33be
00000310: ae70 d2bd c430 12be ea2e 453e a8a0 ce3d
00000320: 8e61 3bbe 8c3e 803d e40a aa3d 9ed2 0e3e
00000330: d4cf de3d 2c17 553d 41f0 2cbe a43f 263d
00000340: 16bd 1a3e 0c51 6dbd 18f0 34be 4bdb 32be
00000350: 409a 8a3c 6bfd abbd 5050 73bc 0892 d4bd
00000360: 6a6f 04be 300c 15be a7c5 9bbd 3652 44be
00000370: 88a0 be3d f424 7cbd db23 e8bd 83f1 d1bd
00000380: 986f adbc ccd9 0dbe 007b 8e3b 682e 6d3d
00000390: b298 eabd 36f1 dabd e679 e5bd 6057 31bd
000003a0: c86e a2bc 6b97 a3bd 10c8 163c 4080 e8bc
000003b0: 0a76 223e 5ac5 3ebe 2c2e 0b3d 1c65 363e
000003c0: a0a4 e03b 3892 373d b8af 7b3d 6071 c03d
000003d0: b4b2 8d3d a8d0 37be 9ade 1fbe 5684 353e
000003e0: 201d 3f3e eab5 cbbd 488e 1bbd 12bb 2bbe
000003f0: 2046 9e3b 3b0e c9bd e460 2d3e 2fc2 34be
0.15657848 0.08123228 -0.17019771 -0.17035213 0.09283844 0.16592759 -0.13976485 0.100611
-0.16304584 -0.13941363 0.09346777 0.13795787 -0.09821888 0.031215698 0.021240056 0.14332303
-0.066045836 -0.079847574 -0.1799065 0.056417048 0.055051193 -0.18266253 -0.046545595 -0.0680543
-0.14519165 -0.17217657 0.11874536 0.06925389 -0.18651842 -0.04600048 -0.13734652 0.10680309
-0.0021701306 -0.0861756 -0.02162455 0.18952474 0.13222745 0.10197511 0.07382682 -0.11104066
0.17163041 0.09940377 0.13365895 -0.027522892 -0.14165118 0.17618477 -0.07781302 0.055708855
0.09329444 -0.14681147 -0.14822683 -0.057080045 0.13926965 0.16128933 0.081789136 -0.14079058
-0.14464244 -0.08999526 0.008352146 -0.025405586 -0.12775777 0.008724242 -0.012716025 0.17946738
-0.15212108 0.06896934 0.053308323 0.10037607 -0.0538525 0.15400895 0.043373883 0.17763615
-0.006494075 -0.09030644 -0.028879538 0.19290909 0.07912469 -0.0897489 0.080265045 0.09316918
0.18614218 0.065089464 0.1255523 -0.130714 -0.19253355 0.1236344 0.027063876 0.13840085
-0.17649767 -0.0034780055 -0.1763427 0.044036224 0.13848469 0.0970504 -0.07832608 0.03939882
0.033127233 0.18270233 0.19356975 0.19354701 0.18948111 0.14875716 -0.066115946 0.116458684
-0.049365282 -0.0077889264 0.106888175 0.1580387 0.026367858 0.11135933 -0.1743984 -0.0009881705
-0.15532659 -0.13843642 0.15638036 -0.06938202 -0.013582051 0.13430911 0.13813528 -0.054806992
-0.008248866 -0.12091859 -0.08500179 -0.17673722 0.0015236884 0.16310439 0.11412749 0.11358869
-0.15094794 -0.094167046 -0.030906454 0.11311567 0.06297052 -0.12797874 -0.00897786 0.14196607
0.011992633 -0.15961725 -0.13047078 0.07698932 -0.13552405 0.14536732 0.054725423 0.03455542
0.17452976 -0.17090422 -0.036886826 0.020741165 -0.124159366 0.13468292 0.11366391 -0.008767873
-0.13906279 -0.011741862 0.13970345 0.11483061 -0.10377207 0.039451376 -0.16626012 -0.11658881
-0.16348909 -0.051414117 -0.112903 -0.11977488 0.041181788 0.0085473955 -0.14847168 0.14364812
0.11434385 -0.09831295 -0.105882704 0.118544996 -0.15123989 -0.1315732 0.0021420568 0.08558127
0.17047781 0.06274292 0.005172029 -0.1326788 -0.09067556 0.10758749 0.15900815 0.12078869
-0.003592983 -0.16047154 -0.07465253 0.0013462752 0.0115389675 -0.06964838 0.18167245 0.02135688
-0.074035935 0.10816577 0.08342528 -0.17557326 -0.10275398 -0.14276415 0.19256178 0.100892365
-0.18298933 0.0626193 0.083028585 0.13947532 0.10879484 0.05202405 -0.16888525 0.040588036
0.15111193 -0.05793862 -0.17669713 -0.17466466 0.016919255 -0.08397945 -0.014850691 -0.10379416
-0.12933126 -0.1455543 -0.076060586 -0.19171986 0.09307963 -0.06155868 -0.11334964 -0.10251143
-0.021171376 -0.13852614 0.004348159 0.057905585 -0.114549056 -0.106905386 -0.11204891 -0.043296218
-0.019828215 -0.07987865 0.009202972 -0.028381467 0.15865341 -0.18629971 0.03397958 0.17812008
0.0068555623 0.04481718 0.061446875 0.093966246 0.069188505 -0.1795069 -0.1561226 0.17726263
0.18663454 -0.09946807 -0.037977487 -0.1677058 0.004830137 -0.09817167 0.16931492 -0.176522

lstm.weight_hh_l1 f4 [128, 32]
00000000: ba5f 2a3e e66e 1a3e ca4f 2d3e 72ca 20be
00000010: 305a 48bd 1830 7d3d d871 7fbd 94a6 fbbd
00000020: b849 02be a02d 86bb 172c f4bd 8868 9a3c
00000030: 3029 4b3d eca4 11be 78a0 123e 84aa 61bd
00000040: 03b8 eebd aa00 113e 242c 483d a66b 85bd
00000050: 283d aabd 4cba 86bd 3c30 36bd 961e 9fbd
00000060: 11b1 b5bd 2849 0c3e e0aa 323c 9ea7 3dbe
00000070: 9416 48bd bc46 86bd b83a 2e3e 7026 b33d
00000080: b065 953d 961b 9cbd da6a 103e 64e2 5dbd
00000090: e0ae bebb 204e 253e 0872 653d 2da2 e2bd
000000a0: dffa fabd 5195 2dbe 8e7c 393e 2e00 333e
000000b0: 20b1 aa3b a02f 253e 925f 2cbe 00f1 4b3a
000000c0: 78ea 503d 2410 06be 7c57 e53d 3c7c 67bd
000000d0: 2765 c0bd 43f2 0dbe 7e0b aebd 7461 45be
000000e0: 903d 8bbd c8d9 943d f0fe 27bd 2c8d d73d
000000f0: 08a3 abbc 90ce 13be c4ff 46bd 56b8 183e
00000100: 826b 41be 10c4 883d c078 103b 992e f2bd
00000110: a430 01be 648e 8abd 31fd dfbd 6226 24be
00000120: 4a35 34be e818 a9bc a2bd 82bd 407e 3b3e
00000130: 7046 8cbd b3d7 39be 37f4 1abe 4ce6 803d
00000140: d076 22bc e321 08be ac4d 2c3d 646b 803d
00000150: a049 f0bb d52c 39be 00c9 b93d a48d 32be
00000160: c438 3d3d 5084 66bd f8ea c9bd 4052 a93d
00000170: 2097 2b3e dace c0bd 7003 98bc 58bd b9bc
00000180: ccca 8e3d 3014 793c b0b9 bb3c 6546 0cbe
00000190: 20c5 653d 18ce 5a3d a826 ecbd 34e1 153e
000001a0: e436 a83d b0de fdbc 3473 9f3d 40a5 103d
000001b0: 1226 2ebe 5c86 0d3e 2484 cc3d 48cb ca3d
000001c0: 7854 f63d 7667 263e 226d e6bd e0d5 32bc
000001d0: f817 01be 50fb 00bc 4cdb 8c3d 68a4 a9bc
000001e0: 64e0 44bd d42d 3cbe 7e87 143e f8bc 5abd
000001f0: c4c9 4abd 1c31 11be 50f3 9fbd 5c64 283d
00000200: 952b d2bd 8a82 cbbd e4f4 1a3e 6cc8 20be
00000210: 6007 c8bc c88f 39be 0056 98bb 7cea ccbd
00000220: d413 5cbd 0756 32be b781 1dbe 3923 aabd
00000230: b2dc 95bd 10ee 38be 60e1 913c 4425 143d
00000240: 2022 da3d 9e50 22be 02ba 0d3e 62a6 1abe
00000250: 2566 e5bd 9738 1dbe 2ff4 abbd b4cc 1a3d
00000260: e87b 27be 044d 7cbd 9806 3f3d 127b 223e
00000270: fc3e 083e acef 983d 0e30 03be 0cb0 3cbd
00000280: f0a8 213e 000c 413b 30ec 81bd 919a 8fbd
00000290: bac8 f7bd c997 16be 742a b7bd 30f3 023d
000002a0: 102f 12bc 91ce d9bd 5116 fabd 5892 103d
000002b0: acaa 80bd d08a bfbc f6b7 3b3e 5005 3d3e
000002c0: c09f 1ebd e0af e63d d4a9 11be c8ad 263e
000002d0: 3099 163e 0475 f5bd 1433 313e 6440 4b3d
000002e0: e950 0dbe 24ef 79bd 5804 01bd 503d 92bc
000002f0: 3e9e aebd 88d3 0ebd d424 143d f8b3 bd3d
00000300: c4cc 0bbd f05f 0cbe 01e6 2cbe 0063 10bb
00000310: 173e cfbd ecc6 38bd b8d3 ce3d c14b 38be
00000320: 6c22 7dbd 40a3 88bb fa54 453e 2cf1 16be
00000330: 17ee 3bbe 546c b33d cc1b aa3d 8477 1f3d
00000340: 7095 cf3c 54c6 24bd f8f7 323e 5680 3b3e
00000350: a04e 2ebd 048a 403e 7f40 95bd 0c52 403e
00000360: 96e5 063e d862 5d3d be47 1b3e b0fa c6bc
00000370: 5088 b93d 8496 73bd 09e1 18be ea60 8ebd
00000380: 2edb 143e f8d0 763d b255 0f3e 08a0 df3d
00000390: 9443 3b3e f972 a0bd 38e4 80bd 7f1d 09be
000003a0: 18e0 18be 74bd b33d 244c 1ebe 2817 cabc
000003b0: 844b eabd 30e0 c23c 4ec4 12be 89bb 9ebd
000003c0: 8486 40bd 2033 b6bb 4d8f 90bd 6814 d53c
000003d0: 88c5 763d 0044 9fb9 5861 b43d a4f6 333d
000003e0: 6e74 03be 806e 1abd f8df c93d 58d0 20bd
000003f0: 5097 833d 1c9b e53d 2827 3b3e 3aa9 433e
0.1663808 0.15081367 0.16924968 -0.15702227 -0.048914135 0.061813444 -0.06236443 -0.12287632
-0.12723434 -0.0040947944 -0.11922472 0.018848673 0.049599826 -0.14223069 0.14319026 -0.055094257
-0.11656191 0.1416041 0.04887022 -0.06514673 -0.08312446 -0.06578502 -0.044479594 -0.07769506
-0.08871663 0.13699782 0.010904998 -0.18520972 -0.048849657 -0.0655646 0.17014587 0.08747566
0.07294786 -0.07622449 0.1410326 -0.05417098 -0.0058191866 0.16143084 0.05601695 -0.11066089
-0.12254881 -0.16951491 0.1811392 0.17480537 0.005209103 0.16131449 -0.16833332 0.0007779747
0.051004857 -0.13092095 0.11198327 -0.056514964 -0.09394293 -0.13861947 -0.08498286 -0.19275457
-0.067988515 0.07268101 -0.04101461 0.10524973 -0.020951763 -0.14434266 -0.04858376 0.14914069
-0.18888667 0.06678021 0.002204463 -0.11825294 -0.12616211 -0.0676544 -0.10936964 -0.16030267
-0.17598453 -0.020641759 -0.06383826 0.1830988 -0.068493724 -0.18148689 -0.15132223 0.06293926
-0.009916022 -0.13294177 0.04206626 0.06270483 -0.0073329955 -0.18083508 0.09071541 -0.17436844
0.046196714 -0.056278527 -0.0985927 0.08267641 0.16756868 -0.09414454 -0.018556327 -0.022673294
0.06972274 0.015202567 0.022915691 -0.13698728 0.056096196 0.053419203 -0.115308106 0.1463669
0.082135946 -0.030989975 0.07785645 0.035313845 -0.1700671 0.13820785 0.09986141 0.09902054
0.1202783 0.16250405 -0.11251284 -0.01091525 -0.126068 -0.007872418 0.06877765 -0.020708278
-0.048065558 -0.18376857 0.14504811 -0.05340287 -0.049508825 -0.1417889 -0.0781008 0.041111335
-0.10262219 -0.09937008 0.15132481 -0.15701455 -0.02441758 -0.18121254 -0.004648924 -0.10005662
-0.053729847 -0.1741563 -0.15381514 -0.083074994 -0.07317485 -0.18059564 0.017807662 0.03616835
0.1065104 -0.15851066 0.13840488 -0.15102533 -0.11201123 -0.15353619 -0.08396184 0.037792876
-0.1635586 -0.061596885 0.046637148 0.1586726 0.13305277 0.07467589 -0.128113 -0.04606633
0.15787101 0.0029456615 -0.06343877 -0.07011903 -0.120988324 -0.14706339 -0.08943644 0.031970203
-0.008922353 -0.106351025 -0.12211288 0.035295814 -0.06282553 -0.02338162 0.18331894 0.18459058
-0.03872657 0.11264014 -0.1422494 0.1627723 0.14706874 -0.119852096 0.17304641 0.049621955
-0.13800396 -0.061019078 -0.031498283 -0.017851502 -0.08526276 -0.0348697 0.036167935 0.09262842
-0.034130827 -0.13708472 -0.16884615 -0.0022031665 -0.101192646 -0.04511158 0.10098976 -0.17997648
-0.061800405 -0.0041698515 0.19270697 -0.14740437 -0.18352543 0.08760896 0.08306083 0.03893234
0.025339812 -0.040228203 0.17477405 0.18310675 -0.04255545 0.18802649 -0.07287692 0.18781298
0.13173518 0.054049343 0.15164086 -0.024289459 0.09059203 -0.059469715 -0.14929594 -0.06952079
0.14536735 0.060257882 0.13997534 0.109191954 0.18287498 -0.07834429 -0.06293529 -0.13390158
-0.14929235 0.0877637 -0.15458733 -0.024669245 -0.11440185 0.023788542 -0.14332697 -0.07750613
-0.047003284 -0.005560294 -0.070585825 0.026010707 0.060246974 -0.00030377507 0.08807629 0.043936387
-0.12837383 -0.037703037 0.09857172 -0.039261192 0.06425345 0.112112254 0.18276656 0.19107524

lstm.bias_ih_l1 f4 [128]
00000000: 0000 0000 0000 0000 0000 0000 0000 0000
00000010: 0000 0000 0000 0000 0000 0000 0000 0000
00000020: 0000 0000 0000 0000 0000 0000 0000 0000
00000030: 0000 0000 0000 0000 0000 0000 0000 0000
00000040: 0000 0000 0000 0000 0000 0000 0000 0000
00000050: 0000 0000 0000 0000 0000 0000 0000 0000
00000060: 0000 0000 0000 0000 0000 0000 0000 0000
00000070: 0000 0000 0000 0000 0000 0000 0000 0000
00000080: 0000 0000 0000 0000 0000 0000 0000 0000
00000090: 0000 0000 0000 0000 0000 0000 0000 0000
000000a0: 0000 0000 0000 0000 0000 0000 0000 0000
000000b0: 0000 0000 0000 0000 0000 0000 0000 0000
000000c0: 0000 0000 0000 0000 0000 0000 0000 0000
000000d0: 0000 0000 0000 0000 0000 0000 0000 0000
000000e0: 0000 0000 0000 0000 0000 0000 0000 0000
000000f0: 0000 0000 0000 0000 0000 0000 0000 0000
00000100: 0000 0000 0000 0000 0000 0000 0000 0000
00000110: 0000 0000 0000 0000 0000 0000 0000 0000
00000120: 0000 0000 0000 0000 0000 0000 0000 0000
00000130: 0000 0000 0000 0000 0000 0000 0000 0000
00000140: 0000 0000 0000 0000 0000 0000 0000 0000
00000150: 0000 0000 0000 0000 0000 0000 0000 0000
00000160: 0000 0000 0000 0000 0000 0000 0000 0000
00000170: 0000 0000 0000 0000 0000 0000 0000 0000
00000180: 0000 0000 0000 0000 0000 0000 0000 0000
00000190: 0000 0000 0000 0000 0000 0000 0000 0000
000001a0: 0000 0000 0000 0000 0000 0000 0000 0000
000001b0: 0000 0000 0000 0000 0000 0000 0000 0000
000001c0: 0000 0000 0000 0000 0000 0000 0000 0000
000001d0: 0000 0000 0000 0000 0000 0000 0000 0000
000001e0: 0000 0000 0000 0000 0000 0000 0000 0000
000001f0: 0000 0000 0000 0000 0000 0000 0000 0000
0.0 0.0 0.0 0.0 0.0 0.0 0.0 0.0
0.0 0.0 0.0 0.0 0.0 0.0 0.0 0.0
0.0 0.0 0.0 0.0 0.0 0.0 0.0 0.0
0.0 0.0 0.0 0.0 0.0 0.0 0.0 0.0
0.0 0.0 0.0 0.0 0.0 0.0 0.0 0.0
0.0 0.0 0.0 0.0 0.0 0.0 0.0 0.0
0.0 0.0 0.0 0.0 0.0 0.0 0.0 0.0
0.0 0.0 0.0 0.0 0.0 0.0 0.0 0.0
0.0 0.0 0.0 0.0 0.0 0.0 0.0 0.0
0.0 0.0 0.0 0.0 0.0 0.0 0.0 0.0
0.0 0.0 0.0 0.0 0.0 0.0 0.0 0.0
0.0 0.0 0.0 0.0 0.0 0.0 0.0 0.0
0.0 0.0 0.0 0.0 0.0 0.0 0.0 0.0
0.0 0.0 0.0 0.0 0.0 0.0 0.0 0.0
0.0 0.0 0.0 0.0 0.0 0.0 0.0 0.0
0.0 0.0 0.0 0.0 0.0 0.0 0.0 0.0

lstm.bias_hh_l1 f4 [128]
00000000: 0000 0000 0000 0000 0000 0000 0000 0000
00000010: 0000 0000 0000 0000 0000 0000 0000 0000
00000020: 0000 0000 0000 0000 0000 0000 0000 0000
00000030: 0000 0000 0000 0000 0000 0000 0000 0000
00000040: 0000 0000 0000 0000 0000 0000 0000 0000
00000050: 0000 0000 0000 0000 0000 0000 0000 0000
00000060: 0000 0000 0000 0000 0000 0000 0000 0000
00000070: 0000 0000 0000 0000 0000 0000 0000 0000
00000080: 0000 0000 0000 0000 0000 0000 0000 0000
00000090: 0000 0000 0000 0000 0000 0000 0000 0000
000000a0: 0000 0000 0000 0000 0000 0000 0000 0000
000000b0: 0000 0000 0000 0000 0000 0000 0000 0000
000000c0: 0000 0000 0000 0000 0000 0000 0000 0000
000000d0: 0000 0000 0000 0000 0000 0000 0000 0000
000000e0: 0000 0000 0000 0000 0000 0000 0000 0000
000000f0: 0000 0000 0000 0000 0000 0000 0000 0000
00000100: 0000 0000 0000 0000 0000 0000 0000 0000
00000110: 0000 0000 0000 0000 0000 0000 0000 0000
00000120: 0000 0000 0000 0000 0000 0000 0000 0000
00000130: 0000 0000 0000 0000 0000 0000 0000 0000
00000140: 0000 0000 0000 0000 0000 0000 0000 0000
00000150: 0000 0000 0000 0000 0000 0000 0000 0000
00000160: 0000 0000 0000 0000 0000 0000 0000 0000
00000170: 0000 0000 0000 0000 0000 0000 0000 0000
00000180: 0000 0000 0000 0000 0000 0000 0000 0000
00000190: 0000 0000 0000 0000 0000 0000 0000 0000
000001a0: 0000 0000 0000 0000 0000 0000 0000 0000
000001b0: 0000 0000 0000 0000 0000 0000 0000 0000
000001c0: 0000 0000 0000 0000 0000 0000 0000 0000
000001d0: 0000 0000 0000 0000 0000 0000 0000 0000
000001e0: 0000 0000 0000 0000 0000 0000 0000 0000
000001f0: 0000 0000 0000 0000 0000 0000 0000 0000
0.0 0.0 0.0 0.0 0.0 0.0 0.0 0.0
0.0 0.0 0.0 0.0 0.0 0.0 0.0 0.0
0.0 0.0 0.0 0.0 0.0 0.0 0.0 0.0
0.0 0.0 0.0 0.0 0.0 0.0 0.0 0.0
0.0 0.0 0.0 0.0 0.0 0.0 0.0 0.0
0.0 0.0 0.0 0.0 0.0 0.0 0.0 0.0
0.0 0.0 0.0 0.0 0.0 0.0 0.0 0.0
0.0 0.0 0.0 0.0 0.0 0.0 0.0 0.0
0.0 0.0 0.0 0.0 0.0 0.0 0.0 0.0
0.0 0.0 0.0 0.0 0.0 0.0 0.0 0.0
0.0 0.0 0.0 0.0 0.0 0.0 0.0 0.0
0.0 0.0 0.0 0.0 0.0 0.0 0.0 0.0
0.0 0.0 0.0 0.0 0.0 0.0 0.0 0.0
0.0 0.0 0.0 0.0 0.0 0.0 0.0 0.0
0.0 0.0 0.0 0.0 0.0 0.0 0.0 0.0
0.0 0.0 0.0 0.0 0.0 0.0 0.0 0.0

fc.weight f4 [1, 32]
00000000: 78fa af3d 10a3 94be 6407 023e dada 81be
00000010: 4066 73bc b113 3abe 846d d0be 00b6 9dbd
00000020: 087f 163e 8072 e13c 8036 d03d b054 81bc
00000030: 971b 4bbe 7a8e a73e 66ce cbbe d4c0 373e
00000040: bfdc b3be b540 74be dc7b 79be d2fe 893e
00000050: 7c83 893e bad3 9dbe 9038 cfbe 203e 8bbc
00000060: 4066 493e 46fe 81be d87d 8c3d 9a0f bcbe
00000070: e0dc b23d 629d 76be fcd5 b93e 9068 203e
0.08592695 -0.29030657 0.12698132 -0.25362283 -0.014855921 -0.18171574 -0.40708554 -0.07700729
0.14696896 0.027520418 0.10166645 -0.015787452 -0.19834743 0.32725888 -0.39805907 0.17944652
-0.35129353 -0.23852809 -0.24363655 0.26952225 0.26858127 -0.30825597 -0.4047284 -0.016997397
0.19667912 -0.25389308 0.0685994 -0.36730653 0.08733535 -0.24083474 0.3629607 0.15664887
