trading/models/MSFT_lstm.pth (torch, 72800 bytes, 13 tensors)

lstm1.weight_ih_l0 f4 [128, 30]
000000 58 b6 37 bd 20 c7 31 be 18 14 8f 3c 54 b5 2b be
       -0.04485163 -0.17361116 0.017465636 -0.1676839
000010 00 49 37 bd d2 d3 80 3d e0 cd 26 be 60 94 c6 3b
       -0.044747353 0.062904015 -0.16289473 0.006060168
000020 90 0f 5b bc 0a d6 8d 3d 8c a9 0e 3d 80 05 36 3b
       -0.01337041 0.0692559 0.03482966 0.0027774274
000030 70 dc 9d 3c 20 96 31 bc 30 44 6d bc 16 6c d3 3d
       0.019270152 -0.010839015 -0.014481589 0.1032335
000040 6b 83 45 be 60 74 96 3b 35 da c3 bd ec b8 34 3d
       -0.19288413 0.0045915097 -0.09563104 0.044121668
000050 c5 6a d5 bd ea a1 c6 3d 26 54 d1 3d 20 ba bb 3b
       -0.10420755 0.096988514 0.10221128 0.005728975
000060 e7 54 ac bd dd e4 fd bd d9 82 29 3e 88 8d 2a be
       -0.08414631 -0.12397168 0.1655382 -0.16655552
000070 ea 2a a1 3d 00 a3 72 3a ff 1a 39 be 83 63 15 3e
       0.07869513 0.0009255856 -0.18076704 0.14588742
000080 27 97 2e be 38 e9 0a bd 85 01 b1 bd 19 93 2a 3e
       -0.17049848 -0.03391382 -0.08642868 0.16657676
000090 3a 44 f2 3d f8 d1 2a bd eb 32 44 3e 48 ab 03 be
       0.118294194 -0.041704148 0.19160049 -0.12858307
0000a0 c7 c3 ba bd 08 83 a9 3c 2e 42 00 be 19 34 a2 bd
       -0.09119373 0.020692363 -0.12525246 -0.07920093
0000b0 7a 19 01 be 00 2b 60 bd c8 b9 07 3d e8 af e3 3c
       -0.12607375 -0.054728508 0.03313616 0.02779384
0000c0 f6 39 40 be 44 4a 78 bd 2e c2 89 bd 76 55 96 3d
       -0.1877211 -0.0606177 -0.0672649 0.07340519
0000d0 ea c7 95 bd c5 07 2a 3e b6 cf 8f 3d c0 95 c0 bd
       -0.07313521 0.16604526 0.070220396 -0.094035625
0000e0 a4 ca 61 3d 3a cd 04 be 40 a3 2d 3b b0 e7 62 bc
       0.055124894 -0.12968913 0.002649501 -0.013849184
0000f0 e5 34 05 3e 68 21 32 bd 4e 13 80 bd f2 eb cd 3d
       0.13008459 -0.04348889 -0.06253682 0.100547686
000100 fe 4a 83 3d 14 06 10 be e7 fe 3b be 20 07 9b bc
       0.06410788 -0.14064819 -0.18358956 -0.018924296
000110 ad e4 37 3e fa 64 da 3d 5a e5 a2 3d 8f 72 32 3e
       0.17958327 0.10663791 0.079539016 0.17426513
000120 ff 88 f7 bd 9a d1 e1 3d 3c b7 7d 3d 66 df 04 be
       -0.12086677 0.110263065 0.061942324 -0.12975845
000130 e8 2e d9 bc 10 b6 d8 bd 3b f3 25 3e 12 a7 9b 3d
       -0.026511624 -0.10581601 0.16206066 0.076002255
000140 a1 b8 29 be d3 47 37 be 0a 8b 81 bd 93 29 39 be
       -0.16574337 -0.17898493 -0.06325348 -0.18082266
000150 b8 0f ed bd 6a 18 89 3d 20 22 65 bc 08 68 c0 3c
       -0.11575264 0.0669411 -0.013985187 0.023487106
000160 df 69 06 3e e8 6d 5d bd 52 74 93 3d 0b 97 bc bd
       0.13126324 -0.054059893 0.07199921 -0.09208497
000170 ea c0 b4 3d c6 48 b7 3d 01 16 08 be 20 66 2d 3c
       0.08825858 0.08949427 -0.13289644 0.0105834305
000180 e0 b6 0d 3d 04 c4 11 be 0c 52 5f bd fa 83 9b 3d
       0.03459823 -0.1423493 -0.054521605 0.07593532
000190 6d 1e 92 bd f0 48 fe bc d3 bb 39 3e f2 ea b1 3d
       -0.071347095 -0.031040639 0.18138056 0.086873904
0001a0 b2 db c2 3d 0e af d4 3d d1 cc 03 3e 98 e3 9f bd
       0.0951456 0.103849515 0.128711 -0.07807082
0001b0 3a 16 fd bd d9 9a 16 be e0 cb 34 bc 4b 09 21 3e
       -0.12357755 -0.14707507 -0.011034936 0.15726201
0001c0 fc 6b f9 bd 7a e8 e9 bd 55 07 ab bd 77 c2 1c 3e
       -0.121787995 -0.114212945 -0.08351008 0.15308557
0001d0 9f be fa bd cf 6d 00 3e 44 9d 8b bd 0c 93 18 bd
       -0.12243389 0.12541889 -0.068171054 -0.03724961
0001e0 58 35 af 3c a1 49 06 3e ce 76 95 3d e0 38 80 bd
       0.021387741 0.13114025 0.07298051 -0.06260848
0001f0 0f 4d 2e 3e 14 c0 13 bd 58 97 5b bd cc 30 38 3d
       0.17021583 -0.03607185 -0.05361113 0.04496841
000200 76 61 f6 bd 48 00 09 bd dc 5e 6d 3d 3f 2a 1e be
       -0.12030308 -0.033447534 0.057951793 -0.15445803
000210 80 a4 30 bb 8b 37 00 be be ad f1 bd 80 6f 06 be
       -0.0026953518 -0.12521188 -0.11800717 -0.13128471
000220 ca 13 ec 3d 1a 58 c5 3d 8e 5a 21 be 2c 48 39 be
       0.11527212 0.09635945 -0.157572 -0.18093938
000230 d2 b6 cc 3d 2b d2 2d be 85 fd ec bd 3a 1b 03 be
       0.09995808 -0.16974704 -0.115717925 -0.12803355
000240 62 87 d4 3d ff af d9 bd f2 6f cd 3d 18 73 10 bd
       0.10377385 -0.10629272 0.100311175 -0.035266012
000250 4c d5 64 3d b7 49 00 3e 47 cb 3c 3e d5 f7 a5 bd
       0.05586748 0.1252812 0.18436919 -0.08103911
000260 40 10 b9 bc 39 2d 3a be ba db 31 be 58 f8 17 bd
       -0.022590756 -0.18181314 -0.17368975 -0.037102073
000270 40 e8 0a bd 5e f0 b1 3d d0 de 7c bd 00 33 22 be
       -0.033912897 0.086884245 -0.061735928 -0.15839767
000280 36 51 d7 3d 5c 6e 6c bd a6 5b b3 bd 20 6c 82 bc
       0.10513537 -0.057722434 -0.08757715 -0.015920699
000290 18 fd ef bc 00 8f cb ba d8 62 87 bd a0 f3 5e bc
       -0.02929549 -0.0015530288 -0.0661065 -0.013607889
0002a0 85 d2 21 3e c2 4b 97 3d f2 cd f5 bd e0 77 a4 bd
       0.15802963 0.073874965 -0.120021716 -0.08030677
0002b0 9f 2d 43 be 26 66 e1 bd b3 9c 2f be 30 73 60 3d
       -0.19060372 -0.110058114 -0.1714962 0.05479735
0002c0 e9 08 13 3e 68 88 11 3d 80 2f 24 3d 7f 5d a4 bd
       0.14358868 0.035530478 0.040084362 -0.080256455
0002d0 b4 d2 09 3d 4b aa 20 be 50 96 f0 bd 0b be 1d be
       0.033648208 -0.15689962 -0.1174742 -0.15404527
0002e0 80 d1 0d bb 1c 8d 6b 3d e5 db 2c 3e 2d f0 35 3e
       -0.0021639764 0.05750762 0.16880758 0.17767401
0002f0 40 2d 0a bc ce 05 92 3d d9 e9 2f 3e 62 1a fa 3d
       -0.00843364 0.071300134 0.1717905 0.12212063
000300 ae e8 cd 3d 78 fa 2a 3d ec ec 44 be ac ca 30 3d
       0.10054146 0.041742772 -0.19231004 0.043162033
000310 d8 02 56 3d 34 6b 3c bd 89 20 45 3e b0 b7 00 be
       0.052248806 -0.046000674 0.19250692 -0.12570071
000320 e1 8f 1b 3e 00 0f 09 bd 4a c5 a8 3d d3 3c 37 be
       0.15191604 -0.03346157 0.08240755 -0.17894296
000330 28 e5 b6 3c 0b 22 c7 bd 20 a1 ca bb a0 c3 55 3c
       0.022326067 -0.0972329 -0.0061837584 0.013047129
000340 5c f0 40 be e5 9f 30 3e 87 3f 2c be 6c 26 cf bd
       -0.1884169 0.17248495 -0.16821109 -0.1011475
000350 c6 4c 11 be e6 5e 26 be ec b7 7d bd 95 ea 21 be
       -0.14189443 -0.16247138 -0.06194298 -0.15812142
000360 07 5b 24 3e 69 8b 28 3e 78 d1 d0 bc 80 eb a2 3b
       0.16050349 0.16459431 -0.025490507 0.0049719214
000370 2d 8e 17 3e 32 36 c0 3d 46 45 92 3d 82 18 34 be
       0.1480033 0.09385337 0.07142119 -0.17587474
000380 66 67 f3 3d e9 18 25 be b4 4b 16 be 01 a7 18 3e
       0.11884956 -0.16122784 -0.14677316 0.14907457
000390 58 c2 f2 3c 67 64 24 3e df d8 a4 bd 35 7f 0b be
       0.029633686 0.16053925 -0.080491774 -0.13622744
0003a0 8c 16 20 be f4 5a 44 bd e9 c8 39 3e cb a0 96 bd
       -0.15633601 -0.047938302 0.18143047 -0.073548876
0003b0 05 a1 e6 bd 3c 68 3e bd 9a e7 84 3d a1 fb 12 be
       -0.11261181 -0.046486124 0.06489487 -0.14353801
0003c0 e2 d0 be 3d f6 b7 2c be b6 dd ba 3d 7a 1d c5 bd
       0.09317185 -0.1686705 0.09124319 -0.09624763
0003d0 47 6d 1f 3e 88 dd f9 bd ab e1 20 3e cc dd 04 be
       0.1556903 -0.12200457 0.15711085 -0.12975234
0003e0 17 e6 3e 3e 06 d8 dc 3d ae d4 d7 3d e3 86 47 be
       0.1864246 0.10783391 0.10538612 -0.19485049
0003f0 80 00 11 bd 02 50 83 3d 80 0e 4b 3d a0 d8 0d 3c
       -0.035400867 0.06411745 0.049574375 0.008657604

lstm1.weight_hh_l0 f4 [128, 32]
000000 b0 50 20 be 60 49 e9 3b c8 79 19 be c4 41 20 3e
       -0.1565578 0.0071193427 -0.14987862 0.15650088
000010 6b 68 3f be 35 35 1c be 70 88 3c be 50 74 72 3d
       -0.18692176 -0.15254672 -0.18411422 0.059192955
000020 71 ba 0e be b8 0f 29 be 1c 1e a6 bd 9c f6 0a bd
       -0.13938309 -0.16509902 -0.08111212 -0.03392659
000030 36 1f 31 3e 88 c9 22 3e 7e e2 2c 3e 1d 31 9e bd
       0.17297062 0.1589719 0.16883275 -0.07724211
000040 30 f6 70 bd 26 92 3d be 98 91 9c 3c 9c 1b 01 be
       -0.058828533 -0.18512782 0.019112393 -0.12608188
000050 0c c5 0e bd a0 25 93 3d a8 f9 ff bc 40 58 57 bc
       -0.034855887 0.07184911 -0.031246975 -0.013143599
000060 1a 21 34 3e 40 27 16 be 48 b6 dd 3d d4 2c 61 bd
       0.17590752 -0.1466341 0.10825783 -0.054974392
000070 00 9a 06 3b 5a 25 84 bd 6b e2 b1 bd c2 d5 8e bd
       0.0020538568 -0.06452437 -0.08685764 -0.06974365
000080 ae 0d 39 be bc ce 25 3e a8 18 8b bc e4 10 ef 3d
       -0.18071625 0.16192144 -0.01697953 0.116731435
000090 31 b4 f2 bd 7c a1 0d bd a0 69 65 bc 64 48 3c bd
       -0.11850775 -0.03457783 -0.014002234 -0.045967475
0000a0 5e bd 3c be ce d1 16 3e 14 ae 7c bd a8 53 0d be
       -0.18431613 0.14728472 -0.06168945 -0.13801444
0000b0 6d 55 1f be 88 29 2a be 26 51 19 be 28 49 8c 3d
       -0.15559931 -0.16617405 -0.14972362 0.06849891
0000c0 50 31 a8 3d 4e ae 35 3e 54 f2 33 be e0 12 bf bc
       0.082125306 0.17742273 -0.1757291 -0.02332443
0000d0 e4 fe bf 3d 98 69 cf 3c e6 30 04 be c4 41 0b bd
       0.093747884 0.025318906 -0.12909278 -0.033998266
0000e0 fe 8a 1a be 2e 35 16 3e 40 59 eb 3c 18 0f f9 3d
       -0.15092084 0.14668724 0.028729081 0.12161082
0000f0 04 46 9f 3d e2 69 3f 3e e6 00 10 3e f9 b3 8d bd
       0.07777026 0.18692735 0.14062843 -0.06919093
000100 b7 55 45 be c8 ae dd bc 48 f1 0d 3d 3d 5e 25 be
       -0.19270979 -0.027060881 0.03465393 -0.1614923
000110 6c fb ea 3d 71 b9 04 be 24 c7 8e 3d 27 5c 0d be
       0.11473736 -0.12961365 0.06971577 -0.13804685
000120 f0 72 a2 bc d6 f9 27 3e e0 3d 81 bc 01 42 dc bd
       -0.019830197 0.16403899 -0.015776575 -0.10754777
000130 7c 5f db 3d 9c f9 33 bd ae 59 eb bd 00 55 c2 3a
       0.107115716 -0.043939218 -0.114917144 0.0014826357
000140 c0 39 a3 bb 9c b0 51 bd f0 b5 fd bc 68 54 c7 3d
       -0.0049812496 -0.05119382 -0.030970544 0.09732896
000150 40 75 37 3d c8 47 0c 3d 88 41 97 bd 07 e5 c7 bd
       0.044789553 0.034248143 -0.07385546 -0.097604804
000160 b2 b5 32 3e 38 d0 0f 3e 40 a6 0f 3b c0 ad 8a bd
       0.17452124 0.14044273 0.002191916 -0.067714214
000170 90 1b 39 be c3 a8 b4 bd d8 02 e4 3c a9 b7 3e be
       -0.1807692 -0.08821251 0.027833387 -0.18624748
000180 6a e9 18 3e 52 0d e2 bd b0 2a c9 3d 1c f7 46 3d
       0.1493279 -0.11037697 0.09822595 0.048575506
000190 59 eb d3 bd ad 3a 31 be 40 4c ac 3b 24 c0 cf 3d
       -0.103476234 -0.1730754 0.005258113 0.1014407
0001a0 a4 bf 8b 3d 2c 59 08 3d 98 03 25 bd 40 51 d3 3c
       0.06823662 0.033288166 -0.04028663 0.025795579
0001b0 e8 76 58 bd 1b f3 02 be 40 d6 45 bd 08 5a d5 3d
       -0.052847773 -0.1278805 -0.048300028 0.10417563
0001c0 fe f4 d8 bd 80 61 6d bc d0 43 77 3d dc ed 0a be
       -0.105936036 -0.014488578 0.060367405 -0.13567299
0001d0 cc fa 61 3d 06 86 d6 bd 00 af e2 3d 72 1e 9a bd
       0.05517082 -0.10474782 0.11068535 -0.07525338
0001e0 c3 a0 44 be 1c af fa 3d 28 eb 1a bd e0 4d ef bc
       -0.1920195 0.12240431 -0.03782192 -0.029211938
0001f0 60 f1 ac bb 38 b7 d5 bc f0 31 c7 3c 74 c2 f0 3d
       -0.0052777976 -0.026088342 0.024315804 0.11755839
000200 1a 05 03 3e 18 4a 5b bd 5f 43 cb bd d4 87 d2 3d
       0.12794915 -0.05353746 -0.099249594 0.102798134
000210 d4 43 f7 3d 62 c0 1b 3e 58 a7 ed bc 90 49 33 bd
       0.12073484 0.15210107 -0.02901046 -0.043771327
000220 d8 1a 09 3e 48 64 38 bd 6f 46 3c be 9c c8 79 bd
       0.13389146 -0.04501751 -0.18386243 -0.06098233
000230 33 10 fe bd 28 bf 9c 3c 94 b8 09 3e ce 05 c0 bd
       -0.124054335 0.01913412 0.13449317 -0.09376107
000240 1c 96 ff 3d 24 45 82 3d 8c ed a4 3d 60 9f b5 bb
       0.12479803 0.06360844 0.08053121 -0.0055426806
000250 28 ed 9a 3d e8 b1 d1 3d 8e 57 03 be 50 9d 37 3d
       0.07564765 0.10239011 -0.12826368 0.04482776
000260 d0 c3 8a 3c f0 02 b5 bc 70 83 55 3d b0 1d f8 3d
       0.016939074 -0.022096127 0.0521273 0.121150374
000270 b0 c6 3f be e4 b9 a5 3d 00 c2 fd bb 71 8b fe bd
       -0.18728137 0.080920964 -0.007744074 -0.1242894
000280 88 aa d9 3d a8 4d 40 3e be 0d 00 be 0e 31 35 3e
       0.106282294 0.18779624 -0.12505242 0.17694494
000290 28 02 07 3e 24 11 04 3e ac f9 98 3d e8 9c 7f 3d
       0.13184416 0.12897164 0.07469496 0.062405497
0002a0 32 3a 45 3e 6c 56 3f 3d 90 07 01 be 3c 05 b1 bd
       0.19260481 0.046713278 -0.12600541 -0.086435765
0002b0 fc 34 44 3e a4 0c 89 bd a8 60 d5 bc dc d8 db 3d
       0.19160837 -0.06691864 -0.026047066 0.10734722
0002c0 08 b1 e5 3d 40 25 00 3b 8e a4 09 be 30 9e 17 3d
       0.11215407 0.0019553453 -0.13441679 0.037016094
0002d0 00 4e b5 ba 10 c9 88 bc f2 1c ce bd 6c 51 d0 3d
       -0.001383245 -0.016697437 -0.10064115 0.1017178
0002e0 80 5d c9 3d 8c 44 37 be 28 8c 3b 3e 84 ce aa bd
       0.09832287 -0.17897242 0.18315184 -0.08340171
0002f0 20 d9 dc 3d 1a bd 17 3e 00 cb f7 3d 3e 7f 1c 3e
       0.10783601 0.1481823 0.12099266 0.15282914
000300 04 cd eb 3d d4 7b b9 3d 5f dd ba bd 1c 7e 48 bd
       0.11513713 0.090568215 -0.091242544 -0.048948392
000310 b2 a9 e3 bd f4 e6 0f be 8e 04 1a 3e d8 fe 83 3d
       -0.11116351 -0.14052945 0.150408 0.06445092
000320 c0 23 90 3c 30 60 dd 3d 34 b4 db bd 39 e6 14 be
       0.017595172 0.10809362 -0.107277304 -0.14540948
000330 1c 92 3d be e0 47 13 3c dc bb 2c 3d 68 df a4 3d
       -0.18512768 0.008989304 0.042171344 0.08050424
000340 36 7b 29 be d6 02 31 3e 50 87 d9 3d f0 93 2f 3c
       -0.16550907 0.17286238 0.10621512 0.010716423
000350 f5 89 c5 bd aa 23 0f be 70 65 23 bd 48 7d 80 3d
       -0.09645454 -0.13978449 -0.03989166 0.062738955
000360 60 e6 85 bc 60 e0 36 3d e0 d0 0f 3c 9c dd ec 3d
       -0.016345203 0.044647574 0.008777827 0.11565706
000370 10 5c 0d be 44 87 0f 3e 30 c1 b5 3c 58 44 34 3e
       -0.1380465 0.14016443 0.022186846 0.17604196
000380 2a 34 01 3e 6c ca 06 bd 80 9b 37 bd b0 41 e2 3d
       0.12617555 -0.03290789 -0.04482603 0.11047685
000390 c6 6f 1a be 21 9c e0 bd 76 43 ac bd 78 d8 42 3d
       -0.150817 -0.10967279 -0.08411305 0.047569722
0003a0 a0 f3 3a 3d d8 ae a4 3c 11 e3 cc bd 4a a0 31 3e
       0.045642495 0.020102903 -0.10004247 0.17346302
0003b0 48 b5 34 3e 0a df 22 be ac 9e 7d bd 2c b6 20 be
       0.17647278 -0.15905395 -0.0619189 -0.15694493
0003c0 c8 22 26 be 71 31 06 be b7 d7 2d be 65 d9 1e be
       -0.16224205 -0.13104798 -0.1697682 -0.15512617
0003d0 e4 74 1b be 2c 25 02 bd 6a 78 07 be 78 25 2b bd
       -0.15181309 -0.03177373 -0.13229528 -0.04178378
0003e0 b0 98 e2 3d 57 bc 1c be d4 29 5a 3d e6 c0 0c 3e
       0.11064279 -0.15306221 0.053262547 0.1374546
0003f0 59 99 d8 bd d7 9f ce bd ac 8f a4 3d 89 d5 ef bd
       -0.10576124 -0.10089081 0.08035216 -0.117106505

lstm1.bias_ih_l0 f4 [128]
000000 00 00 00 00 00 00 00 00 00 00 00 00 00 00 00 00
       0.0 0.0 0.0 0.0
000010 00 00 00 00 00 00 00 00 00 00 00 00 00 00 00 00
       0.0 0.0 0.0 0.0
000020 00 00 00 00 00 00 00 00 00 00 00 00 00 00 00 00
       0.0 0.0 0.0 0.0
000030 00 00 00 00 00 00 00 00 00 00 00 00 00 00 00 00
       0.0 0.0 0.0 0.0
000040 00 00 00 00 00 00 00 00 00 00 00 00 00 00 00 00
       0.0 0.0 0.0 0.0
000050 00 00 00 00 00 00 00 00 00 00 00 00 00 00 00 00
       0.0 0.0 0.0 0.0
000060 00 00 00 00 00 00 00 00 00 00 00 00 00 00 00 00
       0.0 0.0 0.0 0.0
000070 00 00 00 00 00 00 00 00 00 00 00 00 00 00 00 00
       0.0 0.0 0.0 0.0
000080 00 00 00 00 00 00 00 00 00 00 00 00 00 00 00 00
       0.0 0.0 0.0 0.0
000090 00 00 00 00 00 00 00 00 00 00 00 00 00 00 00 00
       0.0 0.0 0.0 0.0
0000a0 00 00 00 00 00 00 00 00 00 00 00 00 00 00 00 00
       0.0 0.0 0.0 0.0
0000b0 00 00 00 00 00 00 00 00 00 00 00 00 00 00 00 00
       0.0 0.0 0.0 0.0
0000c0 00 00 00 00 00 00 00 00 00 00 00 00 00 00 00 00
       0.0 0.0 0.0 0.0
0000d0 00 00 00 00 00 00 00 00 00 00 00 00 00 00 00 00
       0.0 0.0 0.0 0.0
0000e0 00 00 00 00 00 00 00 00 00 00 00 00 00 00 00 00
       0.0 0.0 0.0 0.0
0000f0 00 00 00 00 00 00 00 00 00 00 00 00 00 00 00 00
       0.0 0.0 0.0 0.0
000100 00 00 00 00 00 00 00 00 00 00 00 00 00 00 00 00
       0.0 0.0 0.0 0.0
000110 00 00 00 00 00 00 00 00 00 00 00 00 00 00 00 00
       0.0 0.0 0.0 0.0
000120 00 00 00 00 00 00 00 00 00 00 00 00 00 00 00 00
       0.0 0.0 0.0 0.0
000130 00 00 00 00 00 00 00 00 00 00 00 00 00 00 00 00
       0.0 0.0 0.0 0.0
000140 00 00 00 00 00 00 00 00 00 00 00 00 00 00 00 00
       0.0 0.0 0.0 0.0
000150 00 00 00 00 00 00 00 00 00 00 00 00 00 00 00 00
       0.0 0.0 0.0 0.0
000160 00 00 00 00 00 00 00 00 00 00 00 00 00 00 00 00
       0.0 0.0 0.0 0.0
000170 00 00 00 00 00 00 00 00 00 00 00 00 00 00 00 00
       0.0 0.0 0.0 0.0
000180 00 00 00 00 00 00 00 00 00 00 00 00 00 00 00 00
       0.0 0.0 0.0 0.0
000190 00 00 00 00 00 00 00 00 00 00 00 00 00 00 00 00
       0.0 0.0 0.0 0.0
0001a0 00 00 00 00 00 00 00 00 00 00 00 00 00 00 00 00
       0.0 0.0 0.0 0.0
0001b0 00 00 00 00 00 00 00 00 00 00 00 00 00 00 00 00
       0.0 0.0 0.0 0.0
0001c0 00 00 00 00 00 00 00 00 00 00 00 00 00 00 00 00
       0.0 0.0 0.0 0.0
0001d0 00 00 00 00 00 00 00 00 00 00 00 00 00 00 00 00
       0.0 0.0 0.0 0.0
0001e0 00 00 00 00 00 00 00 00 00 00 00 00 00 00 00 00
       0.0 0.0 0.0 0.0
0001f0 00 00 00 00 00 00 00 00 00 00 00 00 00 00 00 00
       0.0 0.0 0.0 0.0

lstm1.bias_hh_l0 f4 [128]
000000 00 00 00 00 00 00 00 00 00 00 00 00 00 00 00 00
       0.0 0.0 0.0 0.0
000010 00 00 00 00 00 00 00 00 00 00 00 00 00 00 00 00
       0.0 0.0 0.0 0.0
000020 00 00 00 00 00 00 00 00 00 00 00 00 00 00 00 00
       0.0 0.0 0.0 0.0
000030 00 00 00 00 00 00 00 00 00 00 00 00 00 00 00 00
       0.0 0.0 0.0 0.0
000040 00 00 00 00 00 00 00 00 00 00 00 00 00 00 00 00
       0.0 0.0 0.0 0.0
000050 00 00 00 00 00 00 00 00 00 00 00 00 00 00 00 00
       0.0 0.0 0.0 0.0
000060 00 00 00 00 00 00 00 00 00 00 00 00 00 00 00 00
       0.0 0.0 0.0 0.0
000070 00 00 00 00 00 00 00 00 00 00 00 00 00 00 00 00
       0.0 0.0 0.0 0.0
000080 00 00 00 00 00 00 00 00 00 00 00 00 00 00 00 00
       0.0 0.0 0.0 0.0
000090 00 00 00 00 00 00 00 00 00 00 00 00 00 00 00 00
       0.0 0.0 0.0 0.0
0000a0 00 00 00 00 00 00 00 00 00 00 00 00 00 00 00 00
       0.0 0.0 0.0 0.0
0000b0 00 00 00 00 00 00 00 00 00 00 00 00 00 00 00 00
       0.0 0.0 0.0 0.0
0000c0 00 00 00 00 00 00 00 00 00 00 00 00 00 00 00 00
       0.0 0.0 0.0 0.0
0000d0 00 00 00 00 00 00 00 00 00 00 00 00 00 00 00 00
       0.0 0.0 0.0 0.0
0000e0 00 00 00 00 00 00 00 00 00 00 00 00 00 00 00 00
       0.0 0.0 0.0 0.0
0000f0 00 00 00 00 00 00 00 00 00 00 00 00 00 00 00 00
       0.0 0.0 0.0 0.0
000100 00 00 00 00 00 00 00 00 00 00 00 00 00 00 00 00
       0.0 0.0 0.0 0.0
000110 00 00 00 00 00 00 00 00 00 00 00 00 00 00 00 00
       0.0 0.0 0.0 0.0
000120 00 00 00 00 00 00 00 00 00 00 00 00 00 00 00 00
       0.0 0.0 0.0 0.0
000130 00 00 00 00 00 00 00 00 00 00 00 00 00 00 00 00
       0.0 0.0 0.0 0.0
000140 00 00 00 00 00 00 00 00 00 00 00 00 00 00 00 00
       0.0 0.0 0.0 0.0
000150 00 00 00 00 00 00 00 00 00 00 00 00 00 00 00 00
       0.0 0.0 0.0 0.0
000160 00 00 00 00 00 00 00 00 00 00 00 00 00 00 00 00
       0.0 0.0 0.0 0.0
000170 00 00 00 00 00 00 00 00 00 00 00 00 00 00 00 00
       0.0 0.0 0.0 0.0
000180 00 00 00 00 00 00 00 00 00 00 00 00 00 00 00 00
       0.0 0.0 0.0 0.0
000190 00 00 00 00 00 00 00 00 00 00 00 00 00 00 00 00
       0.0 0.0 0.0 0.0
0001a0 00 00 00 00 00 00 00 00 00 00 00 00 00 00 00 00
       0.0 0.0 0.0 0.0
0001b0 00 00 00 00 00 00 00 00 00 00 00 00 00 00 00 00
       0.0 0.0 0.0 0.0
0001c0 00 00 00 00 00 00 00 00 00 00 00 00 00 00 00 00
       0.0 0.0 0.0 0.0
0001d0 00 00 00 00 00 00 00 00 00 00 00 00 00 00 00 00
       0.0 0.0 0.0 0.0
0001e0 00 00 00 00 00 00 00 00 00 00 00 00 00 00 00 00
       0.0 0.0 0.0 0.0
0001f0 00 00 00 00 00 00 00 00 00 00 00 00 00 00 00 00
       0.0 0.0 0.0 0.0

lstm2.weight_ih_l0 f4 [128, 32]
000000 9c ab ea 3d b0 7a cc 3d e8 9d 9a bc 00 e1 26 be
       0.11458513 0.09984338 -0.018874124 -0.16296768
000010 9c e0 b2 3d b0 e1 ec bd 20 c4 46 bd 14 b6 32 3e
       0.08734247 -0.11566484 -0.048526883 0.1745227
000020 60 43 35 bd d0 2f 28 be 40 c8 dc 3c 0c 05 21 3e
       -0.044253707 -0.16424489 0.026950955 0.15724581
000030 6e c8 07 3e c0 b4 e7 3d 90 db 1e bc ac 87 cb 3d
       0.13260052 0.11313772 -0.0096959025 0.09937987
000040 01 02 9d bd f0 7b 3d bc 40 3d 4c bb 94 b2 89 3d
       -0.07666398 -0.0115651935 -0.0031164438 0.06723514
000050 94 41 72 bd ac d0 2a 3e 10 c9 4f bd 6c ab 35 3d
       -0.05914457 0.16681165 -0.050728858 0.044352934
000060 60 cb 14 bc cd 7b 01 be c8 c4 98 3d 5d 08 09 be
       -0.0090816915 -0.12644883 0.07459408 -0.13382097
000070 cd 28 b0 bd ae 48 2a 3e e0 72 3b bd 32 ae 06 3e
       -0.08601532 0.16629288 -0.04576385 0.13152388
000080 55 d8 41 be 88 15 5e bd d0 3d c0 bc 77 ee 08 be
       -0.1893018 -0.054219753 -0.023466974 -0.13372217
000090 77 cc 95 bd 0c d0 1e 3e aa 87 aa bd 34 3e 53 3d
       -0.07314389 0.15509051 -0.08326657 0.051572993
0000a0 7f 80 98 bd 33 d7 9a bd 68 27 e6 bc 11 0a c9 bd
       -0.07446384 -0.07560577 -0.028094962 -0.09816373
0000b0 50 51 16 bd 51 dc bf bd 78 34 0d bd f6 d8 38 be
       -0.03669864 -0.09368194 -0.034473866 -0.18051514
0000c0 d0 e7 70 bd 78 90 f4 3c 50 8b 05 bc 9c ac 05 3e
       -0.058814824 0.029854044 -0.0081508905 0.13054127
0000d0 e5 df c9 bd 9c 58 3a bd 10 a5 8c 3d 36 14 20 3e
       -0.098571576 -0.04549466 0.06867421 0.1563271
0000e0 b6 83 12 3e 18 ff 7b bd 38 5f c3 bc 6c b0 2d 3d
       0.14308056 -0.061522573 -0.023849115 0.042404577
0000f0 00 f7 75 3a 64 d3 a3 3d 44 9f e9 bd 50 7e 8d 3d
       0.0009382814 0.07999304 -0.11407331 0.06908858
000100 fc fc 1c 3d 90 16 25 be b8 6c 45 3d 7c 6c a9 3d
       0.038327202 -0.16121888 0.048199385 0.08272645
000110 30 fb 0a 3c 2c 81 22 3d 80 59 cb 3a 0c b4 72 bd
       0.008482739 0.03967397 0.0015514344 -0.059253737
000120 30 99 01 be 7a 3b 2e 3e 20 5f fb bc 6c ba 7a bd
       -0.12656093 0.17014876 -0.030685008 -0.061212942
000130 d8 fe 50 3d d0 03 e2 3d ac ad 23 3e f0 3c 86 bd
       0.051024288 0.110358834 0.1598422 -0.06554592
000140 b8 9a 3c be e0 1e fa bd 18 a0 e6 3c 88 30 9c bc
       -0.18418396 -0.1221292 0.02815251 -0.01906611
000150 66 4f 16 be e0 5c 9d 3c 40 5a 12 bd 00 44 fd b9
       -0.14678726 0.019209325 -0.0357306 -0.00048306584
000160 e0 1a 39 bd 10 74 b7 bd e8 17 95 3d 60 c7 a2 bb
       -0.045191646 -0.08957684 0.072799504 -0.004967615
000170 19 15 ef bd e4 42 06 bd 29 0a 2a be e0 d4 c8 3d
       -0.11673946 -0.032778636 -0.16605438 0.09806228
000180 44 71 21 be 94 44 be bd c7 76 3f be e6 85 23 be
       -0.15765864 -0.09290424 -0.18697654 -0.15969047
000190 dd bf 24 be 10 46 82 3c 56 89 3d 3e f0 4e 88 bd
       -0.16088815 0.015902549 0.18509421 -0.06655681
0001a0 d8 14 29 3d 8e 5c 85 bd 90 bc 8d 3d 70 e0 fb bc
       0.041279644 -0.06511794 0.06920731 -0.030746669
0001b0 36 00 0e 3e 3c 11 55 3d 62 fe 03 be 94 87 13 3e
       0.13867268 0.05201839 -0.12890008 0.14407188
0001c0 28 7e 9e 3d 9c f1 bc 3d fe 55 34 3e 1f e0 e0 bd
       0.07738906 0.09225771 0.17610928 -0.10980248
0001d0 da e3 90 bd c2 7e 15 be 98 e8 37 bd 70 72 61 bc
       -0.07074709 -0.14599136 -0.044899553 -0.013760194
0001e0 b7 8b 0c be ec 23 b0 3d 00 da 2a be 1e 0a ac bd
       -0.13725172 0.086006016 -0.16684723 -0.08400367
0001f0 aa b1 2f be 81 c2 c0 bd 98 24 b8 3c a2 fa 0d 3e
       -0.17157617 -0.09412099 0.022478387 0.1386514
000200 56 5e ea bd e8 50 dd 3d 5f 4b b9 bd 9c 54 8e 3d
       -0.114437744 0.10806447 -0.09047579 0.06949732
000210 a8 99 b4 bc 1c a5 9a 3d c0 6b 0d 3c b8 54 0b be
       -0.022045925 0.07551023 0.008631647 -0.13606536
000220 2c d4 00 be 58 1b 45 3e 40 d0 ef bb 54 d4 fb 3d
       -0.12580937 0.19248712 -0.0073185265 0.12296358
000230 2c 0a 22 be c0 30 e4 3c 32 d0 1d 3e d4 27 3b bd
       -0.15824193 0.027855277 0.15411451 -0.04569228
000240 46 f8 ca bd 02 22 0b 3e 9c ec 25 3d 60 4e ba 3b
       -0.09910636 0.13587192 0.04050885 0.0056856126
000250 32 b8 0b be e8 12 05 bd 20 3c f7 3b c0 17 87 bc
       -0.13644484 -0.032488734 0.0075450093 -0.016490817
000260 16 23 90 bd 54 2e 60 bd 28 24 e3 3c 48 8e ea 3d
       -0.07037942 -0.054731682 0.027727202 0.11452919
000270 77 7f e5 bd db ec 0e be 2c 2c ac 3d 36 78 0a be
       -0.112059526 -0.1395754 0.084068626 -0.1352242
000280 57 ed 3e be a4 05 09 bd ae e2 34 be a8 b6 1e be
       -0.18645225 -0.033452645 -0.17664596 -0.15499365
000290 c8 d9 9a 3d 68 48 38 3e f8 01 2e 3e b4 4f 9f 3d
       0.0756107 0.17996371 0.16992939 0.07778874
0002a0 6a dd 0b 3e 58 9b f8 3d d5 bc a4 bd ac 63 0c bd
       0.13658682 0.121390045 -0.08043829 -0.034274742
0002b0 6a db fd bd 40 db 33 3e d0 3a db 3d 28 de 37 3e
       -0.123953655 0.17564106 0.10704577 0.1795584
0002c0 3e e6 3a 3e 5c 55 f5 3d 67 81 f7 bd e8 7b ab bd
       0.18251893 0.11979172 -0.120852284 -0.083732426
0002d0 c6 47 24 3e f2 66 24 3e 82 c4 00 3e 83 8d 18 be
       0.16043004 0.16054896 0.12574962 -0.14897732
0002e0 d4 26 f1 3d 4c 1b 28 be 78 f6 b5 bc 52 c2 1c 3e
       0.11774984 -0.16416663 -0.022212252 0.15308502
0002f0 68 ae a5 3c c6 a8 02 3e 00 6f 62 3b a8 23 6d bd
       0.020224765 0.12759694 0.0034551024 -0.057895333
000300 64 cc ab 3d 20 26 8d bd 4a 8f 1f 3e 4c a6 2e bd
       0.08388594 -0.068920374 0.15582004 -0.04263906
000310 26 d0 07 be 20 44 b0 bb a0 68 d4 bc 9a 53 13 be
       -0.13262996 -0.005379215 -0.025928795 -0.1438736
000320 84 7c f0 3d 0f 55 b2 bd 8c 79 d8 3d 6c c9 61 bd
       0.117424995 -0.0870763 0.10570058 -0.05512373
000330 6f bc f2 bd 74 03 0c 3e dd 85 e4 bd b8 50 c8 3d
       -0.11852347 0.13673192 -0.11158345 0.09781021
000340 06 44 33 be 30 c7 b1 bc bc e7 86 3d a6 1d 3b be
       -0.17506418 -0.021701425 0.065871686 -0.18273029
000350 e0 2e ea bc 99 c9 af bd 4e 00 2f be 11 4f da bd
       -0.028586805 -0.085833736 -0.1708996 -0.10659612
000360 70 9a ef bc 22 81 14 be 34 af 42 bd a8 9c bf bd
       -0.029248446 -0.14502385 -0.047530368 -0.09356052
000370 86 a1 3c 3e ae 1b cf bd ec f0 a8 3d b0 a7 cd 3c
       0.18420991 -0.10112701 0.08249077 0.025104374
000380 2f 05 c2 bd a3 34 f2 bd 00 7d d5 bd 80 f2 b6 3a
       -0.09473645 -0.11826446 -0.104242325 0.0013957769
000390 e8 a8 f7 3d 20 28 ca bc e0 c2 00 3c 39 89 e6 bd
       0.12092763 -0.024677336 0.007858962 -0.11256642
0003a0 0c 4e 28 bd 98 24 13 be 71 cf c2 bd 08 19 3c 3e
       -0.041090056 -0.14369428 -0.095122226 0.18368924
0003b0 28 fa f7 3c 20 93 2c bc de 27 81 bd b4 23 ec bd
       0.030270651 -0.010533124 -0.06306432 -0.11530247
0003c0 fd d8 bc bd 1c 2d c5 3d b0 9d 6d 3d e0 68 f6 bc
       -0.09221075 0.096277446 0.05801171 -0.030079305
0003d0 5c 17 e9 3d 70 7e e9 3d 7a de 83 bd 68 03 a7 3c
       0.113814086 0.11401069 -0.064389184 0.020387366
0003e0 80 84 b8 bb ac 7b 3d be 20 56 1d 3e d0 dd 18 bd
       -0.0056310296 -0.18504208 0.15364885 -0.037320912
0003f0 4c 54 b9 3d 8c 62 0e be 80 92 a5 bb 10 be 4d 3d
       0.090492815 -0.1390478 -0.0050528646 0.050230086

lstm2.weight_hh_l0 f4 [128, 32]
000000 6e d4 28 be d8 ac ed 3d cf 0a ad bd 00 25 bb ba
       -0.16487285 0.11605233 -0.08449327 -0.0014277995
000010 ee 6e c8 bd 73 82 09 be 32 28 41 be d6 7b 43 be
       -0.09786783 -0.13428669 -0.1886299 -0.19090208
000020 b8 b8 fa 3d e4 30 37 be 52 7c e0 bd 51 b2 2a be
       0.122422636 -0.17889744 -0.10961212 -0.16669585
000030 b9 e3 bc bd 78 25 70 bd 28 3e fd bc 44 2b c4 3d
       -0.09223122 -0.058629483 -0.030913427 0.09578565
000040 34 42 1e be 40 e3 c2 3b 5c e9 97 3d 1b cf c3 bd
       -0.15454942 0.0059475005 0.07417557 -0.095609866
000050 60 24 c2 bd fa 34 0a 3e 70 e6 44 be be 18 2e 3e
       -0.09479594 0.13496771 -0.1922853 0.17001626
000060 e0 94 38 3e 34 d0 7e bd 2e 2b 43 3e d0 16 e8 3c
       0.18025541 -0.062210277 0.1905944 0.02833119
000070 68 f7 4d 3d b6 d3 23 3e b1 6d b3 bd 8a d4 45 3e
       0.050284773 0.1599873 -0.08761156 0.19319358
000080 c0 c6 bf 3c 63 9f b3 bd 1a 3c c3 bd 8a c0 d9 bd
       0.023410201 -0.08770635 -0.09532948 -0.10632427
000090 36 4c 32 be 62 0e 2d 3e cd ac c8 bd e8 a6 5b bd
       -0.17411885 0.16900018 -0.09798584 -0.05362597
0000a0 c7 a0 20 be 80 71 fe ba 2a b0 45 be ee 0b 25 3e
       -0.15686332 -0.0019412488 -0.19305483 0.16117832
0000b0 a0 91 80 3b f0 e5 39 bd e4 f1 1b bd 80 f8 ab bc
       0.00392361 -0.0453853 -0.03807248 -0.020992517
0000c0 b8 ff bd 3c 2c 24 2e 3e 0c d4 db 3d 8d c3 b3 bd
       0.023193225 0.17005986 0.10733804 -0.08777533
0000d0 40 c5 0c be fe 7e 25 3e b6 7b 13 be a4 1c 15 bd
       -0.1374712 0.16161725 -0.1440266 -0.036404267
0000e0 28 cc a0 3d 67 ef 1f be a0 5a f0 bb 50 96 64 3d
       0.0785144 -0.15618668 -0.007335022 0.05580741
0000f0 88 fb b4 3c 91 ab 3b be 12 86 1e be 04 82 1d 3d
       0.022092596 -0.18327166 -0.15480831 0.03845407
000100 8c 9e 55 3d ff f6 08 be 0a d9 29 be 00 a3 5a 3a
       0.052153155 -0.13375472 -0.165867 0.0008340329
000110 8a 27 0c 3e 56 22 18 3e e9 35 a5 bd dc ff e6 3d
       0.13686958 0.14856848 -0.08066923 0.1127927
000120 06 51 bf bd 4c a7 37 3e dc cd e8 3d d0 ae 13 3c
       -0.09341626 0.17934912 0.113673896 0.0090138465
000130 0b 7a da bd b2 48 3f 3e 1f 9f 2c be 5a e9 0a be
       -0.10667809 0.18680075 -0.16857575 -0.13565579
000140 b0 32 34 bc 3c 1b 0b 3e 60 f2 e3 3b 60 e9 6c 3d
       -0.010998413 0.13584608 0.0069563836 0.05783975
000150 68 0a 1a 3d 92 bd 81 bd 42 40 3e 3e d0 a9 76 3c
       0.03760758 -0.06334986 0.185792 0.015055135
000160 16 ab 9b bd f0 2c 28 bc 70 3e 3c be c0 da d2 bc
       -0.076009914 -0.01026462 -0.18383193 -0.025739074
000170 00 05 d5 3b ea 61 33 3e 93 7c da bd 27 14 0a be
       0.00650084 0.1751782 -0.10668292 -0.1348425
000180 95 5f ca bd 20 87 33 bc 78 a3 27 3e 44 e5 90 3d
       -0.09881512 -0.010957509 0.16370952 0.07074979
000190 da 24 2b be 6c 4c f6 3d 48 b1 15 bd c4 a9 e8 bd
       -0.16713277 0.12026295 -0.03654602 -0.11360505
0001a0 1d 1e e1 bd 60 72 2a bc 1f 56 2a be 68 3e 2c 3d
       -0.10992072 -0.010403246 -0.16634415 0.042051703
0001b0 a0 d5 96 3d 98 8c 03 3e 0c d0 14 3d b4 21 44 3d
       0.073649645 0.12846601 0.03633122 0.047883704
0001c0 a4 ce 37 bd 3c b9 82 3d a9 71 44 be 24 8f 95 bd
       -0.044874802 0.06382987 -0.19183983 -0.073026925
0001d0 dc 6b 26 be dd b9 05 be 09 4e 8f bd e8 2c 2d 3e
       -0.16252083 -0.13059182 -0.06997306 0.16911662
0001e0 ee e6 1d be 40 c7 0e 3b 50 b5 b4 3d 23 fb 08 be
       -0.15420124 0.0021786243 0.08823645 -0.13377051
0001f0 a3 ea 24 be 20 1f f4 bc 58 d9 18 3e 48 c1 2d bd
       -0.16105132 -0.029799998 0.1492666 -0.042420655
000200 d4 22 53 bd 08 d8 77 bd 7e e5 0d 3e 27 94 bb bd
       -0.051546887 -0.060508758 0.13857076 -0.09159117
000210 00 df 6e bc 35 a5 00 be 72 1e 2c 3e d0 e6 45 3e
       -0.0145795345 -0.12563021 0.16808489 0.19326329
000220 80 fc be 3a 00 f8 a9 3d 28 3f 2b 3e 98 43 84 bd
       0.00145711 0.08299255 0.16723311 -0.06458205
000230 b8 ff ae bd cf d4 b5 bd 5d 90 2c be a0 ef a0 bc
       -0.08544868 -0.08878481 -0.16851945 -0.019645512
000240 68 1f 3b bd 28 95 48 3d 18 f5 d2 3d 5c 6a be 3d
       -0.04568425 0.04897037 0.10300654 0.0929763
000250 cd 83 45 be d5 5c e4 bd b0 6d 45 3d 68 08 ce 3d
       -0.1928856 -0.11150519 0.04820031 0.10060197
000260 8c 5a 71 bd c4 59 39 3e 04 14 10 3e 1f 51 42 be
       -0.058924243 0.18100649 0.14070135 -0.18976258
000270 e8 be a9 3d a0 5d 0c 3c 23 0a 41 be 76 95 44 3e
       0.082883656 0.008567244 -0.18851523 0.1919764
000280 38 7c 1c be 34 5a 5d 3d 05 1d e0 bd 85 60 98 bd
       -0.1528176 0.054041103 -0.10943035 -0.07440285
000290 7a 77 2f 3e 82 66 16 be dc 26 95 3d 84 93 8d 3d
       0.1713542 -0.14687541 0.072828025 0.06912902
0002a0 b2 ce d8 bd 89 ad 19 be 6a ae ac bd 46 63 25 be
       -0.10586299 -0.15007605 -0.08431704 -0.16151151
0002b0 62 2b 09 3e a0 f7 d8 bc 14 e5 35 3e c0 4d 3e be
       0.13395455 -0.026485264 0.17763168 -0.18584347
0002c0 2c d4 35 3e 65 41 06 be be 5c 2b 3e 4c e0 c5 3d
       0.17756718 -0.13110884 0.16734597 0.09661922
0002d0 fc d8 db bd 88 82 3f 3e be 08 42 be e8 4e 5b bd
       -0.10734746 0.18702137 -0.18948647 -0.053542048
0002e0 a4 95 45 3e 67 89 44 be ba 50 b8 bd b4 e7 e1 3d
       0.19295365 -0.1919304 -0.08999772 0.11030522
0002f0 cc 38 4d bd 91 d4 2a be 2e f3 f9 bd a4 11 9d bd
       -0.050102994 -0.1668265 -0.12204586 -0.0766938
000300 40 e5 47 bb d4 71 8c 3d cc b7 bf 3d 22 b8 ee bd
       -0.0030501634 0.068576485 0.09361228 -0.11656214
000310 e4 e7 30 3d 6c 79 d2 3d 0a aa 0d 3e 1c f5 cb 3d
       0.043189898 0.10277066 0.13834396 0.0995886
000320 74 bf 2d bd 48 42 c3 bc 20 06 a3 3b ac 09 03 be
       -0.042418912 -0.023835316 0.0049750954 -0.12796658
000330 34 51 11 be 1b 5e 08 be 40 20 83 bd fe b7 00 be
       -0.14191133 -0.13317148 -0.064026356 -0.12570187
000340 3c 03 26 3d df 18 24 be a8 95 ec 3c 24 28 5e 3d
       0.04053043 -0.16025113 0.028879955 0.0542375
000350 0e e5 22 be 6e f3 08 3e 74 28 8a 3d 6c 73 dc 3d
       -0.1590769 0.13374111 0.06745997 0.107642025
000360 00 88 97 3c 18 94 0e be 20 dc 32 3c b8 de 02 3e
       0.018497467 -0.13923681 0.01091674 0.12780273
000370 10 26 17 be e0 af c1 3b d0 ee 36 3e d1 f3 3e be
       -0.14760613 0.0059108585 0.17864537 -0.18647696
000380 d0 a3 a5 3d c4 1c 1c bd 73 87 91 bd 30 17 17 3d
       0.080878854 -0.03811337 -0.07105913 0.036887348
000390 00 a3 83 bd 9d b2 2c be bb 9a 3f be 88 a5 e1 3d
       -0.06427574 -0.1686501 -0.18711369 0.11017901
0003a0 7e 0d 25 3e b4 df 06 bd 88 27 75 3d f4 e2 a5 3d
       0.16118428 -0.032928184 0.059852153 0.080999285
0003b0 e4 c2 5d bd 9c 42 dc bd 08 1f a2 3c c2 e5 44 3e
       -0.05414094 -0.10754892 0.019790187 0.1922827
0003c0 88 d4 19 be 9d f5 f0 bd a4 5d 03 3e be 07 2b 3e
       -0.1502248 -0.11765597 0.1282869 0.16702172
0003d0 41 51 11 be 88 87 b3 bd a8 8e a9 3d 1c 39 2d 3e
       -0.14191152 -0.08766085 0.08279163 0.16916317
0003e0 7c 8c 83 3d f8 76 d5 3c 02 05 c0 bd 3f 27 f9 bd
       0.0642328 0.026057705 -0.09375955 -0.12165689
0003f0 2c 73 82 bd 4b f2 bb bd 0c f0 ad 3d 65 19 2a be
       -0.063696235 -0.09177073 0.08493051 -0.1661125

lstm2.bias_ih_l0 f4 [128]
000000 00 00 00 00 00 00 00 00 00 00 00 00 00 00 00 00
       0.0 0.0 0.0 0.0
000010 00 00 00 00 00 00 00 00 00 00 00 00 00 00 00 00
       0.0 0.0 0.0 0.0
000020 00 00 00 00 00 00 00 00 00 00 00 00 00 00 00 00
       0.0 0.0 0.0 0.0
000030 00 00 00 00 00 00 00 00 00 00 00 00 00 00 00 00
       0.0 0.0 0.0 0.0
000040 00 00 00 00 00 00 00 00 00 00 00 00 00 00 00 00
       0.0 0.0 0.0 0.0
000050 00 00 00 00 00 00 00 00 00 00 00 00 00 00 00 00
       0.0 0.0 0.0 0.0
000060 00 00 00 00 00 00 00 00 00 00 00 00 00 00 00 00
       0.0 0.0 0.0 0.0
000070 00 00 00 00 00 00 00 00 00 00 00 00 00 00 00 00
       0.0 0.0 0.0 0.0
000080 00 00 00 00 00 00 00 00 00 00 00 00 00 00 00 00
       0.0 0.0 0.0 0.0
000090 00 00 00 00 00 00 00 00 00 00 00 00 00 00 00 00
       0.0 0.0 0.0 0.0
0000a0 00 00 00 00 00 00 00 00 00 00 00 00 00 00 00 00
       0.0 0.0 0.0 0.0
0000b0 00 00 00 00 00 00 00 00 00 00 00 00 00 00 00 00
       0.0 0.0 0.0 0.0
0000c0 00 00 00 00 00 00 00 00 00 00 00 00 00 00 00 00
       0.0 0.0 0.0 0.0
0000d0 00 00 00 00 00 00 00 00 00 00 00 00 00 00 00 00
       0.0 0.0 0.0 0.0
0000e0 00 00 00 00 00 00 00 00 00 00 00 00 00 00 00 00
       0.0 0.0 0.0 0.0
0000f0 00 00 00 00 00 00 00 00 00 00 00 00 00 00 00 00
       0.0 0.0 0.0 0.0
000100 00 00 00 00 00 00 00 00 00 00 00 00 00 00 00 00
       0.0 0.0 0.0 0.0
000110 00 00 00 00 00 00 00 00 00 00 00 00 00 00 00 00
       0.0 0.0 0.0 0.0
000120 00 00 00 00 00 00 00 00 00 00 00 00 00 00 00 00
       0.0 0.0 0.0 0.0
000130 00 00 00 00 00 00 00 00 00 00 00 00 00 00 00 00
       0.0 0.0 0.0 0.0
000140 00 00 00 00 00 00 00 00 00 00 00 00 00 00 00 00
       0.0 0.0 0.0 0.0
000150 00 00 00 00 00 00 00 00 00 00 00 00 00 00 00 00
       0.0 0.0 0.0 0.0
000160 00 00 00 00 00 00 00 00 00 00 00 00 00 00 00 00
       0.0 0.0 0.0 0.0
000170 00 00 00 00 00 00 00 00 00 00 00 00 00 00 00 00
       0.0 0.0 0.0 0.0
000180 00 00 00 00 00 00 00 00 00 00 00 00 00 00 00 00
       0.0 0.0 0.0 0.0
000190 00 00 00 00 00 00 00 00 00 00 00 00 00 00 00 00
       0.0 0.0 0.0 0.0
0001a0 00 00 00 00 00 00 00 00 00 00 00 00 00 00 00 00
       0.0 0.0 0.0 0.0
0001b0 00 00 00 00 00 00 00 00 00 00 00 00 00 00 00 00
       0.0 0.0 0.0 0.0
0001c0 00 00 00 00 00 00 00 00 00 00 00 00 00 00 00 00
       0.0 0.0 0.0 0.0
0001d0 00 00 00 00 00 00 00 00 00 00 00 00 00 00 00 00
       0.0 0.0 0.0 0.0
0001e0 00 00 00 00 00 00 00 00 00 00 00 00 00 00 00 00
       0.0 0.0 0.0 0.0
0001f0 00 00 00 00 00 00 00 00 00 00 00 00 00 00 00 00
       0.0 0.0 0.0 0.0

lstm2.bias_hh_l0 f4 [128]
000000 00 00 00 00 00 00 00 00 00 00 00 00 00 00 00 00
       0.0 0.0 0.0 0.0
000010 00 00 00 00 00 00 00 00 00 00 00 00 00 00 00 00
       0.0 0.0 0.0 0.0
000020 00 00 00 00 00 00 00 00 00 00 00 00 00 00 00 00
       0.0 0.0 0.0 0.0
000030 00 00 00 00 00 00 00 00 00 00 00 00 00 00 00 00
       0.0 0.0 0.0 0.0
000040 00 00 00 00 00 00 00 00 00 00 00 00 00 00 00 00
       0.0 0.0 0.0 0.0
000050 00 00 00 00 00 00 00 00 00 00 00 00 00 00 00 00
       0.0 0.0 0.0 0.0
000060 00 00 00 00 00 00 00 00 00 00 00 00 00 00 00 00
       0.0 0.0 0.0 0.0
000070 00 00 00 00 00 00 00 00 00 00 00 00 00 00 00 00
       0.0 0.0 0.0 0.0
000080 00 00 00 00 00 00 00 00 00 00 00 00 00 00 00 00
       0.0 0.0 0.0 0.0
000090 00 00 00 00 00 00 00 00 00 00 00 00 00 00 00 00
       0.0 0.0 0.0 0.0
0000a0 00 00 00 00 00 00 00 00 00 00 00 00 00 00 00 00
       0.0 0.0 0.0 0.0
0000b0 00 00 00 00 00 00 00 00 00 00 00 00 00 00 00 00
       0.0 0.0 0.0 0.0
0000c0 00 00 00 00 00 00 00 00 00 00 00 00 00 00 00 00
       0.0 0.0 0.0 0.0
0000d0 00 00 00 00 00 00 00 00 00 00 00 00 00 00 00 00
       0.0 0.0 0.0 0.0
0000e0 00 00 00 00 00 00 00 00 00 00 00 00 00 00 00 00
       0.0 0.0 0.0 0.0
0000f0 00 00 00 00 00 00 00 00 00 00 00 00 00 00 00 00
       0.0 0.0 0.0 0.0
000100 00 00 00 00 00 00 00 00 00 00 00 00 00 00 00 00
       0.0 0.0 0.0 0.0
000110 00 00 00 00 00 00 00 00 00 00 00 00 00 00 00 00
       0.0 0.0 0.0 0.0
000120 00 00 00 00 00 00 00 00 00 00 00 00 00 00 00 00
       0.0 0.0 0.0 0.0
000130 00 00 00 00 00 00 00 00 00 00 00 00 00 00 00 00
       0.0 0.0 0.0 0.0
000140 00 00 00 00 00 00 00 00 00 00 00 00 00 00 00 00
       0.0 0.0 0.0 0.0
000150 00 00 00 00 00 00 00 00 00 00 00 00 00 00 00 00
       0.0 0.0 0.0 0.0
000160 00 00 00 00 00 00 00 00 00 00 00 00 00 00 00 00
       0.0 0.0 0.0 0.0
000170 00 00 00 00 00 00 00 00 00 00 00 00 00 00 00 00
       0.0 0.0 0.0 0.0
000180 00 00 00 00 00 00 00 00 00 00 00 00 00 00 00 00
       0.0 0.0 0.0 0.0
000190 00 00 00 00 00 00 00 00 00 00 00 00 00 00 00 00
       0.0 0.0 0.0 0.0
0001a0 00 00 00 00 00 00 00 00 00 00 00 00 00 00 00 00
       0.0 0.0 0.0 0.0
0001b0 00 00 00 00 00 00 00 00 00 00 00 00 00 00 00 00
       0.0 0.0 0.0 0.0
0001c0 00 00 00 00 00 00 00 00 00 00 00 00 00 00 00 00
       0.0 0.0 0.0 0.0
0001d0 00 00 00 00 00 00 00 00 00 00 00 00 00 00 00 00
       0.0 0.0 0.0 0.0
0001e0 00 00 00 00 00 00 00 00 00 00 00 00 00 00 00 00
       0.0 0.0 0.0 0.0
0001f0 00 00 00 00 00 00 00 00 00 00 00 00 00 00 00 00
       0.0 0.0 0.0 0.0

fc.weight f4 [1, 32]
000000 78 fa af 3d 10 a3 94 be 64 07 02 3e da da 81 be
       0.08592695 -0.29030657 0.12698132 -0.25362283
000010 40 66 73 bc b1 13 3a be 84 6d d0 be 00 b6 9d bd
       -0.014855921 -0.18171574 -0.40708554 -0.07700729
000020 08 7f 16 3e 80 72 e1 3c 80 36 d0 3d b0 54 81 bc
       0.14696896 0.027520418 0.10166645 -0.015787452
000030 97 1b 4b be 7a 8e a7 3e 66 ce cb be d4 c0 37 3e
       -0.19834743 0.32725888 -0.39805907 0.17944652
000040 bf dc b3 be b5 40 74 be dc 7b 79 be d2 fe 89 3e
       -0.35129353 -0.23852809 -0.24363655 0.26952225
000050 7c 83 89 3e ba d3 9d be 90 38 cf be 20 3e 8b bc
       0.26858127 -0.30825597 -0.4047284 -0.016997397
000060 40 66 49 3e 46 fe 81 be d8 7d 8c 3d 9a 0f bc be
       0.19667912 -0.25389308 0.0685994 -0.36730653
000070 e0 dc b2 3d 62 9d 76 be fc d5 b9 3e 90 68 20 3e
       0.08733535 -0.24083474 0.3629607 0.15664887

batch_norm.weight f4 [32]
000000 00 00 80 3f 00 00 80 3f 00 00 80 3f 00 00 80 3f
       1.0 1.0 1.0 1.0
000010 00 00 80 3f 00 00 80 3f 00 00 80 3f 00 00 80 3f
       1.0 1.0 1.0 1.0
000020 00 00 80 3f 00 00 80 3f 00 00 80 3f 00 00 80 3f
       1.0 1.0 1.0 1.0
000030 00 00 80 3f 00 00 80 3f 00 00 80 3f 00 00 80 3f
       1.0 1.0 1.0 1.0
000040 00 00 80 3f 00 00 80 3f 00 00 80 3f 00 00 80 3f
       1.0 1.0 1.0 1.0
000050 00 00 80 3f 00 00 80 3f 00 00 80 3f 00 00 80 3f
       1.0 1.0 1.0 1.0
000060 00 00 80 3f 00 00 80 3f 00 00 80 3f 00 00 80 3f
       1.0 1.0 1.0 1.0
000070 00 00 80 3f 00 00 80 3f 00 00 80 3f 00 00 80 3f
       1.0 1.0 1.0 1.0

batch_norm.bias f4 [32]
000000 00 00 00 00 00 00 00 00 00 00 00 00 00 00 00 00
       0.0 0.0 0.0 0.0
000010 00 00 00 00 00 00 00 00 00 00 00 00 00 00 00 00
       0.0 0.0 0.0 0.0
000020 00 00 00 00 00 00 00 00 00 00 00 00 00 00 00 00
       0.0 0.0 0.0 0.0
000030 00 00 00 00 00 00 00 00 00 00 00 00 00 00 00 00
       0.0 0.0 0.0 0.0
000040 00 00 00 00 00 00 00 00 00 00 00 00 00 00 00 00
       0.0 0.0 0.0 0.0
000050 00 00 00 00 00 00 00 00 00 00 00 00 00 00 00 00
       0.0 0.0 0.0 0.0
000060 00 00 00 00 00 00 00 00 00 00 00 00 00 00 00 00
       0.0 0.0 0.0 0.0
000070 00 00 00 00 00 00 00 00 00 00 00 00 00 00 00 00
       0.0 0.0 0.0 0.0

batch_norm.running_mean f4 [32]
000000 00 00 00 00 00 00 00 00 00 00 00 00 00 00 00 00
       0.0 0.0 0.0 0.0
000010 00 00 00 00 00 00 00 00 00 00 00 00 00 00 00 00
       0.0 0.0 0.0 0.0
000020 00 00 00 00 00 00 00 00 00 00 00 00 00 00 00 00
       0.0 0.0 0.0 0.0
000030 00 00 00 00 00 00 00 00 00 00 00 00 00 00 00 00
       0.0 0.0 0.0 0.0
000040 00 00 00 00 00 00 00 00 00 00 00 00 00 00 00 00
       0.0 0.0 0.0 0.0
000050 00 00 00 00 00 00 00 00 00 00 00 00 00 00 00 00
       0.0 0.0 0.0 0.0
000060 00 00 00 00 00 00 00 00 00 00 00 00 00 00 00 00
       0.0 0.0 0.0 0.0
000070 00 00 00 00 00 00 00 00 00 00 00 00 00 00 00 00
       0.0 0.0 0.0 0.0

batch_norm.running_var f4 [32]
000000 00 00 80 3f 00 00 80 3f 00 00 80 3f 00 00 80 3f
       1.0 1.0 1.0 1.0
000010 00 00 80 3f 00 00 80 3f 00 00 80 3f 00 00 80 3f
       1.0 1.0 1.0 1.0
000020 00 00 80 3f 00 00 80 3f 00 00 80 3f 00 00 80 3f
       1.0 1.0 1.0 1.0
000030 00 00 80 3f 00 00 80 3f 00 00 80 3f 00 00 80 3f
       1.0 1.0 1.0 1.0
000040 00 00 80 3f 00 00 80 3f 00 00 80 3f 00 00 80 3f
       1.0 1.0 1.0 1.0
000050 00 00 80 3f 00 00 80 3f 00 00 80 3f 00 00 80 3f
       1.0 1.0 1.0 1.0
000060 00 00 80 3f 00 00 80 3f 00 00 80 3f 00 00 80 3f
       1.0 1.0 1.0 1.0
000070 00 00 80 3f 00 00 80 3f 00 00 80 3f 00 00 80 3f
       1.0 1.0 1.0 1.0
